LiDAR_NET_Pre_trained_model_SNN_MLP/ckpt_epoch_74_val_loss_1.463720.pth (torch, 510831 bytes, 4 tensors)

fc1.weight f4 [200, 625]
0	0xbd0942e9	-0.033511076
1	0xbc8207c2	-0.01587284
2	0xbcd23d3c	-0.025663964
3	0x3c69fbbd	0.0142812105
4	0x3d331a92	0.04372651
5	0x3d552c59	0.052044246
6	0x3de7cbc1	0.1131816
7	0x3dc89312	0.097936764
8	0x3d8465e7	0.06464749
9	0x3cd3cbad	0.025853956
10	0xbc870ddb	-0.016486099
11	0x3cfd21c5	0.030899892
12	0x3d9c5228	0.076328576
13	0x3cc661ed	0.024216617
14	0xbc8ef525	-0.017450878
15	0x3cd38634	0.025820829
16	0xbca10155	-0.019653955
17	0x3b8f1b07	0.0043672356
18	0x3caf6439	0.021410095
19	0x3d7445dd	0.05963694
20	0x3cb66a37	0.022267444
21	0x3b96dd42	0.0046040127
22	0x3c95e91f	0.018299637
23	0xbd1ad265	-0.037798304
24	0xbb0f56b8	-0.0021871757
25	0x3d686241	0.056734327
26	0xbd1d0d09	-0.03834251
27	0x3cc00361	0.023439111
28	0x3d498dc3	0.04920746
29	0x3d5822fd	0.052767742
30	0x3c925b43	0.017865783
31	0x3c386266	0.011253929
32	0x3d563d13	0.05230434
33	0xbc1660d2	-0.009178357
34	0xbc2e47ee	-0.010637267
35	0x3c87fac3	0.016599065
36	0x3d24f2d8	0.040270656
37	0x3be9ccdb	0.0071350164
38	0x3d4eb235	0.05046292
39	0x3d4a94ac	0.04945819
40	0x3c5b065c	0.013368215
41	0x3d3c3f9f	0.04595911
42	0xbd6b938b	-0.057513755
43	0xbc6d5a45	-0.014486854
44	0x3d15c2d3	0.036562752
45	0xbc6aa6ce	-0.014321996
46	0x3d2f1237	0.04274198
47	0x3c800ef8	0.015632138
48	0x3db48121	0.08813692
49	0x3d75ce12	0.060010977
50	0x3c80ffeb	0.015747031
51	0x3ab0a876	0.001347794
52	0x3d21a416	0.039463125
53	0xbb852b31	-0.0040639867
54	0x3dacac72	0.08431329
55	0x3d2560bc	0.040375456
56	0x3aa2c713	0.0012418948
57	0xbd57ed1d	-0.052716363
58	0x3d3b8870	0.045784414
59	0xbbd361a6	-0.0064508496
60	0x3ce9dba4	0.028547116
61	0xbcdd48c6	-0.02701224
62	0xbbbe7134	-0.0058118347
63	0xbc17d109	-0.009266146
64	0x3c5396af	0.012914344
65	0x3d60d8ce	0.05489426
66	0xbd1e711e	-0.038682096
67	0x3c1b98d8	0.00949689
68	0xbc9b3daf	-0.018950311
69	0xbcf3820d	-0.029725099
70	0x3d50eb77	0.051005807
71	0x3dae61e2	0.085147634
72	0x3c0eb2df	0.008709638
73	0x3d12bcb5	0.035824496
74	0xbc4f25a6	-0.012643253
75	0x3c459308	0.012058981
76	0x3d15de2f	0.036588844
77	0xbc8383c8	-0.01605405
78	0xbc06c7e1	-0.008226366
79	0x3c7b7304	0.015347246
80	0xbc27ad84	-0.01023424
81	0x3c278ef7	0.010226957
82	0x3c402049	0.011726447
83	0x3d29ba93	0.041437697
84	0x3c92dd88	0.0179279
85	0x3c750510	0.01495482
86	0xbd30fcf2	-0.043209977
87	0xbd75f664	-0.06004943
88	0x3cb563d1	0.022142323
89	0x3e026142	0.12732413
90	0x3d8d3c45	0.06896261
91	0x3cc55c6c	0.024091922
92	0x3d703360	0.058642745
93	0xbde19789	-0.11015231
94	0xbb041315	-0.0020152975
95	0xbd28143c	-0.041034922
96	0xbc8d54fb	-0.017252436
97	0x3937aa8a	0.00017515771
98	0x3c12e106	0.008964783
99	0x3c8f3540	0.017481446
100	0x3b69dad2	0.0035683406
101	0x3c05c0c8	0.008163638
102	0x3cda81dd	0.026673252
103	0x3c934b41	0.01798022
104	0xbd752dc1	-0.059858087
105	0xbd884b5f	-0.06655001
106	0xbd436d7c	-0.047711834
107	0x3d88cb27	0.06679373
108	0xbd2e36cf	-0.04253274
109	0xbd5b6b4d	-0.053569127
110	0xbd8a41ae	-0.06750809
111	0xbd840fb0	-0.06448305
112	0xbd29ad3e	-0.041424982
113	0x3a8541c8	0.0010166699
114	0x3d376644	0.044775262
115	0x3b599e5d	0.0033205964
116	0x3d832f03	0.06405451
117	0x3cf30cc3	0.029669171
118	0x3b92dca2	0.004481868
119	0x3cc755a1	0.024332823
120	0x3d194036	0.037414752
121	0x3d28b091	0.04118401
122	0xbd518930	-0.051156223
123	0xbb3c5222	-0.0028735478
124	0x3d4611ea	0.048356928
125	0x3c2faa11	0.010721699
126	0x3b3567f3	0.0027680367
127	0x3d81261b	0.06306096
128	0x3c9054cf	0.017618565
129	0x3d047076	0.032333814
130	0xbc76c5da	-0.01506182
131	0xbdb58bcd	-0.088645555
132	0xbc7be4cc	-0.015374374
133	0xbc946bf4	-0.018117882
134	0xbdb28204	-0.08716205
135	0xbd9b7fdb	-0.07592746
136	0xbda7a5db	-0.08185931
137	0xbd86929f	-0.065709345
138	0xbc1eaf79	-0.009685391
139	0x3d36497a	0.044503666
140	0x3d868110	0.065675855
141	0xbc5a85d6	-0.013337573
142	0x3d24e57b	0.040257912
143	0xbbc0a534	-0.0058790687
144	0xbd936371	-0.07196701
145	0xbd3eafb4	-0.046554282
146	0xbc849319	-0.016183423
147	0xbc4b26ea	-0.012399415
148	0xbd4b137b	-0.049579125
149	0xbd32b392	-0.043628283
150	0xbcb61cf5	-0.022230605
151	0xbd0665c4	-0.032811895
152	0x3cfb2bf0	0.0306606
153	0x3d238f34	0.03993149
154	0x3cbca1be	0.023026343
155	0xbcda12a6	-0.02662022
156	0xbbe85e0c	-0.0070912894
157	0xbc3b4341	-0.011429609
158	0x3d8d2ee9	0.06893713
159	0xbd9e23cb	-0.07721671
160	0xbd3a90eb	-0.04554836
161	0x3c1720a1	0.009224088
162	0xb834b0d4	-4.308003e-05
163	0xbd76f5fb	-0.06029318
164	0x3d23fa93	0.040033888
165	0xbd605a92	-0.054773875
166	0xbbe88e4a	-0.0070970403
167	0xbcdbfb4f	-0.026853232
168	0xbceacd1c	-0.028662257
169	0xbc52dead	-0.012870473
170	0xbd6f5b8b	-0.05843691
171	0xbdef006c	-0.11670002
172	0xbd659367	-0.056048777
173	0xbd17be93	-0.03704698
174	0x3d772378	0.06033656
175	0x3d27464f	0.040838536
176	0xbceef633	-0.029170131
177	0x3cecb8fa	0.028896797
178	0xbd7f3c78	-0.062313527
179	0x3cbc1ea3	0.022963827
180	0xbcd7f0d9	-0.026359962
181	0xbd8e769e	-0.06956218
182	0xbd593c99	-0.053036306
183	0x3d96d237	0.07364314
184	0x3c3342b6	0.010941198
185	0xbca012df	-0.019540248
186	0xbd47096b	-0.048592966
187	0xbc771e96	-0.015082976
188	0x3c87b68d	0.01656654
189	0xbc53c95e	-0.012926428
190	0xbd071d65	-0.032987017
191	0xbc3c1b26	-0.011481082
192	0xbd1255bc	-0.035726294
193	0x3d58c788	0.052924663
194	0xbd841777	-0.06449788
195	0xbd967aab	-0.07347616
196	0xbceac167	-0.028656675
197	0x3a75b9a4	0.0009373671
198	0xbb62e454	-0.0034620957
199	0xbd8afc09	-0.06786353
200	0x3d0a803c	0.0338137
201	0x3cd2e9be	0.025746223
202	0xbd10a17e	-0.03531026
203	0xbc94fe8b	-0.018187782
204	0xbcd45cbc	-0.025923125
205	0x3d8f3448	0.06992394
206	0x3d09f42e	0.033680134
207	0xbcc62838	-0.0241891
208	0xbc77f70c	-0.015134584
209	0xbd12c0e6	-0.035828494
210	0xbcbb3079	-0.022850262
211	0xbd8a0667	-0.067395024
212	0xbb5e5765	-0.0033926603
213	0x3b6c64cb	0.003607082
214	0x3d2d1b3d	0.042262305
215	0x3c08eb7f	0.008356928
216	0xbd522f20	-0.051314473
217	0x3cecfe6f	0.028929917
218	0xbc8229eb	-0.015889129
219	0xbd64befd	-0.055846203
220	0xbcbb075b	-0.022830656
221	0x3c65cc58	0.01402577
222	0xbcf7413f	-0.030182479
223	0xbd4cd385	-0.05000641
224	0xbd09b1ca	-0.03361682
225	0xbcf6467f	-0.030062912
226	0xbb4152d3	-0.002949883
227	0xbcf97b3d	-0.030454272
228	0x3aa27831	0.0012395439
229	0x3b8ae424	0.0042386223
230	0xbc4fa56d	-0.012673718
231	0x3a975c67	0.0011547924
232	0x3cc50ba2	0.024053399
233	0xbd6701ea	-0.05639831
234	0xbd857ec2	-0.06518318
235	0xbdad549b	-0.08463403
236	0xbbcafa9a	-0.006194425
237	0xbd36b26e	-0.044603758
238	0x3c33c5b0	0.010972425
239	0x3d5d3d63	0.05401362
240	0xbc5589ce	-0.0130333435
241	0xbb1a30db	-0.0023527655
242	0xbd881f3e	-0.06646584
243	0x3cccead2	0.025014315
244	0xbd34d101	-0.044144634
245	0x3c8be2f5	0.017075995
246	0xbd7e3260	-0.06205976
247	0xbd1bc9da	-0.038034298
248	0xbd7117c5	-0.05886056
249	0xbd2c03db	-0.041995864
250	0xbd181adc	-0.03713499
251	0xbd08fda1	-0.033445004
252	0x3d2bebd4	0.04197295
253	0xbc4c7448	-0.0124788955
254	0xbc450ec8	-0.01202745
255	0xbbfa65a7	-0.0076415124

fc1.bias f4 [200]
0	0xbd7f3b71	-0.062312547
1	0x3d6c3c13	0.05767448
2	0x3e1658a1	0.14682247
3	0xbdffcba5	-0.12490014
4	0xbdcc3b84	-0.09972289
5	0x3e169874	0.14706594
6	0xbe0a2fcd	-0.13494797
7	0xbd0d4d9b	-0.03449784
8	0x3dd9972e	0.10624538
9	0x3e0109df	0.12601422
10	0xbc871bf0	-0.016492814
11	0xbdc239e7	-0.094837
12	0x3e327378	0.1742686
13	0xbc767d78	-0.0150445625
14	0xbe83cb71	-0.2574115
15	0x3be8dc8c	0.0071063694
16	0xbc780406	-0.015137678
17	0xbe253b03	-0.16135792
18	0xbc0e845e	-0.008698551
19	0xbe5ad267	-0.21369325
20	0xbde24b42	-0.110495105
21	0xbd4a3b17	-0.04937276
22	0xbe0b8db9	-0.13628282
23	0x3dd2c6a0	0.10291791
24	0x3d99acc5	0.07503656
25	0xbdf189b4	-0.11793843
26	0x3d8f5213	0.06998076
27	0x3e6eaa6f	0.23307203
28	0xbcb601d4	-0.022217669
29	0x3e05e722	0.13076451
30	0xbdef3c1f	-0.11681389
31	0xbdd4cd19	-0.10390682
32	0xbe04f667	-0.1298462
33	0xbd027713	-0.03185184
34	0x3cdd616b	0.027023992
35	0x3d3c59b6	0.045983993
36	0x3e4d8f85	0.2007428
37	0xbdd209fe	-0.10255812
38	0x3dd45776	0.10368244
39	0xbd9a457f	-0.075327866
40	0xba944b37	-0.001131392
41	0xbd368931	-0.04456443
42	0x3cf6d97d	0.030133003
43	0xbcd27124	-0.025688715
44	0xbde7dd62	-0.11321522
45	0x3d36f870	0.044670522
46	0xbe37221d	-0.17884107
47	0xbda191ca	-0.07889135
48	0xbda22a7f	-0.07918262
49	0x3d031102	0.03199864
50	0xbdd1a83c	-0.10237166
51	0x3d922cde	0.07137464
52	0xbda67161	-0.08127094
53	0xbe9ddb21	-0.30831245
54	0xbe14a8bf	-0.14517497
55	0xbc30927f	-0.010777115
56	0xbd71e202	-0.05905343
57	0xbbf7ba9b	-0.007560087
58	0x3d9111eb	0.07083496
59	0x3d17027d	0.036867607
60	0xbc873b6b	-0.016507825
61	0x3e054924	0.13016182
62	0xbcb9110d	-0.022591138
63	0x3d0494af	0.03236836
64	0xbe66d145	-0.22540767
65	0xbc0678b0	-0.008207485
66	0x3e187dbc	0.14891714
67	0xbba95cb0	-0.00516852
68	0x3e472ef0	0.19451499
69	0x3da1afd8	0.07894868
70	0xbe79c2fb	-0.24390785
71	0xbdaf5573	-0.0856122
72	0xbd45e31d	-0.048312295
73	0x3e21b167	0.1579033
74	0xbc0ef2e2	-0.0087249
75	0xbe4e5872	-0.20150927
76	0x3dd8e7c4	0.10591081
77	0x3e28aedf	0.16472958
78	0x3dc502d1	0.09619678
79	0xbd9021a9	-0.0703767
80	0x3e32c893	0.17459325
81	0x3d853f59	0.06506223
82	0xbe8e1c5c	-0.2775601
83	0x3d805598	0.06266326
84	0xbe3b26b0	-0.18276477
85	0x3d3ffe2f	0.046873268
86	0x3e72966a	0.23690191
87	0xbddb6627	-0.107128434
88	0x3dc13f52	0.094359055
89	0xbe2df3f6	-0.16987595
90	0xbd8bdfbc	-0.06829783
91	0xbaf28f3c	-0.0018505822
92	0xbca86bbe	-0.020559188
93	0xbd00099a	-0.031259157
94	0xbd632d65	-0.055463213
95	0xbe327f17	-0.17431293
96	0x3c344239	0.011002117
97	0x3dd8db6f	0.10588729
98	0x3c7e0f32	0.0155065525
99	0x3db3d2b3	0.08780422
100	0x3dd57688	0.10422999
101	0xbb92b853	-0.0044775396
102	0xbdd67f1e	-0.104734644
103	0xbd7f4741	-0.062323812
104	0xbc9c23d1	-0.019060047
105	0xbbc5a231	-0.0060312976
106	0x3e43377b	0.19064133
107	0xbda89ae9	-0.08232672
108	0xbe07c836	-0.13259968
109	0xbe04ae45	-0.12957104
110	0x3ae5c501	0.0017530025
111	0xbc665a3a	-0.014059598
112	0x3e26bc58	0.16282785
113	0xbd5a9531	-0.053364936
114	0x3e0bb1ec	0.1364209
115	0x3bc962fc	0.006145833
116	0x3dcd05b8	0.100108564
117	0xbb192d58	-0.0023372974
118	0xbd2791bf	-0.04091048
119	0x3e399d79	0.18126477
120	0xbdf17439	-0.11789746
121	0xbd159c1f	-0.03652584
122	0xbdbb19ef	-0.09135806
123	0x3d3ed57c	0.046590313
124	0x3dd1624f	0.10223829
125	0xbdd05da4	-0.101741105
126	0x3d047038	0.032333583
127	0xbdb089be	-0.08620022
128	0x3dd52d84	0.10409072
129	0xbe1e9f95	-0.15490563
130	0x3dc42209	0.09576804
131	0x3c18fc0e	0.009337438
132	0xbe8201ce	-0.25392002
133	0x3d53b021	0.05168164
134	0xbdc363d3	-0.09540524
135	0xbe2e4291	-0.1701758
136	0xbe563383	-0.20918088
137	0xbcbb2110	-0.022842914
138	0xbd0874d1	-0.03331453
139	0xbd58888d	-0.0528646
140	0xbdcc4deb	-0.09975799
141	0x3dda1446	0.10648398
142	0x3d9bdb93	0.0761024
143	0x3d2cc803	0.042182934
144	0xbc7eb040	-0.015544951
145	0xbe4432a8	-0.19159949
146	0xbe9a4a9b	-0.30135044
147	0xbc58f7e1	-0.013242693
148	0xbd50e9f5	-0.05100437
149	0x3d749bc8	0.059718877
150	0xbd4d87df	-0.050178405
151	0xbcfc4795	-0.030795852
152	0x3bfb23d2	0.007664182
153	0xbe49f019	-0.19720496
154	0x3e0cca2c	0.13748997
155	0x3b6d5309	0.0036212823
156	0x3d795731	0.060874168
157	0x3dcab1a1	0.09897161
158	0x3de2f83a	0.11082502
159	0xbcef98a0	-0.029247582
160	0x3b783133	0.0037871122
161	0x3d45c8b9	0.048287127
162	0xbe5dd66a	-0.21663824
163	0x3e14cab9	0.14530458
164	0x3def41fb	0.11682507
165	0xbd1fb226	-0.038988255
166	0x3e141419	0.14460792
167	0xbd1d25b6	-0.038366042
168	0xbc4e177c	-0.012578841
169	0xbe3f33c2	-0.18672088
170	0xbd29da58	-0.041467994
171	0x3e30a7d1	0.17251517
172	0xbe0c22bd	-0.13685127
173	0x3d46eee2	0.04856766
174	0xbb8e8d4b	-0.0043503395
175	0xbe5c16c7	-0.21493064
176	0x3d537a75	0.051630456
177	0x3e2129b5	0.15738566
178	0xbd4f75ac	-0.05064933
179	0x3e2136e0	0.1574359
180	0xbd7e4236	-0.062074862
181	0x3e1041dc	0.14087623
182	0x3dc5ff0a	0.096677855
183	0xbdcb5ab1	-0.099294074
184	0xbd9bea2b	-0.07613023
185	0xbe6a78c4	-0.22897631
186	0x3bf43e25	0.0074536973
187	0x3dfdb010	0.12387097
188	0xbd9bca1e	-0.0760691
189	0xbd434700	-0.047675133
190	0xbd93265b	-0.0718505
191	0xbdecf743	-0.11570599
192	0x3da2b200	0.07944107
193	0xbe031afc	-0.12803262
194	0x3d49206e	0.049103193
195	0xbe8bd71d	-0.27312556
196	0xbe3cea29	-0.184487
197	0x3e543d25	0.2072645
198	0xbd5a05cb	-0.05322818
199	0xbe53c9a6	-0.20682392

fc2.weight f4 [10, 200]
0	0xbb1a9751	-0.0023588727
1	0x3d0d2d5d	0.03446709
2	0x3e8d8601	0.276413
3	0xbeb2e127	-0.34937403
4	0xbe43e88c	-0.19131678
5	0x3da05c57	0.078301124
6	0x3e1b9cc4	0.1519652
7	0x3d13d4ea	0.036091723
8	0xba811e16	-0.0009850885
9	0x3dcfc7b1	0.1014551
10	0x3e7727e5	0.24136312
11	0x3e0f7ee8	0.14013255
12	0x3d90d11c	0.070711344
13	0xbf0b6b9c	-0.54461074
14	0x3d4d41b5	0.05011149
15	0xbea6af66	-0.32555693
16	0x3c231e22	0.009955915
17	0x3b8ecbe2	0.004357801
18	0x3ea27f8e	0.31737942
19	0xbe88379a	-0.2660492
20	0xbe0f6129	-0.14001907
21	0x3e9235e5	0.28556743
22	0xbdfb7810	-0.122787595
23	0x3e3cc036	0.18432698
24	0x3ed85555	0.42252603
25	0xb978000c	-0.0002365114
26	0x3dd2ff68	0.10302621
27	0x3d8757a4	0.06608513
28	0x3e411fd4	0.18859798
29	0x3e8f5274	0.27992594
30	0xbdff3563	-0.124613546
31	0xbeb18c3c	-0.34677303
32	0x3db896cd	0.09013138
33	0xbf32db81	-0.69866186
34	0x3d476c67	0.048687365
35	0x3d564251	0.052309338
36	0x3cc459ae	0.023968544
37	0xbe8fb696	-0.2806899
38	0x3e8d7b7d	0.27633277
39	0x3de56d50	0.1120249
40	0x3dd05460	0.10172343
41	0x3e3b6fca	0.18304363
42	0x3ecc5844	0.3991109
43	0x3d86e355	0.06586329
44	0xbee5935b	-0.44838986
45	0x3dce73ab	0.10080656
46	0xbf03b99d	-0.514551
47	0xbebab201	-0.3646393
48	0xbc8c3512	-0.01711515
49	0x3e0d6641	0.13808538
50	0xbe9ee70e	-0.31035656
51	0x3ee051c7	0.4381239
52	0x3d4a62a2	0.04941047
53	0xbe69d629	-0.22835602
54	0xbe141409	-0.14460768
55	0x3c90b1c3	0.017662888
56	0x3eddc665	0.43315426
57	0x3c332ab2	0.010935472
58	0x3e32c8e1	0.17459442
59	0x3d69e473	0.05710263
60	0xbceb2e2a	-0.028708536
61	0xbec3f31d	-0.38271418
62	0xbd41613f	-0.04721188
63	0x3b963353	0.004583755
64	0xbf0f3823	-0.5594503
65	0xbc790fd0	-0.015201524
66	0x3cd91ce6	0.026503038
67	0xbd8cd50e	-0.068765745
68	0x3e5b1787	0.21395694
69	0x3df24ac4	0.11830667
70	0xbec9eec9	-0.3943999
71	0xbe596786	-0.21230897
72	0xbd06d353	-0.03291638
73	0x3e2d96ad	0.1695201
74	0x3da10473	0.07862177
75	0xbbc87999	-0.006118011
76	0x3cebfcba	0.028807033
77	0xbc300126	-0.010742461
78	0xbd1415c0	-0.036153555
79	0x3ca7615d	0.020432169
80	0x3e8f0f3f	0.2794132
81	0xbdcdcbc2	-0.10048629
82	0xbf6e0c67	-0.92987674
83	0xbdb12780	-0.08650112
84	0xbe78aeea	-0.24285474
85	0x3dd90140	0.105959415
86	0x3efa8e39	0.48936632
87	0xbe0e62f0	-0.13904929
88	0x3f23d82b	0.6400172
89	0xbe55063d	-0.20803161
90	0xbe2f752e	-0.17134544
91	0x3e2cdccf	0.16881107
92	0xbf00f1d6	-0.5036901
93	0xbd63f2c1	-0.05565143
94	0xbce978f2	-0.028500054
95	0xbcd0879d	-0.02545529
96	0xbc3db9b5	-0.011579921
97	0x3d9d2009	0.07672126
98	0xbcc4f0d8	-0.024040624
99	0x3f241dbd	0.64107877
100	0x3ecd5090	0.40100527
101	0xbd48a3a1	-0.048984174
102	0xbef9fe4b	-0.48826823
103	0x3cfb5827	0.030681683
104	0xbeeacec8	-0.45860887
105	0x3cb288b9	0.02179371
106	0x3e9cb7dd	0.30609027
107	0x3e2a81bc	0.16651052
108	0xbde67835	-0.112533964
109	0xbe4fc278	-0.20289028
110	0xbc2aa245	-0.010414665
111	0x3bd10402	0.0063786516
112	0x3dec3103	0.11532786
113	0xbcd2d050	-0.025734097
114	0x3c0b22ee	0.008492215
115	0x3df5faa6	0.12010698
116	0x3d3f8630	0.04675883
117	0x3f32fed5	0.6992009
118	0xbd8c58fd	-0.06852911
119	0x3ebe3575	0.3715016
120	0x3d0d6545	0.034520406
121	0x3da21c8a	0.079156
122	0xbba932f0	-0.005163543
123	0x3d227dbf	0.039670702
124	0x3d5a2915	0.053261835
125	0xbe501033	-0.2031868
126	0x3de65c88	0.11248118
127	0xbec303ca	-0.38088828
128	0x3d754249	0.059877668
129	0xbe690f2d	-0.22759695
130	0xbcf246fd	-0.029574865
131	0xbced6fb5	-0.02898393
132	0xbe8883e9	-0.2666314
133	0x3dcee641	0.10102511
134	0x3bf74208	0.0075457133
135	0xbe1fe1f9	-0.15613545
136	0xbe90c908	-0.28278375
137	0x3d058768	0.032599837
138	0x3e96a067	0.29419252
139	0xbdad2bf5	-0.0845565
140	0x3e1546bc	0.14577764
141	0x3d94bb5b	0.07262298
142	0x3ac6ba0e	0.001516165
143	0xbe61cd90	-0.22051072
144	0xbe7d9840	-0.2476511
145	0xbe980904	-0.29694378
146	0x3d9c2ca7	0.07625704
147	0xbe06aad6	-0.13151106
148	0x3e5fb5fc	0.21846765
149	0x3e6ccfe2	0.23126176
150	0x3dc6a024	0.09698513
151	0x3cc83e8c	0.024443887
152	0x3d815780	0.063155174
153	0xbda05c9e	-0.07830165
154	0x3eac09e3	0.33601293
155	0xbd0a84c6	-0.03381803
156	0x3e3313fd	0.17488094
157	0x3db28335	0.08716432
158	0x3dc57e98	0.096432865
159	0xbd5d45be	-0.05402159
160	0xbcaff132	-0.021477316
161	0x3dd6a9ef	0.10481631
162	0xbe30d041	-0.17266943
163	0x3e50b68d	0.20382138
164	0x3e9c93cd	0.30581513
165	0xbea27b3d	-0.31734648
166	0x3e94ca6a	0.2906068
167	0x3cf829e9	0.030293422
168	0x3e6d19cf	0.23154376
169	0x3d89a304	0.06720546
170	0xbd58a872	-0.052895017
171	0x3c1ddbcc	0.009634923
172	0xbea69b61	-0.3254042
173	0xbdf8cabe	-0.12148045
174	0xbda7ebc0	-0.081992626
175	0xbe85f355	-0.2616221
176	0xbe0a2b74	-0.13493139
177	0x3e3eb3c1	0.18623258
178	0xbefddeef	-0.49584147
179	0x3e824e97	0.25450584
180	0x3e3f4d74	0.1868189
181	0x3ea2abd4	0.3177172
182	0x3f023fc7	0.50878567
183	0x3ea37802	0.31927496
184	0xbd5d1c71	-0.053982202
185	0x3c600e9c	0.013675358
186	0x3b605d20	0.0034235194
187	0x3ea15ad1	0.315146
188	0x3ef0e4e2	0.47049624
189	0xbd97396a	-0.07383998
190	0xbee8dd9a	-0.4548157
191	0xbd978058	-0.073975265
192	0x3e3e0d66	0.18559799
193	0xbe1d43c5	-0.15357883
194	0x3cecb486	0.028894674
195	0xbcd8c03b	-0.02645885
196	0xbc6a5d2a	-0.014304439
197	0x3ee5d183	0.44886407
198	0x3d6358e3	0.05550469
199	0x3e0ea85f	0.13931416
200	0x3bae0a12	0.005311259
201	0x3e6c968d	0.23104306
202	0x3c912517	0.017717881
203	0x3d6df805	0.058097858
204	0x3d9048b1	0.07045115
205	0xbcb4396f	-0.022000043
206	0xbe944fe3	-0.289672
207	0xbb3f9c9e	-0.0029237638
208	0x3e57b24f	0.21064113
209	0xbd840646	-0.06446509
210	0x3e4ed3a4	0.20197922
211	0x3e63e397	0.22254787
212	0x3ec32d7e	0.38120645
213	0xbe1b2d7e	-0.15154073
214	0xbee75e08	-0.45188928
215	0xbef4ec0c	-0.4783634
216	0x3d862c9a	0.06551476
217	0xbcf23fd9	-0.02957146
218	0x3f1ccd43	0.61250705
219	0x3e89dfd8	0.26928592
220	0xbe2650a8	-0.16241705
221	0xbe9c6a71	-0.30549958
222	0x3e419ed4	0.18908244
223	0x3cee4c66	0.029089164
224	0x3e98bfdd	0.2983388
225	0xbd78c7a9	-0.060737286
226	0x3ca98f9c	0.020698361
227	0xbd1f9607	-0.038961437
228	0xbec0a742	-0.37627608
229	0xbe978002	-0.2958985
230	0x3e8bd064	0.27307427
231	0x3e144142	0.14478019
232	0xbc0c9490	-0.008580342
233	0x3e9a351a	0.30118638
234	0xbb9e1833	-0.004824662
235	0x3ecb9ebd	0.39769545
236	0xbf56d2a1	-0.83915144
237	0x3d854d2c	0.0650886
238	0xbea56f95	-0.32311693
239	0xbea250de	-0.31702322
240	0xbe6a3703	-0.22872548
241	0x3ed7adc7	0.4212477
242	0xbe24765a	-0.16060773
243	0xbe04459b	-0.12917177
244	0xbf0fb1b4	-0.5613053
245	0x3e028df9	0.12749471
246	0xbe0bfa05	-0.13669594
247	0x3dd54b26	0.10414724
248	0xbe037587	-0.12837802
249	0x3c8d429d	0.017243678
250	0xbf161e1f	-0.5863971
251	0x3f0f10dd	0.55885106
252	0xbea05e45	-0.31321922
253	0x3e1e6452	0.15467957
254	0xbe8fbf3b	-0.28075585
255	0xbd967216	-0.07345979

fc2.bias f4 [10]
0	0x3e23df3b	0.16003124
1	0x3d695136	0.056962214
2	0x3c7aff09	0.015319594
3	0x3d753543	0.059865247
4	0x3ca476f9	0.020076262
5	0x3c59d486	0.013295298
6	0x3c2b7aac	0.010466259
7	0x3bf65c70	0.0075183436
8	0x3e0ca1d3	0.13733606
9	0xbcd2c121	-0.025726857
