LiDAR_NET_Pre_trained_model_SNN_MLP/ckpt_epoch_139_val_loss_1.463720.pth (torch, 511647 bytes, 8 tensors)

fc1.weight f4 [200, 625]
0	0x3e6b29c8	0.22965157
1	0x3e8b0023	0.27148542
2	0x3ddb7e52	0.10717453
3	0xbe05ce29	-0.13066925
4	0xbdea0760	-0.11427188
5	0xbe078a65	-0.13236387
6	0xbe2acf2d	-0.16680594
7	0xbdf2bd60	-0.11852527
8	0xbdb1d31e	-0.086828455
9	0x3d217810	0.03942114
10	0x3eb3399a	0.35004884
11	0x3e6b54ee	0.22981617
12	0x3e713964	0.23557049
13	0x3e896696	0.2683608
14	0x3ddfcbb9	0.10927529
15	0x3e0256ff	0.12728499
16	0x3eb7a0d0	0.35864878
17	0x3ddcd086	0.1078196
18	0x3dc13154	0.09433237
19	0x3eb763b7	0.35818264
20	0x3f0a10d8	0.5393195
21	0x3eebe1ac	0.4607061
22	0x3e89b054	0.2689234
23	0x3e92365c	0.28557098
24	0x3ef20429	0.472688
25	0x3e484970	0.19559264
26	0x3e8e95c5	0.2784864
27	0xbcb0b4c5	-0.021570573
28	0xbc8fdb78	-0.017560706
29	0xbda3af0b	-0.07992371
30	0xbde759b8	-0.11296409
31	0x3d295487	0.041340377
32	0xbe13fb03	-0.14451222
33	0x3ca7ec14	0.020498313
34	0x3d05b435	0.032642562
35	0x3e96571c	0.29363334
36	0x3e82b265	0.2552673
37	0x3e723781	0.23653986
38	0x3e9db49a	0.3080185
39	0x3e6c896d	0.23099299
40	0x3e26a792	0.1627486
41	0x3e7b2691	0.2452643
42	0x3dd10d36	0.10207598
43	0x3e6262c1	0.22107984
44	0x3ecc4806	0.398987
45	0x3ec1a388	0.37820077
46	0x3ed97dea	0.42478877
47	0x3f0dbe86	0.5536884
48	0x3e86f0a9	0.26355484
49	0x3eff61f3	0.49879417
50	0x3e6342ff	0.22193526
51	0x3ce6d24a	0.028176446
52	0x3d8063e4	0.062690526
53	0xbdbf89b9	-0.093524404
54	0xbdf9884f	-0.12184202
55	0xbd4f9fb5	-0.050689418
56	0xbe411e26	-0.18859157
57	0xbe26fcdf	-0.163074
58	0xbdc22a0e	-0.094806775
59	0x3d2cdd9a	0.042203523
60	0x3e44d952	0.19223526
61	0x3e82352a	0.25431186
62	0x3e2cf7b6	0.16891369
63	0x3dca14a5	0.09867219
64	0x3df3e060	0.119080305
65	0x3e3c75fc	0.18404382
66	0x3e6770fb	0.22601692
67	0x3e3be804	0.18350226
68	0x3e935155	0.2877299
69	0x3e534210	0.2063067
70	0x3eb5e4a9	0.35526016
71	0x3ea15b56	0.31514996
72	0x3e870cf8	0.26377082
73	0x3ea19726	0.3156063
74	0x3e6ca062	0.23108056
75	0x3e352365	0.17689283
76	0x3e2e3f48	0.17016327
77	0x3d8902ab	0.06689962
78	0xbdafddaf	-0.08587205
79	0xbdc16143	-0.09442379
80	0xbddd6448	-0.10810143
81	0xbc71c9cf	-0.014757588
82	0xbd9c5fd9	-0.07635469
83	0xbd38c5bc	-0.04511045
84	0xbcaa2f7a	-0.020774592
85	0x3d2f96b3	0.042868327
86	0x3dc36b41	0.095419414
87	0x3e26330d	0.16230412
88	0x3e448f13	0.19195203
89	0x3e4f49d5	0.20243008
90	0x3c03ea8a	0.008051524
91	0x3e05ecf4	0.13078672
92	0x3c9fd187	0.01950909
93	0x3eb2f510	0.34952593
94	0x3debfc97	0.11522787
95	0x3e926c78	0.2859838
96	0x3e9fb890	0.31195498
97	0x3e9b3dab	0.30320486
98	0x3d92ac31	0.07161749
99	0x3e37b8f6	0.17941651
100	0x3ca7c18d	0.020478034
101	0xbe312452	-0.17299011
102	0x3d16b075	0.036789376
103	0xbd73225c	-0.05935894
104	0xbe091884	-0.13388258
105	0xbe0e8f2b	-0.13921802
106	0xbe40e0c4	-0.18835741
107	0xbe1169e0	-0.14200544
108	0xbe09d0bf	-0.13458537
109	0x3b3ccab0	0.0028807335
110	0x3ca752a1	0.020425143
111	0xbd8ca8d6	-0.068681404
112	0x3d91b04a	0.071137026
113	0xbd88a7dd	-0.066726424
114	0x3d2b2963	0.041787516
115	0xbd1a44aa	-0.03766314
116	0x3dcee1b2	0.10101642
117	0x3d8f3aad	0.069936134
118	0x3e9f4faf	0.3111548
119	0x3e60677e	0.21914479
120	0x3e1b8c21	0.15190174
121	0x3e1b4dee	0.15166447
122	0x3e418031	0.18896557
123	0x3db9aa5d	0.09065697
124	0x3dbf29c5	0.09334139
125	0xbd6bd45a	-0.05757556
126	0xbd97a408	-0.07404333
127	0xbd03a50a	-0.032139815
128	0xbd9ab49f	-0.07553982
129	0xbe21aa93	-0.15787725
130	0xbe404312	-0.18775585
131	0xbdd55ee6	-0.10418491
132	0xbe46f705	-0.19430168
133	0xbd145250	-0.03621131
134	0x3d3a1eec	0.045439646
135	0xbc5e470e	-0.013566745
136	0x3d8a50f7	0.06753724
137	0xbc1a1367	-0.00940404
138	0xbd112cb7	-0.035443034
139	0xbd18fbe6	-0.037349604
140	0x3d85b4b6	0.065286085
141	0x3df777b7	0.12083381
142	0x3df6e08c	0.12054548
143	0x3e351606	0.17684183
144	0x3e9564da	0.29178506
145	0x3e18f14f	0.14935802
146	0xbc63cb3f	-0.013903438
147	0x3e063e65	0.13109739
148	0x3bc6a6c8	0.0060623623
149	0xbdb37347	-0.08762222
150	0x3dac6d80	0.08419323
151	0xbafed210	-0.0019441266
152	0xbdcc0c9e	-0.09963344
153	0xbe4f8da7	-0.2026888
154	0xbe25f5be	-0.16207024
155	0xbde23cf4	-0.11046782
156	0xbda1aea1	-0.07894636
157	0xbe462bd9	-0.19352664
158	0xbe58e452	-0.21180847
159	0xbe0a7c5c	-0.13524002
160	0x3d787da7	0.060666706
161	0xbc3a83cb	-0.011383961
162	0xbd16f80d	-0.036857653
163	0xbe0a1dee	-0.1348798
164	0xbd246221	-0.040132646
165	0xbe11a650	-0.142236
166	0x3e1ee6ed	0.15517779
167	0x3e43bee9	0.19115795
168	0x3e75f718	0.2402004
169	0x3e474759	0.1946081
170	0x3d2bff43	0.041991483
171	0x3d3fb027	0.04679885
172	0xbd0fc1c3	-0.035096895
173	0xbe01ed1e	-0.1268811
174	0xbe871b79	-0.26388147
175	0xbbf1a8b4	-0.0073748473
176	0xbc33132a	-0.010929862
177	0xbc814459	-0.015779661
178	0xbe2a3e82	-0.16625407
179	0xbe74d344	-0.23908716
180	0xbe56ea8a	-0.20987907
181	0xbe0e21ec	-0.13880128
182	0xbe2b55f3	-0.16732006
183	0xbdc4a59a	-0.096018985
184	0xbe2082bb	-0.1567487
185	0xbd3c425c	-0.045961723
186	0x3b6c27ea	0.0036034533
187	0xbdc1fa71	-0.09471596
188	0xbd83c05b	-0.06433173
189	0xbda87038	-0.08224529
190	0xbda698ca	-0.08134611
191	0x3c0d77a6	0.008634483
192	0x3db29725	0.08720235
193	0x3df997ab	0.121871315
194	0x3d2a53bd	0.041583765
195	0x3df46e1e	0.11935066
196	0x3d6e9e08	0.05825618
197	0xbe2da9b6	-0.16959271
198	0xbe8682b3	-0.2627159
199	0xbea81ebe	-0.32835954
200	0x3d842aeb	0.064534985
201	0xbdb4b392	-0.08823313
202	0xbe29c254	-0.16578037
203	0xbe5c9e7f	-0.21544836
204	0xbe7c6264	-0.24646908
205	0xbe19d027	-0.1502081
206	0xbddb7049	-0.10714776
207	0xbe431b16	-0.19053301
208	0xbc6ca184	-0.014442805
209	0xbd18bd76	-0.03729006
210	0xbcaca6bd	-0.0210756
211	0xbd94f4fc	-0.072732896
212	0xbbe7a505	-0.0070692324
213	0xbd36b135	-0.04460259
214	0xbdb6377f	-0.08897304
215	0x3e09c1b6	0.13452801
216	0x3b4aab00	0.0030924678
217	0x3df8b762	0.121443525
218	0x3e158e12	0.14604977
219	0x3db81a1a	0.089893535
220	0x3dd68348	0.10474259
221	0xbd657487	-0.056019332
222	0xbd7cd7bb	-0.061729174
223	0xbe435edf	-0.19079159
224	0xbe54e799	-0.20791472
225	0x3d522c6a	0.051311888
226	0x3da086fb	0.078382455
227	0xbd6b0561	-0.057378177
228	0xbd8503ba	-0.064948514
229	0xbdb5fa17	-0.088855915
230	0xbdbfb36e	-0.09360395
231	0xbe1f40de	-0.15552089
232	0xbe1b1b4c	-0.15147132
233	0xbdfeccbd	-0.124413945
234	0xbd7329c4	-0.059366003
235	0xbc2d5b32	-0.010580825
236	0xbd558d35	-0.05213662
237	0xbd888a31	-0.06666983
238	0xbcecab66	-0.028890323
239	0xbcfa1595	-0.03052787
240	0xbdf7f93e	-0.12108086
241	0xbc7153ac	-0.014729422
242	0x3d963ec8	0.07336193
243	0x3df2c6a8	0.11854297
244	0x3e1a493f	0.15067004
245	0x3d884fcb	0.06655844
246	0xbd7251d2	-0.05916006
247	0xbcf2ca13	-0.029637372
248	0xbe3416fa	-0.1758689
249	0xbe5a0365	-0.21290357
250	0x3e1a34a6	0.15059146
251	0x3df00e01	0.11721421
252	0xbd736fc8	-0.059432775
253	0xbde68d29	-0.11257393
254	0xbd9a7fea	-0.07543929
255	0xbe40697b	-0.18790238

fc1.bias f4 [200]
0	0xbd6203f4	-0.05517955
1	0xbe38bf38	-0.18041694
2	0xbdd48581	-0.10377026
3	0x3dcd7bb5	0.10033361
4	0xbdf36768	-0.118849576
5	0xbea0e449	-0.31424168
6	0x3e0537b6	0.13009533
7	0x3d785779	0.060630295
8	0xbe0592b7	-0.13044249
9	0xbe825645	-0.25456443
10	0x3e1778c4	0.14792162
11	0xbe900b3f	-0.2813358
12	0xbd884d4f	-0.066553704
13	0xbe823713	-0.25432643
14	0xbcc176bb	-0.023616185
15	0xbc15a098	-0.009132527
16	0x3df3c4fc	0.11902806
17	0xbdba84e8	-0.09107381
18	0x3dcff567	0.10154229
19	0xbd8bffa7	-0.06835871
20	0x3e40fa96	0.18845591
21	0xbe0408ca	-0.12893978
22	0xbb637cab	-0.003471176
23	0xbbfa0c3a	-0.007630852
24	0xbd92bc10	-0.07164776
25	0xbb1f50bd	-0.0024309598
26	0x3bec5b1f	0.007213011
27	0xbe9b807f	-0.30371472
28	0xbcb85d6c	-0.022505485
29	0x3df22c71	0.11824883
30	0x3d18b677	0.037283387
31	0x3dcf2cf7	0.10115998
32	0x3dcd3227	0.100193314
33	0x3e0e6bfc	0.1390838
34	0xbd8ce974	-0.06880465
35	0xbebc47eb	-0.3677362
36	0x3bea4748	0.0071496107
37	0x3df3c85d	0.11903451
38	0xbe0d46f7	-0.13796602
39	0x3e3a5b23	0.18198828
40	0xbd7d958d	-0.0619102
41	0x3dd7e79e	0.10542224
42	0xbc74867e	-0.014924644
43	0xbe2a723a	-0.16645136
44	0xbd6538fb	-0.055962544
45	0xbc803e06	-0.015654575
46	0x3da41e3b	0.080135785
47	0x3d256039	0.04037497
48	0x3d29a782	0.041419514
49	0xbe1b0115	-0.15137132
50	0x3e51b670	0.2047975
51	0xbe8e44a2	-0.27786738
52	0xbc848e50	-0.016181141
53	0x3def3efa	0.11681934
54	0x3e03c5f0	0.12868476
55	0xbebf9dbe	-0.37425035
56	0xbe3cc801	-0.1843567
57	0x3ab1d6ee	0.0013568082
58	0x3c9a7749	0.018855708
59	0xbde0ab05	-0.109701194
60	0x3e4c55bc	0.1995458
61	0x3e86a41c	0.2629708
62	0xbdbafb77	-0.09129994
63	0xbdc1e258	-0.09467
64	0xbd876c02	-0.06612398
65	0xbd009711	-0.03139407
66	0x3cba190f	0.022717027
67	0xbda2da52	-0.079517975
68	0xbe964afe	-0.2935409
69	0xbd7bc431	-0.0614664
70	0xbd45895c	-0.0482267
71	0x3cb6a10a	0.022293586
72	0x3e26389c	0.16232532
73	0xbeac635a	-0.3366955
74	0xbe569363	-0.20954661
75	0x3d4951b0	0.04915017
76	0xbdcce60f	-0.10004818
77	0xbdbdbfbb	-0.09265085
78	0xbd1fa500	-0.038975716
79	0x3df846bd	0.12122867
80	0xbe7ca9e5	-0.24674185
81	0xbe3fc749	-0.18728365
82	0xbe888288	-0.26662087
83	0x3d72c861	0.059273127
84	0x3ea71255	0.32631174
85	0x3ca16d82	0.019705538
86	0xbd87e2df	-0.06635069
87	0x3e969f51	0.29418424
88	0xbd7a1f46	-0.06106498
89	0xbdc0c10a	-0.09411819
90	0xbe2e6b23	-0.17033057
91	0xbd928d59	-0.07155866
92	0xbb501521	-0.0031750875
93	0xbd899401	-0.06717683
94	0x3ce804ec	0.02832266
95	0x3e1990ce	0.14996645
96	0xbd613376	-0.054980718
97	0xbe58257d	-0.2110805
98	0xbbcb5cb7	-0.006206121
99	0xbe59c8d2	-0.21268013
100	0x3e40f64a	0.18843952
101	0xbd5bc226	-0.05365195
102	0xbc0c54ae	-0.008565111
103	0xbd8b86da	-0.0681283
104	0xbe157adc	-0.14597648
105	0x3e3b45b1	0.18288304
106	0x3da5624a	0.08075388
107	0xbcf64fae	-0.030067291
108	0x3d86c9bc	0.065814465
109	0x3e03d042	0.12872413
110	0x3e07cd10	0.13261819
111	0x3dc75419	0.09732837
112	0xbdb0d157	-0.086336784
113	0x3a8b2375	0.0010615425
114	0x3d353bb9	0.04424641
115	0xbdc8ff88	-0.09814364
116	0x3e3af18b	0.18256204
117	0x3ced72f4	0.028985478
118	0xbe2defc0	-0.16985989
119	0x3c3329f2	0.0109352935
120	0xbdc75551	-0.0973307
121	0x3e407173	0.18793277
122	0x3d9e2a0d	0.07722864
123	0xbcc90f20	-0.024543345
124	0xbd493014	-0.049118116
125	0xbda791f0	-0.08182132
126	0xbecae833	-0.3963028
127	0xbddc06ae	-0.107434615
128	0xbe39a931	-0.18130948
129	0x3e8c1511	0.27359822
130	0xbe9bd0be	-0.30432695
131	0xbd90e118	-0.07074183
132	0xbe6510a3	-0.22369628
133	0xbed1d1b6	-0.4098031
134	0xbd75f1d4	-0.06004508
135	0xbc16c30b	-0.009201775
136	0xbd82a69c	-0.063794345
137	0xbe44f3b6	-0.19233593
138	0x3d4a74eb	0.049427908
139	0xbe3b0f4f	-0.18267559
140	0x3da3e1ea	0.08002074
141	0xbdffe6c7	-0.12495189
142	0x3c6a4c94	0.014300484
143	0x3e24a287	0.16077624
144	0xbe16194d	-0.14658089
145	0x3c98788d	0.01861217
146	0xbca841c5	-0.020539174
147	0xbe4f92a8	-0.20270789
148	0xbd9eb42e	-0.0774921
149	0xbe3d0091	-0.18457247
150	0xbe169299	-0.1470436
151	0xbea1c04c	-0.31592023
152	0x3db4a6d0	0.088208795
153	0xbe646ff1	-0.22308327
154	0xbe052530	-0.13002467
155	0xbebf95b9	-0.37418917
156	0xbe3b5bf6	-0.18296799
157	0xbcc86a5b	-0.024464777
158	0xbd6b2a25	-0.05741324
159	0xbb88df2c	-0.004176995
160	0x3d08d7f0	0.03340906
161	0x3dc3b784	0.09556487
162	0xbdb4f199	-0.088351436
163	0xbd2afb3b	-0.0417435
164	0xbcba4ff7	-0.022743208
165	0xbeac698a	-0.3367427
166	0xbd87323a	-0.06601377
167	0xbcca03a8	-0.024659947
168	0x3e481d7a	0.19542494
169	0x3e5a6db8	0.21330917
170	0x3e45dba3	0.19322066
171	0x3ccc7b8d	0.024961257
172	0xbcba07fa	-0.022708882
173	0x3cc6156e	0.02418014
174	0xbe00d667	-0.12581788
175	0xbd71fef3	-0.05908103
176	0x3e70a6da	0.23501149
177	0x3e0f2dec	0.13982362
178	0xbe062eae	-0.13103744
179	0x3c151721	0.009099753
180	0xbe9d42c5	-0.30715004
181	0x3d1bc43d	0.038028944
182	0x3c0323ce	0.008004142
183	0x3d08c4e6	0.033390902
184	0x3db34e96	0.087552235
185	0xbd92db6f	-0.0717076
186	0x3c8fe54a	0.017565388
187	0x3d11c76b	0.03559057
188	0xbe29d5e9	-0.16585506
189	0x3db6215c	0.088930815
190	0xbb9baf5d	-0.0047511295
191	0xbd9e1687	-0.077191405
192	0x3dc334e9	0.09531576
193	0x3de54888	0.11195475
194	0xbe25d386	-0.16193971
195	0xbd6f5d4a	-0.058438577
196	0x3d35bb04	0.044367805
197	0x3e024ecd	0.12725373
198	0x3e4cb16c	0.19989556
199	0x3d724cb5	0.059155185

IF1.surrogate_function.total_ops f8 [1]
0	0x0000000000000000	0.0

IF1.surrogate_function.total_params f8 [1]
0	0x0000000000000000	0.0

fc2.weight f4 [10, 200]
0	0xbd5ce26b	-0.053926867
1	0xbeaff02a	-0.34362918
2	0xbeb713d4	-0.35757315
3	0x3f0192b6	0.5061449
4	0xbd06ba63	-0.032892596
5	0xbeecf031	-0.46277002
6	0x3e6df886	0.23239335
7	0x3c410cbb	0.01178282
8	0xbe71b8bc	-0.23605627
9	0x3e97aa8a	0.29622298
10	0x3d912703	0.07087519
11	0xbea04bbf	-0.3130779
12	0x3e062f70	0.13104033
13	0xbe3c1af7	-0.18369661
14	0x3e9ca1c2	0.3059216
15	0x3dc05a09	0.09392173
16	0x3f239ab2	0.6390792
17	0xbeb3bace	-0.35103458
18	0x3ea0ee53	0.31431827
19	0x3e91111d	0.2833337
20	0x3db2cf12	0.08730902
21	0x3ca92970	0.020649642
22	0x3d2b0e3a	0.041761614
23	0xbef03800	-0.46917725
24	0xbe5aeda6	-0.21379718
25	0xbde6ff7e	-0.112792
26	0x3d1c9392	0.03822667
27	0x3d403935	0.046929557
28	0x3ba657b1	0.0050763716
29	0x3ebf13aa	0.3731969
30	0xbc37a694	-0.011209149
31	0x3e843c75	0.25827375
32	0x3d8ecb16	0.06972329
33	0x3e86001e	0.26171964
34	0x3f06e9ae	0.52700317
35	0xbf09bfc0	-0.5380821
36	0xbe4f714b	-0.20258062
37	0x3dc32f5f	0.0953052
38	0x3df44387	0.11926942
39	0x3f245257	0.6418814
40	0xbe5d5a03	-0.21616368
41	0xbd57a4f5	-0.05264755
42	0xbe1af4b0	-0.15132403
43	0xbedd62ad	-0.43239346
44	0xbd4e9c16	-0.050441824
45	0x3e1d4cc0	0.15361309
46	0x3ec871ae	0.3914923
47	0xbc1379b3	-0.009001183
48	0xbd8a97b9	-0.0676722
49	0x3e6c2815	0.23062165
50	0x3efa6902	0.4890824
51	0xbcbe211f	-0.023209153
52	0xbe26bec1	-0.16283704
53	0xbcdb90b8	-0.026802406
54	0x3da8b07d	0.082367875
55	0xbf47a0c6	-0.77979696
56	0xbe648e7a	-0.22319975
57	0x3d2708a9	0.040779743
58	0x3f0e6167	0.55617374
59	0xbf0f75b3	-0.5603897
60	0x3ee2fc34	0.4433304
61	0x3cbff098	0.023430154
62	0x3dff492f	0.124651305
63	0xbc6e97b4	-0.014562536
64	0x3eebca8c	0.46052969
65	0x3d4b3ae8	0.049616724
66	0x3ea952b5	0.33070913
67	0xbd93b2a4	-0.07211807
68	0xbf05a48f	-0.5220422
69	0x3e88409d	0.26611796
70	0x3d250cf4	0.040295556
71	0x3f6756af	0.90366644
72	0x3f349e59	0.7055412
73	0xbc81a11b	-0.015823891
74	0x3d094b63	0.03351916
75	0xbc23f2c4	-0.01000661
76	0xbd7b7866	-0.061394118
77	0xbda8fad7	-0.08250969
78	0x3d4a998c	0.04946284
79	0x3ecde609	0.40214565
80	0x3ec0a7be	0.37627977
81	0xbec81bea	-0.39083797
82	0xbf0bb202	-0.54568493
83	0x3eb17008	0.34655786
84	0x3e0ea32b	0.13929431
85	0x3e93437a	0.28762418
86	0xbda1b1ae	-0.07895218
87	0x3e347587	0.17622958
88	0xbcbaccd8	-0.022802755
89	0xbb202e90	-0.0024441816
90	0xbe3e35f6	-0.18575272
91	0xbe483468	-0.19551241
92	0xbebfbe82	-0.37450033
93	0x3ec8ea2e	0.39241165
94	0xbe07b69d	-0.13253255
95	0xbcb10463	-0.021608537
96	0xbbcfebe0	-0.006345257
97	0x3e5e2340	0.21693134
98	0xbd89ab7c	-0.06722161
99	0xbe3b534d	-0.18293495
100	0xbe888e31	-0.26670983
101	0xbc11b514	-0.00889327
102	0x3e7c906c	0.24664468
103	0xbd28a2f3	-0.041171025
104	0xbf68260e	-0.90683067
105	0x3d8b6a16	0.06807344
106	0xbea97c15	-0.3310248
107	0x3e3af102	0.18256
108	0xbe41a2f7	-0.18909822
109	0x3e14f134	0.14545137
110	0x3ec5a50d	0.38602486
111	0x3ec2254a	0.37919074
112	0xbe8481fa	-0.25880414
113	0x3eda22d5	0.426047
114	0x3de604c0	0.11231375
115	0xbe6bc2f2	-0.23023584
116	0x3e953883	0.29144678
117	0x3d6c573e	0.057700388
118	0xbe8aa93f	-0.2708225
119	0xbe014e8c	-0.1262762
120	0xbe608cde	-0.21928737
121	0x3e6568fc	0.2240333
122	0x3e23314a	0.15936771
123	0xbe585f86	-0.2113019
124	0xbdbfbad2	-0.09361805
125	0xbdd41fc0	-0.10357618
126	0xbeeb81d2	-0.45997483
127	0x3dbb3f59	0.09142942
128	0xbdb9524f	-0.09048902
129	0x3ea3f9f6	0.32026643
130	0xbea80c57	-0.32821915
131	0x3e4061d7	0.18787323
132	0xbe6f0aed	-0.23344012
133	0x3e9c8ae7	0.30574724
134	0xbd93e749	-0.072218485
135	0x3c8bd301	0.017068388
136	0xbea9fa72	-0.33198887
137	0xbe8bee31	-0.27330163
138	0x3e815fb8	0.2526834
139	0x3e2b6182	0.16736415
140	0x3e3c0d03	0.18364339
141	0xbf26a569	-0.65096146
142	0x3f81706a	1.0112431
143	0x3f08f72f	0.5350217
144	0xbf23c819	-0.639772
145	0x3cef2d5a	0.02919643
146	0xbd62d753	-0.05538113
147	0xbd3b1c3b	-0.04568122
148	0xbe8844a0	-0.26614857
149	0xbc70cbdc	-0.014697041
150	0x3d0a1663	0.033712756
151	0xbed0208a	-0.40649825
152	0x3e97a7e7	0.29620287
153	0x3e143f13	0.14477186
154	0x3e82b1b0	0.2552619
155	0xbf763e75	-0.9618905
156	0xbe1c2569	-0.15248646
157	0xbccdea0b	-0.025136014
158	0xbd4cab0d	-0.049967814
159	0x3eaa6351	0.33278897
160	0x3dfdc962	0.12391926
161	0xbf17cc31	-0.59295946
162	0x3e3888fc	0.18021005
163	0xbd072684	-0.032995716
164	0x3e7dbe74	0.24779683
165	0xbd0a005c	-0.03369175
166	0xbc32e634	-0.0109191425
167	0x3d319306	0.043353103
168	0x3de19030	0.1101383
169	0xbde2e3df	-0.11078619
170	0x3e344314	0.17603713
171	0x3e604826	0.21902522
172	0xbcfc4b03	-0.030797487
173	0x3e79f0ca	0.2440826
174	0x3d161bee	0.03664773
175	0xbded697d	-0.11592386
176	0x3eadf3ab	0.33974966
177	0x3d560609	0.05225185
178	0x3e1b6c91	0.15178134
179	0xbf197e64	-0.5995848
180	0xbed014ce	-0.40640873
181	0x3e08eb87	0.13371097
182	0x3e6dba28	0.23215544
183	0xbe4b45a7	-0.19850789
184	0xbf4cc78f	-0.79992
185	0xbea064ac	-0.31326807
186	0x3e2778a4	0.16354614
187	0x3f08df3f	0.53465647
188	0xbddcffce	-0.10790978
189	0x3e588245	0.21143444
190	0xbccd70f6	-0.025078278
191	0xbd59973b	-0.05312274
192	0xbc9b37fa	-0.01894759
193	0xbd0d646d	-0.0345196
194	0x3db9fad0	0.09081042
195	0x3a913ff0	0.0011081677
196	0xbea1853c	-0.31546962
197	0x3e86486c	0.26227129
198	0x3f0f3ca5	0.5595191
199	0x3d98ae95	0.07455174
200	0x3e85c07f	0.26123425
201	0x3d426881	0.047462944
202	0xbcb2251b	-0.021746209
203	0x3e8eea2e	0.2791304
204	0xb838ecb6	-4.4089473e-05
205	0x3e898d49	0.26865605
206	0x3f156f3e	0.5837287
207	0xbc864b68	-0.016393378
208	0x3e28d918	0.16489065
209	0xbf2287c0	-0.6348839
210	0xbce1dd7b	-0.02757143
211	0x3e098b7b	0.13432114
212	0xbd8a6e98	-0.06759375
213	0x3dac08a1	0.08400083
214	0xbf2657e4	-0.6497786
215	0xbcc3fac8	-0.023923293
216	0xbf2c78d7	-0.67371887
217	0x3dd97f70	0.1062001
218	0xbdcc0ced	-0.09963403
219	0x3f1ddff7	0.6166987
220	0x3d721ae0	0.05910766
221	0xbc054cf1	-0.00813602
222	0xbce5fddf	-0.028075157
223	0x3f2ee85f	0.6832332
224	0x3e2f2c19	0.17106666
225	0xbe014bae	-0.12626526
226	0xbe1f8e39	-0.15581597
227	0xbe01cc07	-0.12675487
228	0xbe794fad	-0.243468
229	0x3eabc830	0.33551168
230	0xbea62011	-0.3244634
231	0x3e9f6353	0.31130466
232	0x3e0e0df3	0.13872509
233	0x3d93e8e6	0.07222156
234	0xbf5331a5	-0.82497627
235	0x3e7a44a3	0.24440245
236	0x3dea932a	0.114538506
237	0x3d1b5c4e	0.037929825
238	0xbec3a47b	-0.38211426
239	0x3ece83e2	0.40334994
240	0x3da2ed2b	0.079553925
241	0xbf319e93	-0.6938259
242	0x3dc7ee69	0.0976227
243	0xbe8aebc5	-0.27133003
244	0xbd814a8f	-0.06313049
245	0x3da195b1	0.078898795
246	0xbed413e4	-0.41421425
247	0xbca53a37	-0.02016936
248	0xbddd5af7	-0.10808366
249	0xbe11e126	-0.14246044
250	0x3d9c847d	0.07642458
251	0xbf060fea	-0.5236803
252	0xbf41ebb9	-0.7575031
253	0xbf65adae	-0.8971814
254	0xbc63e25b	-0.013908948
255	0xbde3a722	-0.111158624

fc2.bias f4 [10]
0	0x3e4e1e1f	0.20128678
1	0xbc944137	-0.018097503
2	0x3daa5a72	0.08318032
3	0xbcf96455	-0.03044335
4	0xbc977ed8	-0.018493101
5	0x3d2f6db8	0.042829245
6	0xbc4d48a6	-0.012529528
7	0xbc107fe3	-0.008819553
8	0x3e283dc7	0.16429816
9	0xbd20b10c	-0.039231345

IF2.surrogate_function.total_ops f8 [1]
0	0x0000000000000000	0.0

IF2.surrogate_function.total_params f8 [1]
0	0x0000000000000000	0.0
