LiDAR_NET_Pre_trained_model_SNN_CNN/ckpt_epoch_70_val_loss_1.463720.pth (torch, 178444 bytes, 32 tensors)

conv1.weight f4 [5, 1, 5, 5]
0.08440029 -0.06558574 -0.033856727 -0.056292556 -0.011719801 -0.030093618 -0.17330696 -0.021176796
-0.093159266 -0.025911463 0.008879752 -0.044250064 -0.06746471 0.043027066 0.00012679072 0.0064182524
-0.2416187 0.039433148 -0.36276764 -0.11946173 -0.034737058 -0.082493514 -0.1307783 -0.03074989
-0.23112963 -0.009849948 -0.23736314 -0.08683968 -0.18829253 -0.08863199 -0.13169016 -0.06822837
0.14630766 -0.077686444 -0.13935408 0.1221088 0.07562926 -0.055790007 -0.10374273 0.047297955
0.062212333 -0.12356183 0.08022463 0.11598437 0.012124783 0.20330298 0.23600854 0.07223308
0.09856674 0.16481373 -0.3065708 -0.042062785 -0.1075103 0.070899986 -0.015084549 -0.07570075
-0.22716771 0.14160763 -0.04188125 -0.0057308837 -0.2831236 -0.16976087 -0.12920892 -0.048576158
0.1365355 -0.20031036 -0.14853366 0.0021374915 0.09643888 0.13204919 -0.29094088 -0.18247764
-0.011024921 0.17164782 0.25457996 -0.07584731 -0.16267584 0.0438067 0.007507117 0.1764832
0.07434452 -0.16635561 -0.1371925 0.09552565 0.16004223 0.02367383 0.08698199 0.2443041
0.29757422 0.32947773 0.027116396 0.24344507 -0.08685826 0.18362212 -0.016251707 0.19066106
0.02596595 -0.029390192 -0.065895125 0.1576254 0.027822454 0.030163491 0.06992267 -0.022640008
0.16971506 0.0017857479 -0.121127285 0.2088055 0.121668324 0.018833868 0.08156529 0.050591394
0.01700092 -0.17950651 -0.08097933 0.059423793 -0.044582196 0.01113949 0.33852983 0.036990542
0.024172278 0.24141656 0.24903488 -0.024401238 -0.11767057
00000000: 0fda ac3d d151 86bd 5aad 0abd 0693 66bd
00000010: 6904 40bc e486 f6bc 6177 31be f67a adbc
00000020: 49ca bebd 4744 d4bc 617c 113c 8e3f 35bd
00000030: f02a 8abd 263d 303d 20f3 0439 3450 d23b
00000040: e46a 77be a784 213d aebc b9be 5aa8 f4bd
00000050: 7248 0ebd 5cf2 a8bd bfea 05be 31e7 fbbc
00000060: 3fad 6cbe ad61 21bc 530f 73be 01d9 b1bd
00000070: c2cf 40be b084 b5bd c9d9 06be 51bb 8bbd
00000080: add1 153e 121a 9fbd d6b2 0ebe 2e14 fa3d
00000090: 83e3 9a3d 1084 64bd 1277 d4bd 80bb 413d
000000a0: 5cd2 7e3d fc0d fdbd d04c a43d 3789 ed3d
000000b0: 07a7 463c a82e 503e 39ac 713e f0ee 933d
000000c0: 5cdd c93d eec4 283e d9f6 9cbe 074a 2cbd
000000d0: 5c2e dcbd 0334 913d 2f25 77bc ff08 9bbd
000000e0: a79e 68be 9701 113e ac8b 2bbd 23ca bbbb
000000f0: 94f5 90be cbd5 2dbe 584f 04be cbf7 46bd
00000100: f6cf 0b3e 291e 4dbe 3519 18be 2815 0c3b
00000110: bf81 c53d e737 073e 34f6 94be 6bdb 3abe
00000120: dfa1 34bc 72c4 2f3e 4e58 823e d655 9bbd
00000130: 7f94 26be a76e 333d 43fe f53b 03b8 343e
00000140: f141 983d 2059 2abe 317c 0cbe f4a2 c33d
00000150: 1ce2 233e 9fef c13c 9d23 b23d db2a 7a3e
00000160: a65b 983e 4eb1 a83e 3423 de3c aa49 793e
00000170: bee2 b1bd 7007 3c3e 4d22 85bc a73c 433e
00000180: 8bb6 d43c b3c3 f0bc 06f4 86bd 8e68 213e
00000190: eaeb e33c 6d19 f73c 9e33 8f3d 8a77 b9bc
000001a0: c9c9 2d3e c20f ea3a 9511 f8bd 1cd1 553e
000001b0: 3e2d f93d 7c49 9a3c b40b a73d ec38 4f3d
000001c0: 8345 8b3c 8ed0 37be 7ed8 a5bd 5d66 733d
000001d0: d29b 36bd 6882 363c c853 ad3e 6583 173d
000001e0: f104 c63c e735 773e 0003 7f3e 1be5 c7bc
000001f0: 45fd f0bd

conv1.bias f4 [5]
-0.07248352 -0.14314607 0.15341668 0.021838969 0.109156705
00000000: 3d72 94bd e294 12be 4319 1d3e a3e7 b23c
00000010: 8d8d df3d

BN1.weight f4 [5]
1.2735001 1.1032956 1.1284368 1.1213374 0.9784335
00000000: 0d02 a33f ca38 8d3f 9e70 903f fc87 8f3f
00000010: 9e7a 7a3f

BN1.bias f4 [5]
-0.044917747 0.09306904 -0.092270374 0.015507237 -0.042345665
00000000: acfb 37bd fb9a be3d 40f8 bcbd 1112 7e3c
00000010: a672 2dbd

BN1.running_mean f4 [5]
-0.6620841 -0.04970985 -0.25442868 0.59297293 0.51345325
00000000: 587e 29bf 8e9c 4bbd 7a44 82be 13cd 173f
00000010: ac71 033f

BN1.running_var f4 [5]
0.24835424 0.08166439 0.28708678 0.2714973 0.15311185
00000000: 9350 7e3e a93f a73d 0afd 923e b201 8b3e
00000010: 5ac9 1c3e

IF1.surrogate_function.total_ops f8 [1]
0.0
00000000: 0000 0000 0000 0000

IF1.surrogate_function.total_params f8 [1]
0.0
00000000: 0000 0000 0000 0000

conv2.weight f4 [5, 5, 3, 3]
0.12434983 -0.13130967 0.12483355 0.07472911 0.07318299 -0.013027927 -0.009803228 0.030234374
0.20119128 -0.1851421 -0.114435725 -0.24247362 -0.021586468 -0.21664506 -0.2021853 0.04506395
-0.10788622 0.03725936 -0.09815813 -0.17999305 0.1136441 -0.18611582 -0.025628151 -0.10198733
-0.03133722 -0.036710955 -0.04270413 0.052231707 -0.01792115 -0.095971495 -0.03697275 -0.12922178
-0.221958 -0.034227844 -0.18654701 -0.21988408 0.122774564 0.029733941 -0.063518524 0.10430387
-0.069468014 -0.14552963 -0.0033464436 -0.19874433 -0.037583183 0.075166196 0.17541821 0.01850423
-0.0761239 0.20763625 0.083475366 0.001650506 -0.042192977 0.19105713 0.21363796 0.14890207
0.1646528 0.023692427 -0.014201509 -0.031498354 -0.020779401 -0.12720498 -0.18265234 -0.0026574982
-0.05099208 0.05319896 -0.026244223 -0.11655584 -0.019909004 0.04682008 -0.14599866 -0.053271104
0.10902031 0.08783958 0.2540551 0.10625645 0.24320868 0.053977124 0.08446867 0.0014463775
0.06779367 0.14989766 0.05249476 0.050178066 0.06789536 0.12627152 0.038715493 0.011642788
0.028953537 -0.007861974 0.1636382 0.083335295 -0.17594227 -0.04318683 -0.15356609 -0.079953544
0.07408177 -0.22463119 -0.30068696 -0.015618668 0.095006265 0.17193308 -0.1097806 -0.09923462
-0.02009266 -0.2222557 -0.24240865 -0.16525169 0.15612137 0.13246416 0.13903639 0.25766474
0.04180335 0.067696206 0.26291716 0.1658018 0.17767002 0.007090242 0.087772936 0.025882114
0.114880346 -0.058763757 0.041744877 -0.033456247 -0.081742495 -0.053558722 -0.06332012 0.09756718
0.13528292 -0.0006661368 0.072381236 -0.048035037 -0.006720063 0.14330247 0.057470884 0.123465106
0.2530883 0.10540218 -0.07129474 -0.11711104 0.10967249 -0.042627886 0.19539288 0.15349135
0.10349228 -0.0011094636 -0.055410687 0.16302785 0.10906477 0.05458297 0.18082508 0.2160889
0.08271427 0.0449475 0.101816304 -0.02272398 -0.019535394 0.09603329 0.16218086 -0.1327573
0.13173467 -0.025988907 0.020785825 0.057310592 -0.13995263 -0.035887253 -0.1277803 -0.18655589
-0.046623584 -0.16056979 -0.09104514 -0.032128666 -0.03896427 -0.0057391077 -0.008067171 -0.09598946
-0.16071162 -0.018212458 -0.051412214 -0.05339597 -0.106614456 -0.090208195 -0.08976886 -0.004680224
-0.119830064 -0.087926485 -0.027875852 0.027688133 -0.07514931 -0.02106289 0.054562915 0.16553867
0.048390526 0.019914938 0.06032351 -0.11265816 0.14732532 0.12378325 -0.005671887 -0.15467197
-0.023726936 0.1270938 -0.06038995 -0.22096182 0.095720164 -0.13993607 -0.093781896 -0.07655736
0.042821575 -0.2065822 -0.1384243 -0.08572261 -0.17486133 -0.1292948 -0.17365241 -0.18457107
-0.03821643 0.075605646 -0.023282794 -0.10980513 -0.055543963 0.0030048178 -0.047062684 -0.2081589
-0.12924412
00000000: 20ab fe3d 0b76 06be bba8 ff3d 930b 993d
00000010: f7e0 953d 1673 55bc b89d 20bc 14ae f73c
00000020: 1605 4e3e e495 3dbe 475d eabd 014b 78be
00000030: 1bd6 b0bc 34d8 5dbe aa09 4fbe fa94 383d
00000040: 73f3 dcbd 459d 183d 2107 c9bd 1950 38be
00000050: 3dbe e83d 2595 3ebe 21f2 d1bc bcde d0bd
00000060: 755b 00bd 3a5e 16bd 87ea 2ebd eaf0 553d
00000070: 60cf 92bc b48c c4bd bd70 17bd b752 04be
00000080: f548 63be 7f32 0cbd 2e06 3fbe 4b29 61be
00000090: 3b71 fb3d 9894 f33c 0016 82bd 449d d53d
000000a0: 3f45 8ebd b805 15be 0250 5bbb a283 4bbe
000000b0: d3f0 19bd bcf0 993d d5a0 333e 2f96 973c
000000c0: d9e6 9bbd 999e 543e 22f5 aa3d cb55 d83a
000000d0: 8bd2 2cbd 7ba4 433e e9c3 5a3e c979 183e
000000e0: be9a 283e 9f16 c23c 72ad 68bc 6b04 01bd
000000f0: 9039 aabc 0642 02be 3709 3bbe 6c29 2ebb
00000100: 12dd 50bd 27e7 593d 20fe d6bc d4b4 eebd
00000110: 3518 a3bc 6ac6 3f3d ac80 15be cd32 5abd
00000120: 0a46 df3d 3de5 b33d 8313 823e fb9c d93d
00000130: b20b 793e 1e17 5d3d e9fd ac3d 6094 bd3a
00000140: 68d7 8a3d c67e 193e bf04 573d 8487 4d3d
00000150: b90c 8b3d 524d 013e 2394 1e3d 64c1 3e3c
00000160: f82f ed3c 82cf 00bc c690 273e b2ab aa3d
00000170: 362a 34be ace4 30bd 6e40 1dbe afbe a3bd
00000180: 2fb8 973d b805 66be a4f3 99be 71e5 7fbc
00000190: a592 c23d 3a0f 303e a7d4 e0bd 853b cbbd
000001a0: 5d99 a4bc 0097 63be f939 78be bd37 29be
000001b0: 48de 1f3e afa4 073e 8e5f 0e3e a2ec 833e
000001c0: fd39 2b3d 4fa4 8a3d 149d 863e f2c7 293e
000001d0: 21ef 353e 4355 e83b 4cc2 b33d ba06 d43c
000001e0: 6346 eb3d 44b2 70bd adfc 2a3d 6b09 09bd
000001f0: 9c68 a7bd 6460 5bbd fbad 81bd 4dd1 c73d
00000200: 9b87 0a3e af9f 2eba 9d3c 943d 63c0 44bd
00000210: f933 dcbb e2bd 123e 9766 6b3d 46db fc3d
00000220: ca94 813e 19dd d73d fa02 92bd ead7 efbd
00000230: f89b e03d 949a 2ebd 1215 483e d62c 1d3e
00000240: c3f3 d33d 6c6b 91ba 51f6 62bd c6f0 263e
00000250: 5a5d df3d 6492 5f3d 362a 393e 6946 5d3e
00000260: 1966 a93d df1a 383d 1185 d03d a427 babc
00000270: b108 a0bc 1aad c43d bd12 263e 88f1 07be
00000280: 74e5 063e b0e6 d4bc 0947 aa3c 83be 6a3d
00000290: be4f 0fbe 83fe 12bd d7d8 02be 8208 3fbe
000002a0: 5ff8 3ebd 686c 24be e075 babd 5999 03bd
000002b0: 0099 1fbd 200f bcbb 2b2c 04bc 1f96 c4bd
000002c0: 9691 24be 4b32 95bc 9d95 52bd bcb5 5abd
000002d0: ae58 dabd 13bf b8bd bcd8 b7bd 915c 99bb
000002e0: 7769 f5bd cd12 b4bd e65b e4bc 39d2 e23c
000002f0: e2e7 99bd 158c acbc 5d7d 5f3d f882 293e
00000300: 2535 463d a724 a33c c915 773d 52b9 e6bd
00000310: 73dc 163e 1382 fd3d 3ddb b9bb 5462 1ebe
00000320: fe5e c2bc e124 023e 745b 77bd d143 62be
00000330: ef08 c43d 674b 0fbe b910 c0bd 1bca 9cbd
00000340: ad65 2f3d 498a 53be 1abf 0dbe 568f afbd
00000350: d90e 33be db65 04be f0d1 31be 3300 3dbe
00000360: d588 1cbd 22d7 9a3d 8fbb bebc 83e1 e0bd
00000370: 1182 63bd 7aec 443b cdc4 40bd 9b27 55be
00000380: 9258 04be

conv2.bias f4 [5]
0.093111195 -0.038346257 0.008206663 -0.18434839 -0.09001703
00000000: 15b1 be3d f710 1dbd 3d75 063c d3c5 3cbe
00000010: d95a b8bd

BN2.weight f4 [5]
1.3238412 0.9865874 1.235083 1.2090951 1.1250092
00000000: a173 a93f fe90 7c3f 3317 9e3f a1c3 9a3f
00000010: 4d00 903f

BN2.bias f4 [5]
0.11198914 -0.2420389 -0.13035557 0.047281068 0.120549865
00000000: 905a e53d 0cd9 77be ee7b 05be cba9 413d
00000010: d9e2 f63d

BN2.running_mean f4 [5]
-0.39812082 0.46486315 0.11909182 -0.022184517 -0.6743031
00000000: 7ed6 cbbe 8b02 ee3e 6ae6 f33d 4ebc b5bc
00000010: 219f 2cbf

BN2.running_var f4 [5]
0.3963018 0.22309262 0.2644689 0.37283614 0.18386057
00000000: 12e8 ca3e 6472 643e 7868 873e 61e4 be3e
00000010: f245 3c3e

IF2.surrogate_function.total_ops f8 [1]
0.0
00000000: 0000 0000 0000 0000

IF2.surrogate_function.total_params f8 [1]
0.0
00000000: 0000 0000 0000 0000

conv3.weight f4 [5, 5, 3, 3]
0.04263249 0.08403029 0.089833274 0.015108607 0.19419865 0.14316668 0.0005068748 0.028819932
0.03261438 -0.075468525 -0.023523433 -0.04756239 -0.17081197 -0.09009454 0.05442708 -0.17229655
-0.019687962 -0.031423762 0.11387582 0.01341983 -0.058478035 0.1508676 0.041407336 0.037853863
0.17690079 0.2059407 0.066037655 0.010934246 0.081332505 0.13270827 0.106794156 0.098195426
0.10782992 -0.03181118 0.00985432 0.12511118 -0.0694629 -0.06025971 -0.27718908 -0.020413734
-0.22330984 -0.33928007 -0.16714758 -0.20225763 -0.15413436 0.06816976 0.19964461 0.19277917
0.08042367 0.10047435 0.123485215 0.011825601 0.07350932 0.1252454 -0.097272635 -0.0016233522
0.009188531 -0.10585314 -0.005262152 0.092719845 -0.07897351 -0.04571713 -0.054385275 -0.10092111
-0.07041946 -0.10004153 -0.026258595 -0.10433834 -0.1699834 -0.13055326 -0.23845984 -0.23770915
-0.025188552 0.031272482 0.07692134 -0.02020599 0.07447076 0.13205007 0.13126966 0.17523852
0.043157477 -0.14220797 -0.17311285 -0.092096835 -0.19724369 -0.14723182 -0.221845 -0.085331604
-0.028219344 -0.053006716 0.0698638 0.040995713 -0.1286444 0.018306162 -0.026184857 -0.11311834
-0.030097345 -0.16812658 -0.15669589 0.007871123 0.09025209 -0.1051844 0.08812258 0.11567281
0.07224221 0.13777831 0.2777197 0.24881066 -0.21181941 -0.08296292 -0.042147122 -0.16466205
-0.109449364 -0.0068890504 -0.082600154 -0.15313752 -0.12212745 0.05129077 -0.05881741 -0.05506232
-0.061267585 -0.112059996 0.019785281 -0.061703164 -0.09398471 0.0036105432 0.026980354 -0.03707604
-0.1320038 -0.09109046 -0.18204196 -0.20237024 -0.016828125 -0.10345077 -0.26037392 0.09012505
0.06746787 -0.083840095 0.03231092 0.063836195 -0.102608904 0.10227799 0.042151168 -0.11817817
0.009729656 0.006261001 0.13265947 0.14719345 0.17409539 0.09018264 0.120236635 0.1067545
0.06605549 0.11167214 0.08522396 0.12296885 0.22553335 0.18863651 0.21979633 0.167935
0.2547841 0.33166164 0.077892296 0.032815266 0.094497934 0.015430912 0.009053363 -0.053813543
-0.01113666 -0.030667733 0.03190964 0.0021188906 -0.032649964 -0.019788463 0.033069905 -0.057436846
-0.12319143 -0.04354359 -0.084863216 -0.088946246 0.035972726 0.0011237619 0.035089258 -0.09266146
-0.039424844 0.019806366 -0.20486413 -0.1710523 -0.07610437 -0.09914651 -0.19131503 -0.21901225
-0.23791498 -0.160055 -0.09096948 -0.15644455 -0.22010821 -0.15890168 0.03522461 -0.0006864506
-0.027899003 0.10762053 0.08797254 -0.07405493 0.0997751 0.08376909 -0.048360467 -0.13321145
-0.2172823 -0.18747483 -0.06656567 -0.19764668 -0.1601581 -0.09624861 -0.018506067 -0.023014607
-0.011161151 -0.003987048 -0.0139570525 -0.02172902 -0.054189116 0.008505233 -0.12006413 -0.046951335
-0.025279345
00000000: 689f 2e3d 1318 ac3d 82fa b73d 178a 773c
00000010: 03dc 463e 499a 123e cbdf 043a c717 ec3c
00000020: a896 053d 3e8f 9abd 37b4 c0bc c8d0 42bd
00000030: 55e9 2ebe 7c83 b8bd eeee 5e3d 826e 30be
00000040: a648 a1bc 34b6 00bd ba37 e93d d9de 5b3c
00000050: aa86 6fbd 097d 1a3e bd9a 293d a70c 1b3d
00000060: 7b25 353e 1ee2 523e c03e 873d 8d25 333c
00000070: a891 a63d ade4 073e e5b6 da3d af1a c93d
00000080: efd5 dc3d 714c 02bd 0474 213c 251d 003e
00000090: 9142 8ebd e3d2 76bd baeb 8dbe b43a a7bc
000000a0: 56ab 64be 1eb6 adbe bc28 2bbe a01c 4fbe
000000b0: 66d5 1dbe 969c 8b3d a36f 4c3e e767 453e
000000c0: 2ab5 a43d 7fc5 cd3d d1e5 fc3d 2ac0 413c
000000d0: 0e8c 963d 5540 003e e036 c7bd a9c6 d4ba
000000e0: 7e8b 163c 88c9 d8bd 216e acbb e7e3 bd3d
000000f0: ddbc a1bd e341 3bbd 18c3 5ebd baaf cebd
00000100: 1438 90bd 93e2 ccbd 441c d7bc 57af d5bd
00000110: 2110 2ebe c1af 05be d12e 74be 076a 73be
00000120: 3958 cebc 9317 003d ef88 9d3d 0887 a5bc
00000130: 2084 983d 2238 073e 8e6b 063e ba71 333e
00000140: e5c5 303d f79e 11be 7f44 31be 449d bcbd
00000150: 40fa 49be f0c3 16be 562b 63be 56c2 aebd
00000160: 412c e7bc 921d 59bd c114 8f3d 1feb 273d
00000170: 5cbb 03be cef6 953c a081 d6bc 97aa e7bd
00000180: b58e f6bc 6029 2cbe e374 20be e2f5 003c
00000190: 16d6 b83d eb6a d7bd 9c79 b43d dee5 ec3d
000001a0: b9f3 933d c215 0d3e 4731 8e3e 39c8 7e3e
000001b0: 30e7 58be 77e8 a9bd 76a2 2cbd 2b9d 28be
000001c0: fd26 e0bd 8bbd e1bb 452a a9bd 15d0 1cbe
000001d0: f51d fabd 4516 523d 86ea 70bd 0789 61bd
000001e0: b8f3 7abd b67f e5bd be14 a23c 75bc 7cbd
000001f0: 0e7b c0bd dd9e 6c3b e705 dd3c 0cdd 17bd
00000200: 012c 07be a38d babd 3569 3abe 253a 4fbe
00000210: 23db 89bc ffdd d3bd bb4f 85be 7b93 b83d
00000220: 982c 8a3d 5bb4 abbd 7558 043d 8dbc 823d
00000230: 9e24 d2bd 1f77 d13d b4a6 2c3d 6507 f2bd
00000240: 2369 1f3c 1529 cd3b e2d7 073e e1b9 163e
00000250: 1046 323e adb1 b83d a03e f63d 1aa2 da3d
00000260: 1a48 873d 5db4 e43d e689 ae3d 18d7 fb3d
00000270: 37f2 663e ee29 413e 4a12 613e 27f7 2b3e
00000280: 1073 823e 8ecf a93e ff85 9f3d 4d69 063d
00000290: 2288 c13d f0d1 7c3c 8f54 143c 976b 5cbd
000002a0: 8a76 36bc e63a fbbc afb3 023d 16dd 0a3b
000002b0: f8bb 05bd 6a1b a2bc 4f74 073d e642 6bbd
000002c0: ca4b fcbd c35a 32bd c4cc adbd 7329 b6bd
000002d0: 2358 133d 314b 933a c1b9 0f3d 4bc5 bdbd
000002e0: f27b 21bd f640 a23c e7c7 51be 5628 2fbe
000002f0: 9cdc 9bbd 530d cbbd 16e8 43be bf44 60be
00000300: fc9f 73be 75e5 23be 354e babd 0033 20be
00000310: 0c64 61be 1fb7 22be ae47 103d ecf2 33ba
00000320: 738c e4bc 2768 dc3d f22a b43d 1caa 97bd
00000330: e356 cc3d 218f ab3d a015 46bd 9568 08be
00000340: 407f 5ebe 67f9 3fbe 9553 88bd e463 4abe
00000350: 7c00 24be fe1d c5bd 099a 97bc 2189 bcbc
00000360: 43dd 36bc c8a5 82bb 1fac 64bc 0f01 b2bc
00000370: 68f5 5dbd 8859 0b3c 2fe4 f5bd 0b50 40bd
00000380: a116 cfbc

conv3.bias f4 [5]
0.079851985 -0.013750967 0.103489995 -0.13461502 0.12123238
00000000: 7089 a33d bc4b 61bc 90f2 d33d 85d8 09be
00000010: af48 f83d

BN3.weight f4 [5]
1.3508247 1.3609502 1.3862071 1.299533 1.3195982
00000000: d3e7 ac3f 9e33 ae3f 3c6f b13f 1957 a63f
00000010: 98e8 a83f

BN3.bias f4 [5]
-0.04625161 -0.045152627 0.06631611 -0.05001079 0.0537162
00000000: 5472 3dbd f6f1 38bd bed0 873d 1dd8 4cbd
00000010: 8505 5c3d

BN3.running_mean f4 [5]
0.12899452 -0.075481236 -0.46159428 0.26075786 -0.60243297
00000000: 2417 043e e895 9abd 1656 ecbe 0e82 853e
00000010: 0c39 1abf

BN3.running_var f4 [5]
0.4397207 0.63834625 0.4235519 0.32515544 0.29944077
00000000: 1223 e13e a96a 233f cbdb d83e c67a a63e
00000010: 4d50 993e

IF3.surrogate_function.total_ops f8 [1]
0.0
00000000: 0000 0000 0000 0000

IF3.surrogate_function.total_params f8 [1]
0.0
00000000: 0000 0000 0000 0000

fc1.weight f4 [100, 405]
-0.014620575 0.010301292 0.13834028 0.15859254 0.18562584 0.08542304 0.12357501 0.12323979
0.11746184 0.04595226 0.043672964 0.03403726 0.025449015 0.09296112 0.11139824 0.1709471
0.16014834 0.0766769 -0.01584598 0.026397001 -0.049177457 0.035245027 0.028869322 0.12247483
0.123226225 0.017143162 0.030835088 -0.007528661 0.047076892 0.019509023 0.0608679 -0.021272028
0.095863976 -0.01097834 0.040313605 0.01030994 -0.07839919 -0.0015908976 0.024087371 0.035294197
0.007110672 -0.04016872 -0.08904356 0.053166483 -0.10936439 -0.052686237 0.019561427 -0.07285173
-0.14109717 -0.11612093 -0.19033 -0.030932572 -0.043375548 -0.164551 0.011209696 -0.15271558
-0.17764954 -0.1274486 -0.06820539 -0.28451157 -0.065146655 -0.053213954 -0.19280219 -0.05432102
-0.25361875 -0.22641362 -0.15420538 0.007975378 -0.087473 -0.060905136 -0.055506866 -0.07501006
0.04908449 -0.08798703 -0.1297954 -0.2434497 -0.1377824 -0.09539368 0.056163695 0.1930749
0.15490632 0.05705589 -0.0051380396 0.11816 0.12503894 0.13106048 0.0021544585 0.026891818
0.15912566 0.06936364 0.09118944 0.025174314 0.018355256 0.009452368 0.045985427 0.09511552
0.19767395 0.16993448 -0.040131293 0.09064456 0.06845897 0.009005752 0.039214183 -0.0030725722
0.09170447 0.14131092 0.06515647 -0.012554747 -0.01234053 0.05272086 0.007935284 0.03936692
0.04713748 0.097750366 0.041945312 0.017946223 -0.05004691 -0.07859109 -0.010037108 0.0074323374
-0.04105131 -0.041649774 -0.068516426 0.002933875 -0.06863069 -0.17859682 -0.086406775 -0.02248433
-0.12540965 -0.16144207 -0.2547905 -0.18606855 -0.03237263 -0.059394285 -0.18679127 -0.14397208
-0.11626126 -0.19510998 -0.06741939 -0.2175576 -0.25498715 -0.10284716 -0.09283442 -0.08133897
-0.14959471 -0.08980642 -0.115123235 -0.12272339 -0.13932237 0.037732437 -0.0047456245 -0.005047937
-0.014587321 -0.12540449 -0.020549126 0.042700607 -0.14902207 -0.1186686 -0.04819767 0.024531942
0.20724635 0.16368029 0.05007106 0.11942458 0.10758169 0.081338495 0.13766749 -0.021893162
0.15553379 0.13751692 -0.075149946 0.03996247 0.11111923 0.006712408 0.080512695 0.06844171
0.04165956 0.047725853 0.025856627 -0.21082969 0.008148172 0.10587312 0.029300068 0.062114354
-0.014289367 -0.09176329 0.013481097 -0.0060462863 0.027273066 0.0312819 0.13789101 0.024949448
0.047234364 0.062274396 -0.02274624 0.05508631 0.01652032 -0.09407745 0.05762653 0.019323677
0.045648113 0.14040811 0.11562618 0.033889096 0.085572906 0.094108246 0.036804292 -0.04000454
0.08474339 0.06304005 0.115893416 0.06051187 -0.072975405 0.08564013 0.1279186 -0.049876243
0.012992589 0.086690105 -0.0022721558 -0.0214069 -0.022327106 0.05258144 -0.0017958301 0.114103965
-0.10402329 -0.03231459 0.12095573 0.040556896 0.0016420172 -0.058538493 0.014270675 -0.0152864605
-0.033435643 0.0152854035 -0.31299865 0.039411407 0.005150121 0.0014747026 -0.053377844 -0.03128462
0.045137446 0.042246625 0.059933268 -0.039288443 -0.087725535 -0.20542939 -0.019560488 0.033945017
-0.1330659 -0.13291033 -0.15402007 -0.10707097 -0.088702284 -0.19307089 -0.105272114 -0.055816922
00000000: 238b 6fbc c0c6 283c 13a9 0d3e 1566 223e
00000010: b314 3e3e 46f2 ae3d e514 fd3d 2565 fc3d
00000020: d58f f03d 7038 3c3d 6ce2 323d a76a 0b3d
00000030: 747a d03c 6662 be3d c324 e43d c20c 2f3e
00000040: edfd 233e c708 9d3d 6ecf 81bc 863e d83c
00000050: 4d6e 49bd 175d 103d 5b7f ec3c 15d4 fa3d
00000060: 085e fc3d d16f 8c3c de99 fc3c fcb2 f6bb
00000070: b3d3 403d 63d1 9f3c 9e50 793d ad42 aebc
00000080: 5554 c43d 7fde 33bc e11f 253d 06eb 283c
00000090: c18f a0bd aa85 d0ba e152 c53c a690 103d
000000a0: a400 e93b f587 24bd 785c b6bd 19c5 593d
000000b0: 70fa dfbd 86cd 57bd 493f a03c 4a33 95bd
000000c0: c77b 10be cfd0 edbd dee5 42be 4e66 fdbc
000000d0: 8faa 31bd 0f80 28be dfa8 373c 7961 1cbe
000000e0: c3e9 35be e381 02be 44af 8bbd 80ab 91be
000000f0: 9c6b 85bd e0f6 59bd f06d 45be b87f 5ebd
00000100: 51da 81be f9d8 67be 04e8 1dbe 29ab 023c
00000110: 0b25 b3bd aa77 79bd 2b5b 63bd e09e 99bd
00000120: d10c 493d 8b32 b4bd 16e9 04be e14a 79be
00000130: d416 0dbe c35d c3bd e70b 663d 6db5 453e
00000140: c39f 1e3e 70b3 693d 005d a8bb dffd f13d
00000150: 350a 003e b834 063e d131 0d3b 3b4c dc3c
00000160: d6f1 223e 860e 8e3d 87c1 ba3d 5d3a ce3c
00000170: c35d 963c 1bde 1a3c 375b 3c3d edcb c23d
00000180: 0a6b 4a3e 4e03 2e3e b660 24bd dba3 b93d
00000190: 3734 8c3d dd8c 133c 0d9f 203d 355d 49bb
000001a0: 8ecf bb3d cfb3 103e c170 853d 6db2 4dbc
000001b0: ef2f 4abc d4f1 573d fe02 023c 353f 213d
000001c0: 3b13 413d 5831 c83d d9ce 2b3d f503 933c
000001d0: fdfd 4cbd 5ef4 a0bd af72 24bc f78a f33b
000001e0: 6b25 28bd f498 2abd 5752 8cbd 4146 403b
000001f0: 3f8e 8cbd 16e2 36be 09f6 b0bd 0f31 b8bc
00000200: 636b 00be 1251 25be e773 82be c188 3ebe
00000210: 2a99 04bd 6c47 73bd 3646 3fbe 6b6d 13be
00000220: 621a eebd e9ca 47be 2d13 8abd 6bc7 5ebe
00000230: ad8d 82be 88a1 d2bd f91f bebd 0c95 a6bd
00000240: 5b2f 19be 6eec b7bd bbc5 ebbd 6756 fbbd
00000250: 86aa 0ebe 548d 1a3d 2f81 9bbb 2a69 a5bb
00000260: a9ff 6ebc 096a 00be a456 a8bc d5e6 2e3d
00000270: 3e99 18be 8608 f3bd ec6a 45bd 36f7 c83c
00000280: 6338 543e ce9b 273e 5017 4d3d e094 f43d
00000290: ca53 dc3d cc94 a63d b5f8 0c3e 4a59 b3bc
000002a0: 4044 1f3e 3cd1 0c3e 37e8 99bd b0af 233d
000002b0: 7b92 e33d c2f3 db3b d7e3 a43d 2b2b 8c3d
000002c0: 37a3 2a3d 2f7c 433d 47d1 d33c bde3 57be
000002d0: e97f 053c 02d4 d83d b206 f03c 9f6b 7e3d
000002e0: f31d 6abc 64ee bbbd d2df 5c3c ed1f c6bb
000002f0: c46b df3c 7321 003d 4d33 0d3e c962 cc3c
00000300: d278 413d 7013 7f3d 5356 babc 2fa2 613d
00000310: 9f55 873c aeab c0bd cc09 6c3d b04c 9e3c
00000320: 84f9 3a3d 25c7 0f3e 6bcd ec3d 4bcf 0a3d
00000330: d940 af3d d3bb c03d 19c0 163d cddb 23bd
00000340: f18d ad3d 241b 813d 8759 ed3d 4bdb 773d
00000350: 2174 95bd 1864 af3d 18fd 023e 084b 4cbd
00000360: dede 543c 958a b13d 73e8 14bb 865d afbc
00000370: 56e7 b6bc a35f 573d 0f62 ebba 57af e93d
00000380: 2a0a d5bd 4e5c 04bd a3b7 f73d fd1e 263d
00000390: f438 d73a 0fc6 6fbd 8dcf 693c 1074 7abc
000003a0: d0f3 08bd a16f 7a3c 5c41 a0be db6d 213d
000003b0: 59c2 a83b cf4a c13a baa2 5abd 4d24 00bd
000003c0: 0be2 383d cc0a 2d3d 967c 753d ebec 20bd
000003d0: 72a9 b3bd 155c 52be 513d a0bc ee09 0b3d
000003e0: 6d42 08be a519 08be 70b7 1dbe 0648 dbbd
000003f0: 8ba9 b5bd 60b4 45be e898 d7bd 49a0 64bd

fc1.bias f4 [100]
-0.004134093 0.040272947 0.03051908 0.034685884 0.0033545657 0.045895927 0.025517134 0.07360358
0.035469748 -0.025879756 0.060828377 0.06942933 -0.01710034 -0.025755977 -0.04187486 0.0539634
0.015633311 0.025398536 0.01019207 -0.009416666 -0.013170999 -0.006049489 0.092202894 -0.0226503
0.049841966 -0.039084446 -0.08559641 0.023381995 0.020938382 -0.026574269 0.095500216 0.013504214
0.0789562 -0.07403253 -0.022889078 -0.026029961 0.08347292 0.013607989 0.022781722 0.032485105
0.0297993 0.029539816 0.020845797 0.003407041 -0.02908901 -0.018519754 0.05692378 0.050936576
-0.012902902 0.036355164 0.05189773 0.0042021777 -0.058551088 0.0042331764 -0.03140615 0.019145276
-0.028110426 -0.059644286 -0.0066921352 -0.04887854 0.009298301 0.08965893 0.014530688 0.053548727
0.016008755 -0.015126339 0.07696206 -0.015763776 0.028856715 -0.0454136 -0.028697046 0.00920419
-0.05970867 0.00037042 0.015913472 -0.010837347 0.057114046 -0.013904948 0.0013002492 -0.04688681
-0.0147462 0.021860866 -0.056183394 0.021151578 -0.005924783 -0.034919634 0.05035021 -0.004613816
0.007386238 0.07966285 0.059187815 0.02623987 -0.06099286 0.05492183 0.024868317 -0.021816095
0.056126352 0.06357552 0.047258426 0.011885019
00000000: 4977 87bb 3ff5 243d 2603 fa3c c912 0e3d
00000010: 46d8 5b3b 5efd 3b3d 4f09 d13c 79bd 963d
00000020: ba48 113d c801 d4bc 2d27 793d f730 8e3d
00000030: 0316 8cbc 33fe d2bc f984 2bbd ba08 5d3d
00000040: 6e11 803c 9710 d03c a4fc 263c 5c48 1abc
00000050: 2ccb 57bc cb3a c6bb dfd4 bc3d 1f8d b9bc
00000060: 1727 4c3d 0317 20bd 2c4d afbd 998b bf3c
00000070: f886 ab3c 48b2 d9bc 9e95 c33d c740 5d3c
00000080: cab3 a13d 5e9e 97bd e081 bbbc c93c d5bc
00000090: daf3 aa3d 0bf4 5e3c bca0 ba3c 1a0f 053d
000000a0: a91d f43c 7cfd f13c cec4 aa3c aa48 5f3b
000000b0: 134c eebc bdb6 97bc e928 693d dfa2 503d
000000c0: b266 53bc 27e9 143d b792 543d 6cb2 893b
000000d0: 44d3 6fbd 75b6 8a3b bca3 00bd 8ed6 9c3c
000000e0: d647 e6bc 914d 74bd b349 dbbb dd34 48bd
000000f0: e757 183c 1a9f b73d 1f12 6e3c e955 5b3d
00000100: cb24 833c 77d4 77bc 499e 9d3d 0923 81bc
00000110: eb64 ec3c 9c03 3abd 1116 ebbc 2ccd 163c
00000120: 1491 74bd ee34 c239 f85c 823c 218f 31bc
00000130: 6bf0 693d 94d1 63bc 206d aa3a 620c 40bd
00000140: 0c9a 71bc 8f15 b33c 8f20 66bd 1346 ad3c
00000150: af24 c2bb e407 0fbd 063c 4e3d 7e2f 97bb
00000160: 4108 f23b 4726 a33d ec6e 723d fff4 d63c
00000170: a6d3 79bd b6f5 603d a4b8 cb3c abb7 b2bc
00000180: bfe4 653d e233 823d 0d92 413d 62b9 423c

IF4.surrogate_function.total_ops f8 [1]
0.0
00000000: 0000 0000 0000 0000

IF4.surrogate_function.total_params f8 [1]
0.0
00000000: 0000 0000 0000 0000

fc2.weight f4 [10, 100]
-0.34540698 -0.25150388 -0.19005905 0.037811197 -0.056218807 0.1595649 0.052774336 -0.43708646
0.1842944 -0.076185785 -0.2667903 -0.2703202 0.16652417 0.1751652 0.13429356 0.040596195
-0.38586798 0.14435329 -0.39056915 -0.30077466 0.13080606 0.07994538 -0.014318441 0.11654326
-0.26242483 -0.2862673 0.097665474 0.03511842 0.14470683 0.17968896 -0.32012212 0.047717478
-0.05160348 -0.22891374 0.17954697 -0.3414545 -0.3078297 0.09942968 -0.009672209 -0.30001852
-0.56880295 0.02385595 0.10268754 -0.0023879493 -0.40197337 -0.4436575 0.13687308 0.03017373
0.07690671 0.029378232 0.043452267 -0.18314837 0.21195713 -0.1948821 0.076682724 -0.501146
-0.25996542 0.13031682 -0.22285488 -0.22553702 -0.08223055 0.1928842 -0.33216268 -0.36006293
0.17168772 -0.2591419 -0.1418905 -0.017575288 -0.3738046 0.2683055 -0.36998513 -0.20315163
-0.042684216 0.13008235 0.07699284 -0.14279054 -0.14405732 0.19832407 -0.26657954 0.14306904
-0.15272315 -0.44084865 0.016900077 -0.0065585487 0.26571277 0.01123809 -0.286188 0.103465386
-0.30845118 -0.21732326 -0.18632893 0.20465529 -0.14753856 0.2259047 -0.3401442 0.30761263
-0.0952965 -0.3555537 0.15505444 0.15576932 -0.26404348 0.071596414 -0.37741008 -0.09899712
0.22063236 0.18178466 0.12098329 0.26979017 0.07947403 -0.0013151569 0.11477861 -0.12637156
0.06204139 0.03847077 -0.056550693 0.14365688 -0.30274606 -0.6202354 0.123401225 -0.40152016
-0.089346536 0.08537814 -0.08197682 -0.09946536 0.0494311 -0.2955266 0.117610976 0.1665112
0.16775736 -0.37845308 0.02013074 0.1043445 -0.086639725 -0.14667964 0.037856 -0.47290027
-0.03179486 0.100695685 -0.052280582 0.12621601 -0.25935286 0.024484618 -0.06378703 -0.12724563
0.6876894 0.15999362 -0.102751516 0.015671613 -0.6437295 0.044393186 0.012296792 0.18091443
-0.42570826 -0.15798761 -0.018616667 0.099687114 0.08814425 0.102766104 -0.23295338 -0.12693328
-0.025473319 0.012027015 0.16243647 0.08768457 0.13596648 0.38361597 -0.31442517 0.029383963
0.13267134 0.0073881615 -0.642145 -0.4356936 0.15426141 0.16164006 0.015199025 0.07061741
-0.004051498 0.02354905 -0.40524963 -0.014695544 -0.027594818 -0.27974805 -0.09050359 -0.14798617
-0.02556519 -0.115913026 -0.3363035 0.19354889 -0.35009113 -0.29414335 -0.008787895 -0.44815418
-0.4526398 -0.06637543 -0.22260903 -0.53359616 0.23551254 -0.05873276 0.17382444 -0.27540943
0.07127882 -0.13932735 0.12578808 -0.40574157 0.2001565 0.21698993 -0.3335076 0.06668858
0.14127074 -0.32523435 0.003662961 -0.23984464 -0.3499989 -0.017710907 -0.2970477 -0.13116433
0.26523015 -0.34494433 -0.15590525 0.14020647 0.2352877 -0.37877563 0.09718203 0.15945655
0.11423427 0.1369861 -0.048067834 0.0011255925 -0.4517975 -0.058679365 0.07695792 0.16856474
-0.31927422 -0.13147828 0.11771414 -0.1864156 0.12063018 0.038540907 0.11076141 -0.5200925
-0.014941925 0.05342991 -0.27948862 -0.39251754 -0.35277426 -0.014300379 0.40560043 0.03650614
0.32859218 -0.44381925 0.012831743 0.1555934 -0.24176042 0.09051689 -0.06933446 0.11375737
00000000: 2fd9 b0be 1ec5 80be d79e 42be eadf 1a3d
00000010: b145 66bd fb64 233e e729 583d ccc9 dfbe
00000020: acb7 3c3e 4b07 9cbd bd98 88be 6967 8abe
00000030: 5085 2a3e 825e 333e 4084 093e 3248 263d
00000040: 7d90 c5be 59d1 133e aef8 c7be 23ff 99be
00000050: 06f2 053e 67ba a33d e597 6abc 3cae ee3d
00000060: 8c5c 86be a191 92be d604 c83d 55d8 0f3d
00000070: 072e 143e 6200 383e 0ce7 a3be 6773 433d
00000080: 2c5e 53bd 5d68 6abe 29db 373e 20d3 aebe
00000090: db9b 9dbe caa1 cb3d 2f78 1ebc 079c 99be
000000a0: 129d 11bf 8e6d c33c d84d d23d 247f 1cbb
000000b0: 74cf cdbe 1327 e3be 7528 0c3e e62e f73c
000000c0: 4481 9d3d 9eaa f03c 01fb 313d 3f8b 3bbe
000000d0: 4a0b 593e 2c8f 47be d50b 9d3d 1b4b 00bf
000000e0: 301a 85be c671 053e 1234 64be 2df3 66be
000000f0: 7e68 a8bd 7083 453e 3a11 aabe 2b5a b8be
00000100: e8ce 2f3e 3fae 84be be4b 11be 0dfa 8fbc
00000110: 5163 bfbe 575f 893e b16e bdbe fb06 50be
00000120: a5d5 2ebd 4f34 053e 6cae 9d3d af37 12be
00000130: c383 13be 7715 4b3e 1d7d 88be b180 123e
00000140: 7563 1cbe eab6 e1be 0872 8a3c 18e9 d6bb
00000150: 810b 883e f71f 383c 3c87 92be a9e5 d33d
00000160: 50ed 9dbe fd89 5ebe 03cd 3ebe 2891 513e
00000170: 5914 17be 9053 673e 6127 aebe 677f 9d3e
00000180: d02a c3bd 220b b6be 97c6 1e3e fe81 1f3e
00000190: b530 87be 24a1 923d e53b c1be 01bf cabd
000001a0: 73ed 613e c225 3a3e 16c6 f73d f021 8a3e
000001b0: 48c3 a23d 5861 acba 0c11 eb3d 8c67 01be
000001c0: 1d1f 7e3d 8793 1d3d b3a1 67bd ca1a 133e
000001d0: 8801 9bbe bfc7 1ebf c8b9 fc3d 0d94 cdbe
000001e0: 51fb b6bd bcda ae3d 77e3 a7bd 7fb4 cbbd
000001f0: 4478 4a3d 434f 97be 06de f03d e981 2a3e
00000200: 96c8 2b3e 9ac4 c1be 39e9 a43c 92b2 d53d
00000210: 2b70 b1bd 3033 16be e50e 1b3d fc1f f2be
00000220: 543b 02bd 8a39 ce3d 2a24 56bd c53e 013e
00000230: e6c9 84be f793 c83c c6a2 82bd ae4c 02be
00000240: 6a0c 303f 5ed5 233e 636f d2bd c161 803c
00000250: 75cb 24bf a1d5 353d 7c78 493c a241 393e
00000260: 6ff6 d9be 81c7 21be fb81 98bc c228 cc3d
00000270: f984 b43d 0977 d23d 558b 6ebe ccfa 01be
00000280: 6cad d0bc f50c 453c bf55 263e f893 b33d
00000290: cc3a 0b3e 5069 c43e 56fc a0be a3b6 f03c
000002a0: ffda 073e 6418 f23b 9d63 24bf 3b13 dfbe
000002b0: b4f6 1d3e f984 253e 5505 793c dc9f 903d
000002c0: 6ec2 84bb f0e9 c03c e17c cfbe 94c5 70bc
000002d0: 870e e2bc 233b 8fbe f259 b9bd b089 17be
000002e0: 176e d1bc cf63 edbd f92f acbe ae31 463e
000002f0: 253f b3be f599 96be 1afb 0fbc 7774 e5be
00000300: 67c0 e7be d7ef 87bd 9ff3 63be c299 08bf
00000310: 332a 713e c391 70bd 09ff 313e 7702 8dbe
00000320: a1fa 913d d4ab 0ebe 97ce 003e 5cbd cfbe
00000330: d3f5 4c3e 9c32 5e3e 82c1 aabe 0694 883d
00000340: 47a9 103e 1e85 a6be 4a0e 703b d599 75be
00000350: 0e33 b3be 7716 91bc a316 98be f14f 06be
00000360: 3fcc 873e 8b9c b0be a0a5 1fbe 4992 0f3e
00000370: 42ef 703e e1ee c1be 5f07 c73d 9448 233e
00000380: a8f3 e93d 1646 0c3e c7e2 44bd 9e88 933a
00000390: 0052 e7be c659 70bd 1d9c 9d3d 3c9c 2c3e
000003a0: e977 a3be 3ea2 06be 1c14 f13d bbe3 3ebe
000003b0: f50c f73d 12dd 1d3d e1d6 e23d c824 05bf
000003c0: face 74bc 52d9 5a3d 2219 8fbe 0ff8 c8be
000003d0: d49e b4be 234c 6abc dcaa cf3e 7687 153d
000003e0: 3c3d a83e 473c e3be 3b3c 523c e053 1f3e
000003f0: 0b90 77be eb60 b93d 3aff 8dbd a0f9 e83d

fc2.bias f4 [10]
0.035792507 0.035001576 -0.03977877 0.055812094 0.025324116 0.07874799 -0.023436625 -0.060291097
0.17597827 0.065000914
00000000: 2a9b 123d d05d 0f3d 10ef 22bd 399b 643d
00000010: 8574 cf3c a046 a13d 2afe bfbc ccf3 76bd
00000020: a633 343e 331f 853d

IF5.surrogate_function.total_ops f8 [1]
0.0
00000000: 0000 0000 0000 0000

IF5.surrogate_function.total_params f8 [1]
0.0
00000000: 0000 0000 0000 0000
