LiDAR_NET_Pre_trained_model_SNN_CNN/ckpt_epoch_27_val_loss_1.464008.pth (torch, 176866 bytes, 22 tensors)

conv1.weight f4 [5, 1, 5, 5]
0	0x3e42bfa9	0.19018425
1	0x3e0fbcc2	0.14036849
2	0x3db32312	0.087469235
3	0xbc9ce0c7	-0.019150151
4	0xbd3e5334	-0.046466067
5	0x3dce8c86	0.100853965
6	0x3dad3a58	0.08458394
7	0xbc8b2047	-0.016983164
8	0xbd96c413	-0.07361617
9	0xbe33a8a1	-0.17544796
10	0xbcda1f0e	-0.026626136
11	0x3d227107	0.039658573
12	0xbd38b712	-0.045096464
13	0xbe03ef2f	-0.1288421
14	0xbe573d95	-0.21019585
15	0xbd8fa315	-0.07013527
16	0xbe184919	-0.14871635
17	0xbe16dd5b	-0.14732878
18	0xbe110275	-0.14161094
19	0xbe8da22b	-0.27662787
20	0xbd3eb97e	-0.046563618
21	0x3caee477	0.021349175
22	0xbe033845	-0.12814434
23	0xbe5c1060	-0.21490622
24	0xbe895915	-0.26825777
25	0xbbf28fa1	-0.007402376
26	0xbe05d946	-0.13071164
27	0xbe52b764	-0.2057777
28	0xbd1093a0	-0.035297036
29	0xbd1cce5e	-0.038282745
30	0xbda75fe1	-0.08172584
31	0xbc8ee38a	-0.017442483
32	0xbdcbeca2	-0.099572435
33	0xbd1679c7	-0.03673723
34	0xbbae2ac9	-0.005315159
35	0x3e292d66	0.16521224
36	0x3d9e4085	0.0772715
37	0x3d91f7bf	0.07127332
38	0xbcf1ad59	-0.029501604
39	0x3db6d616	0.089275524
40	0xbd4614e0	-0.04835975
41	0x3e5186e7	0.20461617
42	0x3e142279	0.14466275
43	0x3e1f982b	0.15585391
44	0x3e36c489	0.1784841
45	0x3e3839a3	0.17990737
46	0x3e3cdfb7	0.18444715
47	0x3d5baa30	0.0536291
48	0x3ec2d350	0.38051844
49	0x3e62349f	0.22090386
50	0xbbbd2f5f	-0.0057734693
51	0x3da4edb4	0.08053151
52	0x3d8e2a47	0.069416575
53	0x3d2879f8	0.041131943
54	0x3d8ee4a0	0.069772005
55	0xbd6a7773	-0.057242822
56	0x3d46c0ed	0.048523832
57	0x3ddc2980	0.10750103
58	0x3e3ad1c5	0.18244083
59	0x3d650fcb	0.055923264
60	0xbd970ae3	-0.07375123
61	0xbd3a2fe2	-0.04545582
62	0x3e00f67c	0.12594026
63	0xbdf0deae	-0.11761223
64	0x3dac5e4c	0.08416423
65	0xbe9773c6	-0.29580516
66	0xbe4d25dc	-0.20033973
67	0xbd73ec99	-0.05955181
68	0xbe095c50	-0.1341412
69	0xbd8bb18a	-0.06820972
70	0xbed0ce1b	-0.40782246
71	0xbdee4db1	-0.11635912
72	0xbe3acae8	-0.18241465
73	0xbdc1a0c7	-0.09454494
74	0xbd915720	-0.07096696
75	0xbe2803fe	-0.16407773
76	0xbc852943	-0.016255027
77	0xbcc26243	-0.023728495
78	0xbe1080a4	-0.14111573
79	0xbe8ed412	-0.27896172
80	0xbe582d2d	-0.21110983
81	0xbe01299c	-0.12613529
82	0xbd02c76b	-0.03192846
83	0xbe057fdb	-0.13037054
84	0xbea145c0	-0.31498528
85	0xbdac2ae3	-0.084066175
86	0xbd60a824	-0.05484785
87	0x3db6e566	0.08930473
88	0xbd3ccdbf	-0.046094652
89	0xbe9e3d5d	-0.3090619
90	0xbe13e123	-0.14441352
91	0x3ce0480b	0.027378103
92	0x3dcaea08	0.09907919
93	0x3d88b2ba	0.066747144
94	0xbdd006e3	-0.101575635
95	0xbdd1c72f	-0.102430694
96	0x3d69e6b6	0.05710479
97	0xbc5f91d9	-0.013645613
98	0x3bb3231e	0.005466833
99	0xbd666f78	-0.05625865
100	0x3ddb5ddd	0.107112624
101	0xbddc996b	-0.1077145
102	0xbceeb14a	-0.029137272
103	0x3d8ad8bb	0.06779619
104	0xbc245ab6	-0.010031393
105	0xbd957eaf	-0.072995536
106	0xbdef9ebd	-0.11700199
107	0xbdd9d3e8	-0.10636121
108	0xbe121eb3	-0.14269523
109	0x3d9c4506	0.07630353
110	0xbe2aee4c	-0.16692466
111	0xbdeddf6c	-0.1161488
112	0xbd5dda74	-0.05416341
113	0xbe0ece8e	-0.13945982
114	0xbe0ddf48	-0.13854706
115	0xbdec6328	-0.1154235
116	0xbc799b71	-0.015234814
117	0xbe0e9f0b	-0.13927858
118	0xbd2378eb	-0.03991024
119	0x3bfe2eb7	0.0077570337
120	0xbda27b91	-0.07933725
121	0xbe9412a8	-0.28920484
122	0xbe8cc053	-0.27490482
123	0xbd3e2339	-0.04642031
124	0xbe725cae	-0.23668167

conv1.bias f4 [5]
0	0x3ce613e8	0.028085664
1	0xbe1bd342	-0.15217307
2	0x3db887e4	0.09010294
3	0x3d754e7f	0.059889313
4	0x3e5216fc	0.2051658

BN1.weight f4 [5]
0	0x3fd2cc90	1.6468678
1	0x3fb8ccf9	1.4437553
2	0x3fcd60cd	1.6045166
3	0x3fca8aed	1.5823647
4	0x3fb9314b	1.4468168

BN1.bias f4 [5]
0	0x3ef20b6b	0.47274336
1	0x3e0bdd1a	0.13658562
2	0x3f198003	0.59960955
3	0x3ea71c22	0.3263865
4	0x3e980b71	0.2969623

BN1.running_mean f4 [5]
0	0xbf0ee852	-0.5582324
1	0x3ec478c8	0.383734
2	0xbea0916f	-0.31360957
3	0xbf1a34b8	-0.6023669
4	0xbf130ce8	-0.5744157

BN1.running_var f4 [5]
0	0x3e8e2bb0	0.27767706
1	0x3e7234ac	0.23652905
2	0x3e4a2615	0.1974109
3	0x3ea11e9e	0.31468672
4	0x3ec9db55	0.3942515

conv2.weight f4 [5, 5, 3, 3]
0	0xbd85c0ae	-0.06530891
1	0x3d1a10fc	0.037613854
2	0x3e01fa43	0.12693124
3	0xbd21af5e	-0.039473884
4	0x3d1a9bd5	0.03774627
5	0xbc83e2c0	-0.016099334
6	0x3c644695	0.013932844
7	0xba9148fc	-0.0011084373
8	0xbd961a1b	-0.07329198
9	0x3db93a15	0.090442814
10	0x3db7fce0	0.08983779
11	0x3deefe5b	0.11669608
12	0x3d26675b	0.04062591
13	0x3cce8a6d	0.02521249
14	0x3dd6fe03	0.10497668
15	0x3e4c54ee	0.19954273
16	0x3e887d84	0.2665826
17	0x3dd95c3c	0.106132954
18	0xbcc51e06	-0.024062168
19	0xbd245517	-0.04012021
20	0xbcfe2c35	-0.031026939
21	0x3c137ac4	0.009001438
22	0xbcd176ec	-0.025569402
23	0xbd1f72c7	-0.03892782
24	0xbcbfbba3	-0.023404902
25	0xbd818851	-0.063248284
26	0xbccc0c2a	-0.024908144
27	0x3dbd7618	0.0925104
28	0x3dccaf91	0.09994424
29	0x3e31f28c	0.1737768
30	0x3d2baa84	0.041910663
31	0x3cff9b57	0.031202001
32	0x3db22882	0.086991325
33	0x3c38a2ca	0.011269281
34	0x3dc2290f	0.094804876
35	0x3d2e3adc	0.0425366
36	0x3d99e7fa	0.07514949
37	0x3ce75e4e	0.02824321
38	0x3ce8e693	0.028430259
39	0xbca6de5d	-0.020369703
40	0x3c031d96	0.008002659
41	0x3b672a9a	0.0035273195
42	0xbc83fddb	-0.016112259
43	0x37b887f8	2.1997825e-05
44	0x3cd93483	0.026514297
45	0xbdd239e2	-0.102649465
46	0xbd7c1f19	-0.061553095
47	0xbd50db17	-0.05099019
48	0xbd8d2a16	-0.06892793
49	0x3ad4969a	0.0016219199
50	0xbd901b11	-0.070364125
51	0x3ae5cc19	0.0017532139
52	0x3d14352d	0.036183525
53	0xbc03b8e0	-0.008039683
54	0x3da216a4	0.079144746
55	0xbdff6b14	-0.124715954
56	0xbd21b282	-0.03947688
57	0xbda0f9f9	-0.078601785
58	0x3d14d021	0.0363313
59	0x3d6a2a7e	0.05716943
60	0x3db901c4	0.0903354
61	0x3e0c752c	0.13716573
62	0x3ec34031	0.38134912
63	0xbce2ef92	-0.027702127
64	0xbd221ca0	-0.03957808
65	0xbdb7aca2	-0.08968474
66	0xbcb32885	-0.021869907
67	0x3c32fc30	0.010924384
68	0xbca3809f	-0.019958792
69	0xbda01ca5	-0.078179635
70	0xbcc2a57e	-0.023760553
71	0x39e952c2	0.00044502883
72	0x3dd4ff64	0.104002744
73	0x3d9c7d5b	0.07641097
74	0x3ddf1e13	0.10894408
75	0x3cfdceaa	0.030982334
76	0xbba587c1	-0.0050515835
77	0x3d3ddb93	0.04635198
78	0x3d10b5cd	0.03532963
79	0x3c5e1e4e	0.01355703
80	0x3c58d8ff	0.01323533
81	0x3b993568	0.004675556
82	0xbcc0aff6	-0.023521405
83	0xbc832dea	-0.016013104
84	0x3bd1816d	0.0063936026
85	0xbc11b9d8	-0.008894406
86	0x3c83068e	0.015994336
87	0x3d93a0af	0.07208382
88	0x3d2d80ba	0.04235909
89	0x3da7c9d4	0.081927925
90	0xbddb34fc	-0.10703465
91	0x3e10a55f	0.14125584
92	0xbc861ee5	-0.016372154
93	0xbd72ba5c	-0.059259757
94	0xbda93743	-0.082624935
95	0xbda3dc1a	-0.080009654
96	0x3e435e57	0.19078957
97	0x3df79586	0.12089066
98	0x3cbcb98a	0.02303769
99	0xbe26ac12	-0.16276577
100	0xbe205394	-0.15656883
101	0xbd8ddd16	-0.069269344
102	0xbe0ea978	-0.13931835
103	0xbdc25a7e	-0.09489916
104	0x3c498226	0.012299096
105	0xbe0fb05c	-0.1403212
106	0xbddddbfb	-0.108329736
107	0x3d098d95	0.03358229
108	0x3db29d25	0.08721379
109	0x3e126880	0.14297676
110	0xbb52788b	-0.0032115306
111	0x3dacca42	0.08437015
112	0xbd95a56f	-0.073069446
113	0x3df4cbcc	0.11952934
114	0x3e843b1c	0.25826347
115	0x3e576301	0.2103386
116	0x3e046f9e	0.12933204
117	0xbbdedd6a	-0.006801297
118	0xbe0598c3	-0.13046555
119	0x3d31a3f9	0.043369267
120	0xbc822830	-0.015888304
121	0x3dbb0683	0.091321014
122	0xbd5f5766	-0.05452671
123	0xbd47294f	-0.04862338
124	0xbe48797a	-0.1957759
125	0xbe2faa2c	-0.17154759
126	0xbcce4ac9	-0.025182145
127	0x3be445d0	0.00696633
128	0xbd049436	-0.032367907
129	0x3da0f09c	0.078583926
130	0x3d2800a9	0.041016255
131	0xbc81df6f	-0.015853612
132	0x3e071eef	0.13195394
133	0x3c56750b	0.013089429
134	0x3c87e649	0.0165893
135	0xbdbf1cb4	-0.093316466
136	0xbdd72d34	-0.10506669
137	0xbe83594b	-0.25654063
138	0xbcfba394	-0.030717649
139	0xbc6961ac	-0.014244478
140	0xbe63b796	-0.22238001
141	0x3cfea152	0.031082783
142	0xbc2e79f0	-0.010649189
143	0xbe2e21a2	-0.17005017
144	0xbe187ff0	-0.14892554
145	0x3cc44c35	0.02396212
146	0x3bda3713	0.0066593974
147	0xbd5fe01a	-0.05465708
148	0x3c453e6f	0.012038811
149	0x3e2b8834	0.16751176
150	0x3e2de475	0.1698168
151	0xbe22b4cd	-0.15889283
152	0xbdcb7460	-0.09934306
153	0xbe17da9b	-0.14829485
154	0xbb4dcb12	-0.0031401557
155	0x3cba77cd	0.022762204
156	0xbe002d2f	-0.12517236
157	0xbd2cfac3	-0.042231333
158	0x3cd21fc8	0.02564992
159	0xbe96d67d	-0.29460517
160	0xbdd5f377	-0.10446828
161	0xbd3bd3fa	-0.045856453
162	0x3da0e029	0.07855255
163	0x3c648aa1	0.013949067
164	0xbc7a52a3	-0.015278491
165	0x3d119d69	0.03555051
166	0xbc21cba8	-0.009875216
167	0xbce05e95	-0.02738885
168	0x3bf33fcb	0.007423376
169	0x3dc2efb7	0.09518378
170	0x3d97b863	0.07408216
171	0x3d4d64b2	0.05014486
172	0x3c49d489	0.012318739
173	0xbda71623	-0.08158519
174	0xbabbaf8a	-0.0014319282
175	0xbd2de24b	-0.042452138
176	0xbd83b85c	-0.06431648
177	0xbdb682de	-0.0891168
178	0x3c87954b	0.01655068
179	0x3d65396b	0.05596296
180	0x3e51c5bf	0.2048559
181	0x3e4d9be1	0.20078994
182	0x3e21a095	0.15783913
183	0xbc977529	-0.018488484
184	0xbde7d8d8	-0.113206565
185	0xbd434ad9	-0.047678802
186	0xbca58f58	-0.020209953
187	0xbd812c58	-0.06307286
188	0x3d7f2003	0.062286388
189	0xbd8ae1bf	-0.06781339
190	0x3a0b4950	0.00053133536
191	0xbcf4fa17	-0.029904408
192	0xbcafcdb2	-0.021460388
193	0xbc07799d	-0.008268741
194	0xbcd323ef	-0.02577397
195	0xbc2443ce	-0.0100259315
196	0xbd14b6f8	-0.036307305
197	0xbd81d499	-0.06339378
198	0x3b598d94	0.003319596
199	0xbe5f2709	-0.21792234
200	0x3e36e44f	0.1786053
201	0xbe3c5db9	-0.18395127
202	0xbd005be0	-0.03133762
203	0xbc475605	-0.012166505
204	0xbc9365a2	-0.017992798
205	0x3e1f44ba	0.15553561
206	0x3d2f5eb2	0.042814918
207	0xbc80f79c	-0.01574307
208	0x3dee695e	0.11641191
209	0x3e5de696	0.21669993
210	0x3d61aca3	0.05509628
211	0x3c4b7c40	0.01241976
212	0x3e9c3e74	0.30516398
213	0xbd8fe2e5	-0.070256986
214	0x3cb131ca	0.021630187
215	0x3c7a3b55	0.015272935
216	0x3d89c551	0.06727088
217	0xbe1398cb	-0.14413755
218	0x3e9f2721	0.3108454
219	0x3c96365d	0.01833647
220	0x3d99c8a2	0.07508971
221	0x3e1173c0	0.14204311
222	0xbcc381e1	-0.023865642
223	0x3ddc0f18	0.107450664
224	0x3db15ff3	0.08660879

conv2.bias f4 [5]
0	0xbe0855a3	-0.13313918
1	0xbda3ffae	-0.080077514
2	0x3dd63088	0.10458475
3	0x3ca2c586	0.019869577
4	0xbda260a9	-0.07928593

BN2.weight f4 [5]
0	0x3f99ba7b	1.2010034
1	0x3faa3242	1.3296587
2	0x3fa90c34	1.3206849
3	0x3fc39bae	1.5281885
4	0x3fbd9a45	1.4812704

BN2.bias f4 [5]
0	0x3dc62d1a	0.09676571
1	0x3dfe921d	0.12430213
2	0x3e71e42e	0.236222
3	0x3e924e31	0.2857528
4	0x3ea9e9a3	0.33186063

BN2.running_mean f4 [5]
0	0x3e30f78b	0.1728193
1	0xbc82e5f8	-0.015978798
2	0x3e54e966	0.2079216
3	0xbed60448	-0.4180014
4	0x3e5f9fe9	0.21838345

BN2.running_var f4 [5]
0	0x3ddce830	0.10786474
1	0x3d8812dc	0.06644222
2	0x3e84cdd0	0.25938272
3	0x3e45f87e	0.19333073
4	0x3ea22e6a	0.31676036

conv3.weight f4 [5, 5, 3, 3]
0	0x3bdd6c76	0.0067573143
1	0xbd8f2de7	-0.06991177
2	0xbd1050e7	-0.035233404
3	0xbdb9589b	-0.09050103
4	0xbdb729b3	-0.089435
5	0xbe13d661	-0.14437248
6	0xbe3d65ac	-0.18495816
7	0xbe204409	-0.15650953
8	0xbe5b00fd	-0.21387096
9	0x3da15b5b	0.07878753
10	0xbd0ddb6d	-0.03463309
11	0xbd6dff6e	-0.058104925
12	0xbc6a8af3	-0.014315355
13	0xbd6045e2	-0.054754145
14	0xbe20f308	-0.15717709
15	0xbdcc356d	-0.09971128
16	0xbcf69e63	-0.030104822
17	0xbe407696	-0.18795237
18	0xbcd5299c	-0.026020817
19	0xbd99f139	-0.07516713
20	0xbcd9b43b	-0.026575198
21	0xbdacad8a	-0.084315374
22	0xbe3059ed	-0.17221804
23	0xbe140abb	-0.14457218
24	0xbd87ade2	-0.066249624
25	0xbe4cc4b8	-0.19996917
26	0xbe561908	-0.20907986
27	0x3d2a7e5a	0.041624404
28	0x3d735de1	0.0594157
29	0x3d58ec22	0.05295957
30	0x3d2cbc1a	0.042171575
31	0x3dd99ead	0.10625968
32	0x3d8d7ea2	0.06908919
33	0x3bb3fe66	0.005492973
34	0x3d012f9c	0.031539544
35	0xbbf194aa	-0.0073724585
36	0xbe0d9248	-0.13825333
37	0xbe35e906	-0.17764673
38	0xbe5bf17e	-0.2147884
39	0xbdbe96dd	-0.09306119
40	0xbe1eedea	-0.15520445
41	0xbe1307b3	-0.14358406
42	0xbd07e3cd	-0.033176232
43	0xbd806a2c	-0.06270251
44	0xbda50c12	-0.08058943
45	0x3dc39f26	0.095518395
46	0x3d8dd624	0.0692561
47	0x3d8bc817	0.068252735
48	0x3e278950	0.16360974
49	0x3dbc892b	0.0920585
50	0xbcc0c619	-0.02353196
51	0xbd3f328e	-0.046679072
52	0x3dd231f1	0.10263432
53	0x3d833654	0.06406847
54	0x3e011b4f	0.12608074
55	0x3d88ee64	0.066860944
56	0x3c36f064	0.011165712
57	0x3e5964c0	0.2122984
58	0x3e37830e	0.17921087
59	0x3e5422cf	0.20716403
60	0x3e2194fc	0.1577949
61	0x3e2c96ee	0.1685445
62	0x3cf22739	0.029559718
63	0xbcfcfc5c	-0.030882053
64	0x3d12b315	0.035815317
65	0xbc125f6d	-0.008933884
66	0xbd3ffe5c	-0.046873435
67	0x3c2b9260	0.01047191
68	0x3cda7f33	0.026671981
69	0xbda07711	-0.0783521
70	0x3c61f1ae	0.013790531
71	0x3d1a2a5f	0.037638064
72	0x3d8227b8	0.06355232
73	0x3dca83a3	0.09888389
74	0xbd0da794	-0.034583643
75	0x3e00d9a7	0.12583028
76	0x3da289ad	0.07936416
77	0x3d73a948	0.05948761
78	0x3d30cc42	0.043163545
79	0x3d64e9be	0.055886976
80	0x3d2e8c96	0.042614542
81	0xbcfea118	-0.031082675
82	0xbcc71520	-0.024302065
83	0x3bbc5ea8	0.0057485886
84	0xbcb72f55	-0.022361437
85	0xbc939af4	-0.018018223
86	0xbc9b53ac	-0.018960796
87	0xbd48e518	-0.049046606
88	0xbd0bcf52	-0.034133263
89	0xbc9cf506	-0.019159805
90	0xbd093171	-0.033494417
91	0x3e1d93c5	0.15388401
92	0x3dc59c0f	0.096489064
93	0xbd2ab31d	-0.041674722
94	0x3d2030a8	0.039108902
95	0x3cf6e738	0.03013955
96	0xbb857968	-0.0040733106
97	0xbd75bde5	-0.05999555
98	0x3d57859c	0.052617654
99	0x3cdc880a	0.026920337
100	0x3d8d0006	0.0688477
101	0x3e3a7a41	0.18210699
102	0x3d9e4884	0.07728675
103	0x3d8341ca	0.06409033
104	0x3e6dd259	0.23224773
105	0x3d448cec	0.047985956
106	0x3e8f08f6	0.27936524
107	0x3ea30b31	0.31844476
108	0xbc1c545a	-0.009541595
109	0xbcb45a63	-0.022015756
110	0xbc59ac30	-0.013285682
111	0xbc9bdc93	-0.019026076
112	0x3a3f797c	0.00073041744
113	0xbb8e1de7	-0.0043370607
114	0xbd9f3727	-0.07774191
115	0xbcc44131	-0.023956867
116	0xbc132723	-0.008981499
117	0xbc15e7c4	-0.0091494955
118	0xbd3e4c9c	-0.04645978
119	0xbd188f6a	-0.037246145
120	0x3cd3174f	0.02576795
121	0x3e1853b7	0.14875685
122	0x3d2a29e6	0.041543864
123	0xbc982c04	-0.018575676
124	0x3db72b78	0.08943838
125	0x3da081a8	0.0783723
126	0x3cd03abc	0.025418632
127	0x3b309d68	0.002694929
128	0x3d0cda71	0.03438801
129	0xbd15cf7a	-0.03657482
130	0xbd44613b	-0.04794429
131	0xbd1edc75	-0.038784463
132	0xbd549f9a	-0.05191002
133	0xbd116ff3	-0.035507154
134	0xbd161440	-0.036640406
135	0xbccbad0a	-0.024862785
136	0xbdccee23	-0.100063585
137	0xbe24af46	-0.16082487
138	0x3d4a2654	0.04935296
139	0xbd1d097b	-0.03833912
140	0xbdd45813	-0.10368361
141	0xbc9d40c7	-0.019195927
142	0xbd364c24	-0.044506207
143	0xbe0ba573	-0.13637333
144	0x3d02e6c0	0.03195834
145	0xba80dd6c	-0.0009831614
146	0xbde6f8fb	-0.11277958
147	0x3d06f0eb	0.0329446
148	0x3d9135c0	0.0709033
149	0xbd9755ea	-0.07389434
150	0x3da1e6d6	0.079053566
151	0x3e2b48e6	0.16727027
152	0x3e0827a6	0.13296375
153	0xbd983c06	-0.074333236
154	0xbc57944c	-0.013157915
155	0x3c289ade	0.010290829
156	0xbdc4c066	-0.096070096
157	0xbc9271d5	-0.017876545
158	0x3b70af5b	0.0036725614
159	0xbe2ae7b5	-0.16689952
160	0xbc50b91d	-0.012739447
161	0x3c068288	0.008209832
162	0xbc4f1b26	-0.01264075
163	0x3d605838	0.054771632
164	0x3d8d08d9	0.06886453
165	0x3dc7ccd8	0.09755868
166	0x3e661263	0.22467951
167	0x3e3b4cf7	0.18291079
168	0x3dfed587	0.12443071
169	0x3e595821	0.21225025
170	0x3e5beb96	0.21476588
171	0x3d3262bd	0.043551195
172	0x3c26bd3a	0.010176951
173	0xbcf7dd0d	-0.030256772
174	0xbc7d5108	-0.015461214
175	0xbd0e0bb4	-0.03467913
176	0xbd9a0282	-0.075200096
177	0xbc72ac16	-0.014811536
178	0xbbad6f45	-0.0052928054
179	0xbd2c6837	-0.042091575
180	0x3d738e24	0.059461728
181	0x3d918549	0.071055
182	0x3d62cc20	0.05537045
183	0xbc84f3df	-0.016229568
184	0x3d23cd72	0.03999085
185	0x3d85041f	0.06494927
186	0x3dad5fad	0.08465514
187	0xbd1a2d53	-0.03764088
188	0x3d5064e1	0.050877456
189	0x3d89a833	0.067215346
190	0x3c909939	0.017651187
191	0xbbb08b12	-0.005387672
192	0xbc3b9653	-0.011449414
193	0x3cf0c468	0.029390529
194	0x3de22881	0.11042882
195	0x3de3143d	0.110878445
196	0x3e2ac7c6	0.1667777
197	0x3e416ea8	0.18889868
198	0x3c9646ec	0.018344365
199	0x3d997c3e	0.074944004
200	0x3d989f8a	0.07452305
201	0x3d742300	0.05960369
202	0x3dab4a46	0.08363776
203	0x3da08085	0.07837013
204	0x3c1351c1	0.00899166
205	0x3d34faa0	0.044184327
206	0x3cf45919	0.029827641
207	0xbcf8c83b	-0.030368915
208	0x3c1d21e6	0.009590602
209	0xbbe519ef	-0.006991617
210	0x3d2d439f	0.042300817
211	0x3a0b25ba	0.0005308051
212	0xbdade84b	-0.08491572
213	0x3d6ea9c7	0.05826738
214	0x3db271b5	0.08713094
215	0x3c8e4cc4	0.01737059
216	0x3dcc9393	0.09989085
217	0x3e2a5cc4	0.1663695
218	0x3e3f2acf	0.18668674
219	0x3df7ed69	0.12105829
220	0x3e357745	0.17721279
221	0x3e392a16	0.18082461
222	0x3e0084e2	0.12550691
223	0x3e230b94	0.15922385
224	0x3df60ec6	0.120145366

conv3.bias f4 [5]
0	0x3a3d9df4	0.00072333147
1	0x3de43eb7	0.111447744
2	0x3e00a1ef	0.12561773
3	0x3d6a4705	0.057196636
4	0xbd45263e	-0.048132174

BN3.weight f4 [5]
0	0x3fec9e10	1.8485737
1	0x3fc906c9	1.5705196
2	0x3fd236f4	1.642302
3	0x3fd7fe9f	1.6874579
4	0x3fc46d63	1.5345882

BN3.bias f4 [5]
0	0x3f22e010	0.6362314
1	0x3ea784b4	0.32718432
2	0x3ecda433	0.40164337
3	0x3ef808ba	0.48444158
4	0x3ea69135	0.3253266

BN3.running_mean f4 [5]
0	0xbeea1b7b	-0.4572409
1	0x3ecc4dd5	0.3990313
2	0x3eaeb530	0.3412261
3	0x3e4167d9	0.18887271
4	0x3ed13895	0.4086348

BN3.running_var f4 [5]
0	0x3e9e84fd	0.30960837
1	0x3e84a85d	0.259097
2	0x3e58e135	0.2117966
3	0x3e1cd978	0.15317333
4	0x3e563231	0.20917584

fc1.weight f4 [100, 405]
0	0x3e07e2bc	0.13270086
1	0x3e3379a2	0.17526868
2	0x3e75ec3d	0.24015899
3	0x3e816663	0.25273427
4	0x3dfc9aee	0.12334238
5	0xbc49788a	-0.012296805
6	0xbc6cf627	-0.014462984
7	0x3d40492f	0.046944793
8	0x3d59bfd9	0.053161476
9	0xbd2dc9ca	-0.04242877
10	0x3dacb4ca	0.0843292
11	0x3d72fd97	0.059323873
12	0x3deba96d	0.11506925
13	0xba91c522	-0.0011121372
14	0xbc8bcdd0	-0.017065912
15	0x3d4fe422	0.050754674
16	0x3c9461fb	0.018113127
17	0x3d7765af	0.060399707
18	0xbe46b94b	-0.19406621
19	0xbdbb22bb	-0.09137484
20	0x3d073b75	0.033015687
21	0xbcdab39e	-0.026696976
22	0x3bfc4d15	0.0076996186
23	0xbd15ba70	-0.036554754
24	0xbcc19ca0	-0.023634255
25	0x3c6d6461	0.014489264
26	0x3da27932	0.079332724
27	0xbe588156	-0.21143088
28	0xbe008554	-0.1255086
29	0x3bf1002e	0.0073547577
30	0x3d7bf2cb	0.061510842
31	0xbc7d61b2	-0.015465187
32	0xbd5f6d34	-0.054547504
33	0xbd451105	-0.048111934
34	0xbd08255a	-0.033238746
35	0xbc9ac6a3	-0.018893545
36	0xbe1c11be	-0.15241143
37	0xbd9e8b2e	-0.0774139
38	0xbc32e5de	-0.010919062
39	0x3de7dc53	0.113213204
40	0x3db72f14	0.08944526
41	0x3d4fa9c6	0.050699018
42	0x3d2061a8	0.039155632
43	0x3c9ca798	0.019122884
44	0x3e1649c5	0.14676578
45	0xbcb02e0e	-0.021506336
46	0x3ad54eaf	0.001627406
47	0x3bd7760b	0.006575351
48	0x3dd49a33	0.10380974
49	0x3defefd7	0.11715668
50	0x3e05b57b	0.1305751
51	0x3ba41063	0.0050068363
52	0x3d541620	0.051778913
53	0x3e10eadd	0.14152093
54	0x3cd4d591	0.025980743
55	0x3c7c7d8c	0.015410792
56	0x3d0a000e	0.03369146
57	0x3dd00884	0.10157874
58	0x3e13ab91	0.14420916
59	0x3e3e0209	0.18555464
60	0x3da52dae	0.08065353
61	0x3cda45c9	0.026644604
62	0x3d0100a9	0.03149477
63	0xbd556a49	-0.052103315
64	0xb9109805	-0.00013789542
65	0x3d906026	0.07049589
66	0x3e38c30f	0.18043159
67	0x3e57611e	0.21033141
68	0x3e1ec608	0.1550523
69	0x3d6b276e	0.05741065
70	0xbd45b764	-0.048270598
71	0xbce8eb75	-0.028432587
72	0xbd3680de	-0.04455649
73	0xbd41d7b9	-0.04732487
74	0x3e1c47da	0.15261784
75	0x3dbdac44	0.09261373
76	0x3e92ed96	0.2869689
77	0x3e724641	0.23659612
78	0x3df695e7	0.1204031
79	0x3cc93020	0.02455908
80	0x3d2ef176	0.042710744
81	0xbb32011f	-0.0027161313
82	0x3d202f3a	0.03910754
83	0x3dd31614	0.103069454
84	0x3ca69525	0.02033479
85	0x3b72968f	0.003701601
86	0x3b2f420d	0.002674225
87	0xbda53c8e	-0.080681905
88	0xbdb26634	-0.087109
89	0xbdcd2c1c	-0.10018179
90	0xbd3756d8	-0.044760555
91	0x3d5e48f0	0.054268777
92	0x3d2b2799	0.04178581
93	0x3dcf4d42	0.10122158
94	0x3c8c1b9e	0.017103013
95	0xbc32ea85	-0.010920172
96	0x3be0a469	0.0068555367
97	0xbde29d7e	-0.110651955
98	0xbd718cd8	-0.05897221
99	0xbdd3a800	-0.10334778
100	0xbd6e4901	-0.05817509
101	0x3d4a3f69	0.04937688
102	0xbb914b4e	-0.004434026
103	0x3d229d5f	0.039700862
104	0xbc8990e4	-0.016792722
105	0xbd65ab90	-0.056071818
106	0xbda71a3e	-0.08159302
107	0xbe275923	-0.16342597
108	0xbdb36720	-0.08759904
109	0xbcd68f7f	-0.026191471
110	0xbd9245fd	-0.071422555
111	0x3ccdd14d	0.025124216
112	0x3cd35fd9	0.02580254
113	0xbc1540bf	-0.009109675
114	0xbd14082a	-0.0361406
115	0xbe0b38ee	-0.13595936
116	0xbe57f425	-0.21089227
117	0xbe6e6754	-0.23281604
118	0xbdbd9856	-0.092575714
119	0xbdcb6373	-0.09931078
120	0xbd4f14cd	-0.050556947
121	0x38be63fd	9.07853e-05
122	0x3c8bcb65	0.01706476
123	0xbd2d0ff2	-0.042251535
124	0xbd33374f	-0.04375392
125	0xbe376237	-0.1790856
126	0xbe774033	-0.24145584
127	0xbe1379f9	-0.14401998
128	0xbd49fab2	-0.049311347
129	0x3d9dc0fa	0.07702823
130	0x3e173174	0.14764959
131	0x3ddd5693	0.10807528
132	0x3bd52090	0.006504126
133	0xbc8e8ee9	-0.01740213
134	0xbe122dbb	-0.14275257
135	0xbe456bde	-0.1927943
136	0xbd69cb5a	-0.057078697
137	0x3e0fb414	0.14033538
138	0x3e5fc573	0.21852665
139	0x3e6d2279	0.23157682
140	0x3e39749f	0.18110894
141	0x3d522e07	0.051313426
142	0x3d80313c	0.06259391
143	0xbde330a7	-0.11093264
144	0xbc747358	-0.014920078
145	0x3d798b6f	0.06092399
146	0x3e98f070	0.2987094
147	0x3ea68b28	0.32528043
148	0x3e7cc694	0.24685127
149	0x3e799e18	0.24376714
150	0x3dc3bf39	0.09557957
151	0x3d9411ac	0.07229933
152	0x3c964916	0.018345397
153	0x3deaecf2	0.11470975
154	0x3e81078c	0.2520107
155	0x3eaa39dd	0.3324727
156	0x3e88f8c5	0.26752296
157	0x3e1e8f4e	0.15484354
158	0x3d71117c	0.058854565
159	0x3d7391e7	0.059465315
160	0x3cb155e5	0.021647403
161	0xbd462dee	-0.048383646
162	0xbaf77f78	-0.0018882593
163	0x3da7cd3c	0.08193442
164	0x3e136418	0.14393651
165	0x3d541077	0.051773515
166	0x3d131ee7	0.035918143
167	0x3d23bcd2	0.039974995
168	0xbd61ec82	-0.055157192
169	0xbd482d7d	-0.048871506
170	0xbdd8461e	-0.10560249
171	0x3d18bf3b	0.037291747
172	0xbb9ed498	-0.0048471205
173	0x3da16f11	0.07882512
174	0xbc1e26c6	-0.009652799
175	0xbd364932	-0.0445034
176	0xbd47d704	-0.04878904
177	0xbdec63df	-0.115424864
178	0xbd586624	-0.052831784
179	0xbddf3f54	-0.10900751
180	0xbdaf7b06	-0.08568387
181	0x3cbdb2db	0.023156574
182	0x3d4d1f90	0.05007893
183	0x3d4190b0	0.047257125
184	0x3d4aa618	0.049474806
185	0xbc2b0857	-0.010439
186	0xbdbcf9be	-0.09227322
187	0xbda0d013	-0.07852187
188	0xbe0c1b57	-0.13682304
189	0xbe0ba85f	-0.13638447
190	0xbdac6f25	-0.08419637
191	0xbd6b6b0d	-0.05747514
192	0x3d32a314	0.043612555
193	0xbc728d84	-0.014804248
194	0x3d35f918	0.044427007
195	0xbc8cd8fd	-0.017193312
196	0xbdeef68d	-0.116681196
197	0xbe6a7a27	-0.2289816
198	0xbe3e99fe	-0.18613431
199	0xbe075e05	-0.1321946
200	0xbd36cdfa	-0.04463003
201	0xbc453071	-0.012035475
202	0x3da13ba0	0.07872701
203	0xbcc50ec7	-0.024054898
204	0xbd7f3a60	-0.06231153
205	0xbd7b099d	-0.061288465
206	0xbe669f90	-0.22521806
207	0xbe2a89b2	-0.16654089
208	0xbdd13e31	-0.1021694
209	0xbb4c83af	-0.003120642
210	0x3dcd1ad8	0.10014886
211	0x3e151e64	0.14562374
212	0x3d939f69	0.072081394
213	0x3ced253e	0.028948423
214	0xbc385eba	-0.011253053
215	0xbe6b4220	-0.22974443
216	0xbdc10008	-0.09423834
217	0x3b5ec3fd	0.003399133
218	0x3e0eede6	0.13957939
219	0x3e40ca30	0.18827128
220	0x3e9e6e71	0.30943635
221	0x3dedaa81	0.11604787
222	0x3de684b6	0.11255781
223	0xbd4b8319	-0.04968557
224	0xbdd530c8	-0.10409695
225	0x3d797acf	0.060908135
226	0x3e3313b9	0.17487992
227	0x3eaac812	0.33355767
228	0x3e912387	0.28347418
229	0x3e68da73	0.22739582
230	0x3e6055aa	0.21907678
231	0x3e0b4638	0.13601005
232	0x3a3fe432	0.00073200755
233	0xbd12de05	-0.035856266
234	0x3e2192d7	0.15778671
235	0x3e8e3741	0.2777653
236	0x3eb2e7ea	0.3494256
237	0x3e8beaf7	0.273277
238	0x3dc97e6e	0.09838568
239	0x3df86a64	0.121296674
240	0x3d21e314	0.0395232
241	0xbb31d312	-0.0027133864
242	0xbe126ff7	-0.14300524
243	0xbd22995d	-0.03969704
244	0x3de97ccc	0.11400756
245	0x3df069c3	0.117389224
246	0xbd0c0778	-0.03418681
247	0x3d2a73ca	0.04161433
248	0x3cf35ac5	0.029706368
249	0x3d41092e	0.047127895
250	0xbc2f016b	-0.01068149
251	0xbdea518f	-0.11441337
252	0xbdb3f8c8	-0.08787686
253	0x3bb19df9	0.005420443
254	0x3d6382d2	0.05554468
255	0xbb03edd9	-0.0020130782

fc1.bias f4 [100]
0	0x3dca8e66	0.098904416
1	0xbdc79e99	-0.09747047
2	0xbe09ddca	-0.13463512
3	0xbd89f3cb	-0.06735953
4	0xbe25a232	-0.16175154
5	0x3e41d20e	0.18927786
6	0x3c1b7e43	0.009490552
7	0xbdf9e33c	-0.12201545
8	0x3e979967	0.29609224
9	0xbcf6bd5c	-0.03011959
10	0x3dd62221	0.10455728
11	0xbe542a62	-0.20719293
12	0x3e2f8aeb	0.17142837
13	0xbda81977	-0.08207982
14	0xbbeb05fb	-0.007172344
15	0x3e992845	0.29913536
16	0xbd7501b8	-0.059816092
17	0x3ca7822d	0.020447815
18	0x3d6f7131	0.058457557
19	0x3d21b192	0.039475985
20	0xbe033ec3	-0.1281691
21	0xbc0e3dbe	-0.008681713
22	0xbd89a498	-0.06720847
23	0x3e1cbc38	0.15306175
24	0x3dd814d4	0.10550848
25	0x3e60fd66	0.21971664
26	0xbd831a08	-0.064014494
27	0xbdfb5cc2	-0.122735515
28	0xbd1feb55	-0.03904279
29	0x3ee16b43	0.44027147
30	0xbca2ffee	-0.019897427
31	0x3e14ae2f	0.14519571
32	0xbdb72b6f	-0.08943831
33	0xbe171df3	-0.14757518
34	0x3d9d049d	0.076668955
35	0xbbf9bcdd	-0.007621391
36	0x3d98cd96	0.074610874
37	0xbd5e18ec	-0.054222986
38	0x3da4766b	0.08030399
39	0xbe368053	-0.1782239
40	0xbe008c13	-0.12553434
41	0x3d9073cb	0.07053336
42	0x3c45a36b	0.012062888
43	0xbe18ddcc	-0.14928359
44	0xbd86fc51	-0.06591094
45	0x3e031b93	0.12803487
46	0xbd4f3ab0	-0.050593078
47	0x3d255ecc	0.04037361
48	0xbca37b04	-0.01995612
49	0xbcce1927	-0.025158478
50	0xbc557c21	-0.013030083
51	0x3b5799b2	0.0032898006
52	0xbe111e28	-0.1417166
53	0xbce93449	-0.028467314
54	0x3e7d76c5	0.24752338
55	0x3da1e9bc	0.079059094
56	0xbd078724	-0.033087865
57	0xbc9733e6	-0.018457364
58	0xbc196133	-0.009361553
59	0x3c74175b	0.0148981465
60	0xbdc793b2	-0.097449675
61	0xbd2019cb	-0.039087098
62	0xbd017eb3	-0.03161497
63	0x3d0fc3dd	0.0350989
64	0x3db6cec5	0.08926157
65	0x3da257e3	0.07926919
66	0xbd97bebd	-0.07409427
67	0x3e84dac6	0.2594816
68	0xbe127f27	-0.14306317
69	0x3c99535d	0.018716509
70	0xbdb294e2	-0.087198034
71	0x3da9d299	0.082921214
72	0xbdf44284	-0.11926749
73	0x3e1af847	0.15133773
74	0x3ded3df3	0.115840815
75	0x3e320d3c	0.17387861
76	0xbcbd8c0f	-0.023138074
77	0x3e267efe	0.16259381
78	0x3c69e22b	0.014275114
79	0xbd839041	-0.064239986
80	0x3e7b1446	0.24519452
81	0xbdad7e3c	-0.08471343
82	0xbe16b73a	-0.14718333
83	0xbdd8dcc6	-0.10588984
84	0x3e02b5d9	0.12764682
85	0xbbc55f31	-0.0060233106
86	0x3e4f886e	0.20266888
87	0x3e690918	0.22757375
88	0xbd535a63	-0.05159987
89	0xbd20c278	-0.03924796
90	0x3e7b9660	0.24569082
91	0xbcc9987b	-0.024608841
92	0xbdb74d99	-0.089503475
93	0x3f070b86	0.5275196
94	0x3dbc416d	0.091921665
95	0xbe1b094c	-0.15140265
96	0xbe0dbdbb	-0.13841908
97	0x3e47934f	0.19489788
98	0x3e1f7127	0.15570508
99	0x3c1515c4	0.009099428

fc2.weight f4 [10, 100]
0	0x3d624a05	0.05524637
1	0x3d7b101f	0.06129467
2	0xbe9b4e49	-0.30333164
3	0x3d86fcff	0.06591224
4	0xbe55a056	-0.20861945
5	0x3d785904	0.060631767
6	0xbefd2223	-0.49440107
7	0x3dd6f68b	0.10496243
8	0x3e968971	0.29401734
9	0xbea08727	-0.31353113
10	0x3c140259	0.009033763
11	0xbe2c283d	-0.16812225
12	0x3eb3e944	0.35138905
13	0xbe71c3bf	-0.23609827
14	0xbe3dfe6b	-0.18554084
15	0x3e019075	0.12652762
16	0xbceabc93	-0.028654372
17	0x3e371d5a	0.1788229
18	0x3d6ea162	0.058259375
19	0x3de5ace3	0.11214616
20	0xbe960fbd	-0.29308882
21	0xbed98250	-0.42482233
22	0xbe938dec	-0.28819215
23	0x3dabf5f9	0.08396525
24	0x3e148e22	0.14507344
25	0x3dc13bdb	0.09435245
26	0xbe067a3c	-0.13132566
27	0xbe846df3	-0.25865135
28	0xbf136437	-0.5757479
29	0x3ebd98b7	0.37030575
30	0xbead8320	-0.33889103
31	0x3e6c39c5	0.23068912
32	0xbda2b43a	-0.07944532
33	0xbd70e8c0	-0.058815718
34	0x3d4ffb94	0.050777033
35	0x3ce63bc4	0.02810467
36	0x3d8eb89a	0.06968804
37	0x3c36944f	0.011143758
38	0x3eaff450	0.34366083
39	0xbeacb820	-0.33734226
40	0xbe07cda7	-0.13262044
41	0x3dcf6b06	0.10127835
42	0x3e624ee6	0.2210041
43	0xbecff096	-0.4061324
44	0xbefd14f2	-0.49430043
45	0xbdb80c9f	-0.08986782
46	0x3e9dcb15	0.30819002
47	0xbe4a94b6	-0.19783291
48	0x3e177a73	0.14792804
49	0xbc26a644	-0.010171477
50	0x3dc3dbf8	0.0956344
51	0xbd54b6e7	-0.05193224
52	0x3b27ebf1	0.002562281
53	0xbcf7557d	-0.030192131
54	0xbe9dfa0b	-0.3085483
55	0x3e2c97e0	0.1685481
56	0xbd527de7	-0.0513896
57	0x3dcbce0f	0.09951412
58	0xbf1b458e	-0.6065301
59	0xbe237f3e	-0.15966508
60	0xbe47a818	-0.19497716
61	0xbf0dbbbb	-0.5536458
62	0xbe7c7958	-0.24655664
63	0xbdc33f5b	-0.095335685
64	0xbe138096	-0.1440452
65	0xbe1f14e3	-0.15535311
66	0x3d5a6f94	0.053329065
67	0xbe0ac6ca	-0.13552395
68	0xbe454597	-0.19264828
69	0xbe47fbc0	-0.19529629
70	0xbdb9477d	-0.090468384
71	0x3ce85e22	0.028365199
72	0xbeb91279	-0.36146906
73	0x3e1de6b2	0.15420035
74	0xbe06bd67	-0.13158189
75	0x3db4b934	0.08824387
76	0xbe4b37f5	-0.19845565
77	0xbddee30e	-0.10883151
78	0xbe4ed085	-0.20196731
79	0xbe8cc3fa	-0.27493268
80	0xbd628292	-0.055300303
81	0xbdc61544	-0.09672025
82	0xbe37ceec	-0.17950028
83	0x3d1c40ab	0.03814761
84	0xbdffa877	-0.12483304
85	0xbe00d56f	-0.12581418
86	0xbdff1bdf	-0.12456488
87	0x3e708b56	0.23490652
88	0x3c02d03d	0.007984218
89	0xbdbf81ad	-0.093509056
90	0x3d0d98af	0.03456944
91	0xbdff690e	-0.124712095
92	0x3da3e317	0.08002298
93	0x3e65088b	0.2236654
94	0xbea06cd2	-0.31333023
95	0xbe9aae3b	-0.30211052
96	0xbef730fb	-0.48279557
97	0x3e0e477f	0.13894461
98	0x3e5bf062	0.21478418
99	0xbee3f73d	-0.44524565
100	0x3d01d5f7	0.031698193
101	0xbef21e66	-0.47288817
102	0xbcca62ea	-0.024705369
103	0xbeb17a93	-0.3466383
104	0xbe93aa18	-0.2884071
105	0xbd81d76e	-0.06339918
106	0x3e00f5cc	0.12593764
107	0x3da45650	0.08024275
108	0x3d394a33	0.045236778
109	0xbb4efabc	-0.0031582555
110	0x3d477f40	0.04870534
111	0xbf041ce5	-0.5160659
112	0xbe08c78b	-0.1335737
113	0x3a82ba7f	0.0009973793
114	0xbeae47a0	-0.3403902
115	0x3dd472b9	0.10373444
116	0xbe288768	-0.16457903
117	0xbe1b9287	-0.15192614
118	0xbbd9ccb8	-0.006646719
119	0xbd16896a	-0.036752142
120	0x3e48905d	0.1958632
121	0x3cb1e57c	0.021715872
122	0xbe55d4ec	-0.20882004
123	0xbe076443	-0.1322184
124	0x3d7bdd01	0.061490063
125	0x3de0ab94	0.10970226
126	0x3e672b34	0.22575074
127	0xbe14200c	-0.1446535
128	0xbdb1b200	-0.08676529
129	0x3e9fcff8	0.31213355
130	0x3e09113e	0.13385484
131	0xbe8e580f	-0.27801558
132	0x3c19c5f8	0.009385578
133	0xbe3f06d5	-0.1865495
134	0xbea74b84	-0.326748
135	0xbf253d44	-0.6454661
136	0xbece7d5d	-0.4033002
137	0xbe4591ad	-0.19293852
138	0xbecd9c05	-0.40158096
139	0xbe80cf8c	-0.25158346
140	0xbf11131c	-0.56669784
141	0xbecca06f	-0.3996615
142	0xbdbbb873	-0.0916604
143	0xbec078d3	-0.37592182
144	0xbe8fce5f	-0.28087136
145	0x3e7b2d0f	0.24528907
146	0xbda167bf	-0.07881116
147	0xbe35150b	-0.17683809
148	0xbb24a6cb	-0.002512383
149	0xbe38851b	-0.18019526
150	0x3e0fa226	0.14026698
151	0xbbcd8f19	-0.006273162
152	0xbe40921f	-0.18805741
153	0xbd6f3547	-0.05840042
154	0x3e4eab1f	0.20182465
155	0xbe131591	-0.14363696
156	0xbd8b6715	-0.06806771
157	0x3df5cc27	0.120018296
158	0x3d1b3fc0	0.037902594
159	0x3ce42e8d	0.027854228
160	0xbe2cb0c3	-0.16864304
161	0x3ae40ad8	0.0017398251
162	0x3c672a0d	0.014109147
163	0xbe82fed0	-0.25585032
164	0x3eb45cab	0.3522695
165	0x3e9bb251	0.30409482
166	0x3e029f82	0.1275616
167	0x3eb6bcb9	0.3569086
168	0xbefd2a0f	-0.4944615
169	0xbe4a087d	-0.197298
170	0xbf1feffd	-0.6247557
171	0xbda16099	-0.07879753
172	0xbe796a34	-0.2435692
173	0xbefb8332	-0.49123532
174	0x3e4ca832	0.19986036
175	0xbefca284	-0.4934274
176	0xbda6cb89	-0.0814429
177	0x3ddc40f5	0.10754577
178	0x3e269687	0.16268359
179	0xbd807712	-0.06272711
180	0x3e8bda2b	0.27314886
181	0x3e14abf3	0.14518718
182	0xbebb81a0	-0.36622334
183	0xbda32347	-0.07965713
184	0xbcc0a64d	-0.023516798
185	0x3c1c48c5	0.009538834
186	0x3d9e1a83	0.077199005
187	0x3ac70035	0.0015182557
188	0xbeb4d890	-0.35321474
189	0xbef70ec0	-0.4825344
190	0x3d5e3731	0.054251853
191	0x3df91dc3	0.1216388
192	0xbe3d3d93	-0.1848052
193	0x3ec7a4cc	0.38992918
194	0x3e13c1f2	0.14429453
195	0x3eaedb78	0.34151816
196	0xbe1d3165	-0.15350874
197	0xbeff5fee	-0.49877876
198	0xbdc15b7a	-0.09441276
199	0x3e58f31d	0.2118649
200	0x3e275aa6	0.16343173
201	0x3d1b859b	0.037969213
202	0xbe6a24aa	-0.22865549
203	0xbe81b433	-0.25332794
204	0xbd91bf45	-0.0711656
205	0xbe9677a2	-0.29388148
206	0x3dd508d6	0.10402076
207	0xbef121eb	-0.4709619
208	0xbd11d2cc	-0.035601422
209	0x3dd42228	0.10358077
210	0x3e28dd2f	0.16490625
211	0xbdb555a7	-0.088542275
212	0x3dcd8a72	0.10036172
213	0xbd9686d3	-0.073499344
214	0xbe3e9487	-0.18611346
215	0xbf378e5f	-0.71701616
216	0xbe8f18ee	-0.27948707
217	0x3d91640d	0.07099161
218	0x3d76ecc6	0.0602844
219	0xbef3f20d	-0.47645608
220	0xbea7bd1a	-0.3276146
221	0x3d8970da	0.06710978
222	0xbcf5b238	-0.029992208
223	0x3e196c79	0.14982785
224	0x3ce188c9	0.027531045
225	0xbf12b76d	-0.57311136
226	0xbf0d39ce	-0.5516633
227	0xbe692698	-0.22768629
228	0x3be26da8	0.0069100447
229	0x3d958436	0.07300608
230	0xbdd7bad9	-0.10533685
231	0xbd80bb6e	-0.062857494
232	0xbe0cc352	-0.13746384
233	0xbe2d5ec1	-0.16930677
234	0xbe24652f	-0.16054223
235	0xbe5541ad	-0.20825835
236	0xbe983e7d	-0.29735175
237	0x3e1d6254	0.1536954
238	0x3d9ae677	0.07563489
239	0x3b064a50	0.002049107
240	0x3d8759f1	0.06608952
241	0xbe0297b3	-0.12753181
242	0xbc9d6ef7	-0.019217951
243	0xbd859cda	-0.06524058
244	0x3e95dbce	0.2926926
245	0xbea0e6e9	-0.3142617
246	0xbeb1496c	-0.3462633
247	0x3e8433ab	0.2582067
248	0xbe77a122	-0.24182561
249	0xbd5f8ba2	-0.054576524
250	0xbecd1917	-0.40058205
251	0xbdb6861f	-0.089123
252	0xbe91277a	-0.2835043
253	0xbe8021aa	-0.25025684
254	0x3dbeb2de	0.0931146
255	0xbed3ce02	-0.4136811

fc2.bias f4 [10]
0	0x3e93a1dc	0.28834426
1	0x3ead0e7c	0.33800113
2	0x3e06ebc3	0.13175873
3	0xbceb0f37	-0.028693778
4	0xbdee25a2	-0.11628272
5	0xbdcfa324	-0.101385385
6	0x3bd0eb70	0.0063757226
7	0xba88e9a5	-0.0010445608
8	0xbc0adb47	-0.008475131
9	0x3b8893e2	0.0041680196
