LiDAR_NET_Pre_trained_model/ckpt_epoch_68_val_loss_1.461150.pth (torch, 176610 bytes, 22 tensors)

conv1.weight f4 [5, 1, 5, 5]
0	0xbda6700b	-0.08126839
1	0xbdec0466	-0.115242764
2	0xbe3cf455	-0.1845258
3	0x3e42530d	0.18976994
4	0x3deb5a93	0.11491885
5	0x3e474314	0.19459182
6	0x3e401058	0.18756235
7	0x3dc0c481	0.0941248
8	0x3d96000c	0.07324228
9	0x3e7ac919	0.24490775
10	0xbd9c65ae	-0.07636581
11	0xbc5151b2	-0.012775825
12	0xbe7f4a83	-0.24930768
13	0xbe4dce6f	-0.2009828
14	0x3bcfc644	0.006340774
15	0xbd18df4d	-0.03732233
16	0x3e097931	0.13425137
17	0x3d326406	0.04355242
18	0xbe1a3abc	-0.15061468
19	0xbd564adb	-0.05231748
20	0xbbc5ac52	-0.006032505
21	0x3e23ed5e	0.16008517
22	0x3d880ca8	0.06643039
23	0x3d718dbf	0.05897307
24	0x3e36293a	0.17789164
25	0x3ceb96fb	0.028758517
26	0x3e6376f7	0.2221335
27	0xbcdb5288	-0.026772752
28	0xbd7865d8	-0.060644
29	0x3d88140a	0.06644447
30	0x3d7b1bb2	0.06130571
31	0xbd551ef0	-0.052031457
32	0xbdc558bd	-0.09636066
33	0xbe66280c	-0.22476214
34	0xbe39d630	-0.18148112
35	0x3da791fc	0.08182141
36	0x3d721221	0.05909932
37	0xbd43082d	-0.04761522
38	0xbecc91de	-0.39955038
39	0x3d0a2552	0.033726998
40	0xbda6b762	-0.08140446
41	0xbe3ce368	-0.18446124
42	0xbd46a23a	-0.048494555
43	0xbe842e8d	-0.25816765
44	0xbd2601fc	-0.040529236
45	0x3e03825d	0.12842698
46	0xbd8eed98	-0.06978911
47	0xbc2842b0	-0.010269806
48	0xbe94ae0d	-0.2903904
49	0x3ddc33c5	0.10752062
50	0xbe421c94	-0.18956214
51	0x3d9201cb	0.07129248
52	0x3dbbd7b0	0.091719985
53	0x3e3231cc	0.17401809
54	0x3e49e832	0.19717482
55	0xbdd5ee36	-0.10445826
56	0x3d094db8	0.033521384
57	0xbcc4e429	-0.024034576
58	0xbe0bbb7d	-0.1364574
59	0xbdbdf2ac	-0.092748016
60	0xbe673bd5	-0.22581418
61	0xbdc0393c	-0.093859166
62	0x3dc7f3bf	0.09763288
63	0x3e1ffcd1	0.15623786
64	0x3d3d011b	0.046143632
65	0xbd789257	-0.060686436
66	0x3d8ec153	0.069704674
67	0x3c33bac2	0.0109698195
68	0x3d425062	0.04743994
69	0x3ddbfa4e	0.10741101
70	0xbe19566b	-0.14974372
71	0xbe135f4a	-0.14391819
72	0xbc94fe44	-0.01818765
73	0xbdea951e	-0.11454223
74	0xbe8ce370	-0.2751727
75	0xbe393311	-0.18085887
76	0xbd1e1294	-0.038591936
77	0xbe211db0	-0.15733981
78	0x3d29262c	0.04129617
79	0x3e1f9243	0.15583138
80	0xbe00c1c6	-0.12573919
81	0xbdca8646	-0.09888892
82	0xbe21ed93	-0.15813284
83	0xbe6e2b9c	-0.23258823
84	0x3e3f675a	0.18691769
85	0x3ca3d9f9	0.020001398
86	0xbe4ba7ed	-0.19888277
87	0xbdffef01	-0.12496758
88	0xbe59634b	-0.21229284
89	0x3e3ee034	0.18640214
90	0x3e145aad	0.14487715
91	0x3b40bf7f	0.0029411016
92	0x3e2e8310	0.17042184
93	0x3e07a81f	0.13247727
94	0x3bdbd487	0.006708685
95	0xbe24eda1	-0.16106273
96	0x3db1bf5c	0.08679077
97	0x3d3bd122	0.04585374
98	0xbd7aca62	-0.061228164
99	0x3e577788	0.21041691
100	0x3dc51b2b	0.096243225
101	0xbd45f8ea	-0.048333086
102	0x3b79eec4	0.00381367
103	0x3bda9d04	0.0066715498
104	0xbdb0b9ed	-0.086292125
105	0xbe65a0eb	-0.22424667
106	0xbded0ef8	-0.11575121
107	0x3e200541	0.15627004
108	0xbe326788	-0.17422307
109	0x3cc3aca7	0.023886038
110	0xbe6952d7	-0.22785507
111	0x3d3700a4	0.044678345
112	0x3c47b2b3	0.012188601
113	0xbe736c07	-0.23771678
114	0xbe4d1c6c	-0.20030373
115	0xbe57c1c6	-0.21070012
116	0xbe172781	-0.14761163
117	0x3b8898a6	0.0041685877
118	0xbe3468b4	-0.17618066
119	0x3c85e25e	0.016343292
120	0xbe0b4183	-0.1359921
121	0x3df7c321	0.12097765
122	0x3e0e7f27	0.13915692
123	0xbe217132	-0.15765837
124	0xbe1c4a77	-0.15262781

conv1.bias f4 [5]
0	0xbe266a8d	-0.16251583
1	0xbdcbb7a5	-0.09947137
2	0x3c96621c	0.01835733
3	0xbd25b7ee	-0.040458612
4	0xbd918646	-0.07105689

bn1.weight f4 [5]
0	0x3f81fd2a	1.0155385
1	0x3f7a456b	0.97762173
2	0x3f7e0815	0.9923108
3	0x3f782da1	0.96944624
4	0x3f868a11	1.0510885

bn1.bias f4 [5]
0	0xbe4a9635	-0.19783862
1	0xbdb7c0f7	-0.08972352
2	0xbdc4c0ef	-0.09607112
3	0xbc5c7e9a	-0.013457919
4	0x3d14abd5	0.036296684

bn1.running_mean f4 [5]
0	0x3d09de28	0.03365913
1	0xbf0cd440	-0.5501137
2	0xbe359e6e	-0.17736217
3	0xbe095f3f	-0.1341524
4	0xbf22ee5b	-0.6364495

bn1.running_var f4 [5]
0	0x3cad3e26	0.021147799
1	0x3e192d6c	0.14958733
2	0x3d1fa09c	0.03897153
3	0x3d130cd7	0.035900917
4	0x3e3c2444	0.18373209

conv2.weight f4 [5, 5, 3, 3]
0	0x3da49c1e	0.080375895
1	0x3e06770d	0.13131352
2	0x3e3f0d0a	0.18657318
3	0xbe393ba6	-0.1808916
4	0x3dcfc235	0.10144464
5	0xbdeb3959	-0.114855476
6	0xbe64e125	-0.22351511
7	0x3daf450f	0.08558094
8	0xbe179471	-0.1480272
9	0xbdad8e44	-0.08474401
10	0x3d52de18	0.051481336
11	0xbde5c438	-0.112190664
12	0x3c6e96e5	0.014562343
13	0xbe455241	-0.19269659
14	0xbdecc1a0	-0.115603685
15	0xbe29cb6d	-0.16581507
16	0x3ca2188a	0.019787092
17	0x3d2b07ad	0.041755367
18	0xbdba209e	-0.090882525
19	0xbc62239a	-0.013802433
20	0x3c126b25	0.008936678
21	0xbd9abde4	-0.0755575
22	0xbe29a188	-0.16565526
23	0xbd8448ac	-0.064591736
24	0x3db6816a	0.089114025
25	0xbe089781	-0.13339044
26	0x3ded744f	0.1159445
27	0xbd3d745a	-0.04625354
28	0xbc5f354b	-0.013623546
29	0xbd8f9caf	-0.07012307
30	0x3d9c2688	0.07624537
31	0x3e23fb4a	0.16013828
32	0xbc5b5713	-0.013387459
33	0xbe45d4fe	-0.19319531
34	0xbd1c081f	-0.038093682
35	0xbc476aad	-0.01217143
36	0x3d871c81	0.065972336
37	0x3c267d5b	0.010161723
38	0xbd4c47c4	-0.04987313
39	0xbdb278e2	-0.08714463
40	0x3e051e01	0.12999727
41	0x3b93bc41	0.0045085256
42	0xbc284549	-0.010270425
43	0xbdb88049	-0.090088435
44	0x3dd11a1a	0.102100566
45	0x3d16f9c4	0.03685929
46	0xbc85f383	-0.016351467
47	0xbbd3660d	-0.0064513744
48	0xbd378f2d	-0.044814277
49	0xbdc1c6d7	-0.09461754
50	0x3dee8a68	0.11647493
51	0xbe14d784	-0.14535338
52	0xbdb09dce	-0.08623849
53	0xbdbdbbe6	-0.092643544
54	0xbdd2bc68	-0.10289842
55	0x3e5cceb7	0.2156323
56	0x3d57f839	0.052726958
57	0xbd827c48	-0.06371361
58	0x3c313894	0.010816712
59	0x3e5f2a3b	0.21793453
60	0xbe082cf9	-0.13298406
61	0x3de7562a	0.11295731
62	0x3d6b9852	0.05751831
63	0x3dd6261c	0.104564875
64	0xbca73b0f	-0.020413904
65	0xbdd02484	-0.10163215
66	0xbe058d4a	-0.13042179
67	0x3df94553	0.12171426
68	0xbd937c29	-0.07201416
69	0xbca7e671	-0.020495625
70	0xbdbf874b	-0.09351977
71	0xbd49fc9f	-0.049313184
72	0x3cd9fbf0	0.026609391
73	0x3e186529	0.1488234
74	0xbddf5c3f	-0.109062664
75	0x3b5a0515	0.003326719
76	0x3e456315	0.19276078
77	0x3e1afb38	0.15134895
78	0x3d5aa39b	0.053378683
79	0x3e22824a	0.15870014
80	0x3cf6d9a4	0.030133076
81	0x3e1ff21e	0.15619704
82	0x3deaae3a	0.11459012
83	0x3e00858c	0.12550944
84	0x3d8cdd80	0.06878185
85	0x3df52efa	0.11971851
86	0xbda0402a	-0.07824738
87	0xbe00811d	-0.12549253
88	0x3d468a70	0.048471868
89	0xbdc28cae	-0.09499489
90	0x3dc4b9fa	0.09605785
91	0x3d3d93a8	0.046283394
92	0xbde3fff7	-0.11132806
93	0xbd9e4f79	-0.07730002
94	0xbd3e8fdd	-0.046523917
95	0x3d3c19c6	0.045923017
96	0x3dd7662e	0.10517536
97	0x3cf131c9	0.029442685
98	0xbd022484	-0.031773105
99	0xbbf2261b	-0.0073897964
100	0xbdb5008c	-0.08837995
101	0xbe1a5776	-0.15072426
102	0xbe610152	-0.2197316
103	0xbe2e1d6d	-0.17003413
104	0xbd0c42ab	-0.034243267
105	0xbe1afa29	-0.15134491
106	0xbe43d8c5	-0.1912566
107	0xbda4a8f6	-0.08040039
108	0xbe33c18a	-0.17554298
109	0xbe2f04cc	-0.17091674
110	0xbe8c2db6	-0.27378625
111	0xbe899a87	-0.26875708
112	0xbe93b525	-0.2884914
113	0xbc8cae79	-0.017173039
114	0xbd7f4ec0	-0.06233096
115	0xbd9649bd	-0.07338283
116	0xbd16677b	-0.03671978
117	0xbdc482c6	-0.095952556
118	0x3e4ee39d	0.20204015
119	0x3dd8de7d	0.10589311
120	0xb9150881	-0.00014212915
121	0x3d8c6cab	0.06856664
122	0xbc358c1d	-0.011080769
123	0xbdd22e53	-0.10262742
124	0x3ccc10fe	0.024910446
125	0xbd5f42e0	-0.054507136
126	0x3d99ef8f	0.07516395
127	0x3e03c8cf	0.12869571
128	0x3dabce36	0.08388941
129	0x3dc17b9f	0.09447407
130	0x3e270a9e	0.16312644
131	0xbddb861a	-0.10718937
132	0xbd59bec6	-0.05316045
133	0xbdfde70f	-0.123975866
134	0xbde239dc	-0.11046192
135	0x3e3e7713	0.1860011
136	0xbd3eadb6	-0.046552382
137	0x3d5bbba1	0.053645734
138	0xbd8e0d27	-0.06936102
139	0x3b9e5cea	0.0048328536
140	0xbdf8a0c1	-0.121400364
141	0x3d721586	0.059102558
142	0x3d893fca	0.0670162
143	0x3e11bac6	0.14231405
144	0xbdeec7e4	-0.1165922
145	0x3e063f7f	0.1311016
146	0x3ddbdbca	0.10735281
147	0xbce4e673	-0.027941918
148	0x3e0580b9	0.13037385
149	0x3e157259	0.14594401
150	0x3e3462fc	0.17615885
151	0xb9500715	-0.00019839064
152	0xbbca87e1	-0.006180749
153	0xbce678fc	-0.028133862
154	0xbe058ffd	-0.13043208
155	0xbce99aff	-0.02851629
156	0x3e012feb	0.12615936
157	0x3dc5b783	0.09654143
158	0x3e09efac	0.13470334
159	0x3d49d59b	0.049275976
160	0x3d2a76d6	0.041617237
161	0x3df146b4	0.11781064
162	0x3b9cbcb2	0.0047832364
163	0xbd96e9df	-0.07368826
164	0xbc8c4d90	-0.017126828
165	0xbe143dfe	-0.14476773
166	0xbe3c1711	-0.18368174
167	0x3cc005b9	0.023440229
168	0xbd130df8	-0.035901994
169	0xbe49ab10	-0.19694161
170	0x3db184b2	0.08667888
171	0x3e2b6d0e	0.1674082
172	0xbd2c8870	-0.042122304
173	0x3d0c8596	0.034307085
174	0x3c1e5087	0.009662754
175	0x3c61d1f9	0.013782972
176	0xbce11644	-0.027476437
177	0x3e411fab	0.18859737
178	0x3e8bd066	0.27307433
179	0x3e4793cb	0.19489972
180	0x3cf807f4	0.03027723
181	0xbdd62fd7	-0.104583435
182	0xbd03417b	-0.03204487
183	0xba333929	-0.00068368256
184	0x3db5e5e7	0.08881741
185	0xbcedb4d1	-0.029016884
186	0x3e45261c	0.19252819
187	0x3e5e62b7	0.21717344
188	0x3d2e1bdc	0.042507038
189	0xbd9084f1	-0.070566066
190	0xbe0c7aba	-0.13718691
191	0x3daade15	0.0834314
192	0xbd45319c	-0.048143014
193	0x3c96641e	0.018358286
194	0x3d894031	0.06701697
195	0xbddfe9b8	-0.1093325
196	0x3d8efe71	0.069821246
197	0x3b413310	0.0029479899
198	0x3df506f2	0.11964215
199	0xbde4423c	-0.11145446
200	0xbcbf7a88	-0.023373857
201	0xbc1b9487	-0.009495861
202	0xbe1ba540	-0.15199757
203	0x3bc82cba	0.0061088474
204	0x3cc6f127	0.024284912
205	0xbd8603a9	-0.06543667
206	0xbdebf915	-0.11522118
207	0x3d00ee48	0.031477243
208	0xbdd31cb2	-0.103082076
209	0xbde66039	-0.11248822
210	0x3d933b53	0.071890496
211	0xbdb5045e	-0.088387236
212	0xbe44d608	-0.19222271
213	0xbdd5e0db	-0.104432784
214	0x3d9f7cbb	0.07787462
215	0xbe51254d	-0.20424385
216	0xbe41dcaf	-0.1893184
217	0x3da96419	0.08271045
218	0x3e4f7b33	0.2026184
219	0x3d8a4356	0.067511246
220	0x3d4efb0b	0.050532382
221	0x3dec0c39	0.11525769
222	0xbe328a8d	-0.17435665
223	0x3c704a30	0.014666125
224	0x3caf7dfa	0.021422375

conv2.bias f4 [5]
0	0xbcf00c1c	-0.02930265
1	0xbdd9f6e1	-0.106427915
2	0x3da365e9	0.07978422
3	0xbdcde7dc	-0.10053989
4	0xbdcc0a07	-0.0996285

bn2.weight f4 [5]
0	0x3f806c51	1.0033056
1	0x3f791914	0.9730389
2	0x3f82dece	1.0224245
3	0x3f725ede	0.94676006
4	0x3f85ebb2	1.0462554

bn2.bias f4 [5]
0	0xbda93e9f	-0.08263897
1	0xbcc7b569	-0.024378495
2	0x3d4a2099	0.049347494
3	0xbdeb77ba	-0.114974454
4	0x3da6fb79	0.08153433

bn2.running_mean f4 [5]
0	0xbed54d8b	-0.41660723
1	0x3e597bc2	0.21238616
2	0xbf205689	-0.6263204
3	0x3edea02c	0.43481576
4	0xbe7063c8	-0.23475564

bn2.running_var f4 [5]
0	0x3d9b4d44	0.075830966
1	0x3e9905f3	0.2988735
2	0x3f2980fb	0.66212434
3	0x3ece01b3	0.4023567
4	0x3e96c21d	0.29444972

conv3.weight f4 [5, 5, 3, 3]
0	0xbda2d4a1	-0.07950712
1	0x3e108d14	0.14116317
2	0x3e1dc8a4	0.1540857
3	0xbd92acca	-0.07161863
4	0xbcf2c31d	-0.029634053
5	0x3b6e714f	0.0036383455
6	0xbd85d7bf	-0.06535291
7	0xbdadb33d	-0.084814526
8	0xbd34a20b	-0.04409985
9	0xbdeb2789	-0.1148215
10	0xbe2a7755	-0.16647084
11	0x3d97891b	0.07399198
12	0x3d84d5e6	0.064861104
13	0xbe11ae74	-0.14226705
14	0xbcced0a1	-0.025245966
15	0x3c959a07	0.018261923
16	0x3d956fec	0.07296738
17	0x3dac888d	0.084244825
18	0xbcec10c0	-0.02881658
19	0xbe10c023	-0.14135794
20	0xbe043d47	-0.12914
21	0xbe5d864c	-0.21633261
22	0xbd416fa4	-0.04722561
23	0x3d0bbd12	0.03411586
24	0xbdfcacd4	-0.12337652
25	0xbda8679d	-0.08222888
26	0xbcf6336c	-0.030053817
27	0xbe61b80c	-0.22042865
28	0xbe558176	-0.20850167
29	0x3daa53dd	0.08316777
30	0xbcb3bc9b	-0.02194052
31	0xbd89561a	-0.06705876
32	0x3d41ee4d	0.047346402
33	0x3caf1603	0.0213728
34	0x3d0652ad	0.03279369
35	0x3d3a5acb	0.045496743
36	0xbcc5f518	-0.024164721
37	0x3dd26fdc	0.10275242
38	0x3e385a47	0.18003188
39	0xbe1561e3	-0.14588122
40	0xbde8c7ce	-0.11366235
41	0x3e4e15b1	0.20125462
42	0xbd38797b	-0.045037728
43	0x3dcbd5f9	0.099529214
44	0xbcf65fc0	-0.030074954
45	0x3da8acc3	0.08236077
46	0xbe0652ff	-0.13117598
47	0xbdc611ab	-0.09671339
48	0xbdd0615f	-0.10174822
49	0xbdfc9c68	-0.123345196
50	0xbe31ea3a	-0.17374507
51	0xbe35079d	-0.17678685
52	0xbc0c92cf	-0.008579924
53	0xbd57b90e	-0.052666716
54	0x3e34fad6	0.17673811
55	0xbdac83b4	-0.08423558
56	0x3bdb5366	0.0066932915
57	0x3d487155	0.048936207
58	0xbd70d1c8	-0.058793813
59	0xbd578f13	-0.05262668
60	0xbd7f019b	-0.06225739
61	0x3e0358de	0.12826869
62	0xbe0469af	-0.1293094
63	0x3dec3f8f	0.1153556
64	0xbd14a4a6	-0.036289833
65	0x3d569333	0.052386474
66	0x3da4253e	0.08014916
67	0xbd36c82a	-0.044624485
68	0x3d847138	0.06466907
69	0xbdba3e15	-0.090938725
70	0xbd8ef07a	-0.06979461
71	0x3deba2bc	0.115056485
72	0x3d530c80	0.051525593
73	0x3d661393	0.05617101
74	0xbe0af7ae	-0.13571045
75	0xbdac9a00	-0.08427811
76	0x3ce63d35	0.028105358
77	0xbcc3477e	-0.023837801
78	0x3e12678c	0.14297312
79	0xbbe6f25a	-0.0070479335
80	0x3d8fa0bf	0.07013082
81	0xbe2ff2fd	-0.17182536
82	0x3ce0c304	0.02743674
83	0x3e0a5535	0.13509066
84	0x3e139ba3	0.1441484
85	0x3e2c2bc7	0.16813575
86	0x3b3e0ba7	0.0028998645
87	0x3d7e481a	0.06208048
88	0x3e6b8bf0	0.230026
89	0x3e5cbf4b	0.21557347
90	0xbdd55b9e	-0.10417865
91	0xbd898027	-0.06713896
92	0x3d93e735	0.072218336
93	0x3d26b3ae	0.0406987
94	0x3dc18655	0.0944945
95	0x3d9b9565	0.07596854
96	0x3c74b63e	0.014936028
97	0x3a21b0c6	0.0006168004
98	0x3e536abd	0.20646186
99	0x3df68ff3	0.12039175
100	0x3e56ee92	0.20989445
101	0x3b0c62a7	0.0021421106
102	0x3e25c52d	0.16188498
103	0x3da278e4	0.07933214
104	0x3d08a7c6	0.033363126
105	0xbdddbb86	-0.10826783
106	0xbd82c3fe	-0.06385039
107	0xbdb27829	-0.08714325
108	0x3e326b49	0.17423739
109	0xbcd083bb	-0.025453439
110	0x3b305430	0.0026905648
111	0x3e4c9f20	0.19982576
112	0xbd75a9c5	-0.059976358
113	0xbc55148e	-0.013005389
114	0x3d7a4af0	0.061106622
115	0x3de62bc8	0.11238819
116	0x3d43bbcf	0.04778653
117	0xbd6d6c67	-0.05796471
118	0xbdbf9907	-0.093553595
119	0xbda1b381	-0.07895566
120	0x3cefe563	0.029284185
121	0xbcf4a516	-0.029863875
122	0x3c8a8067	0.01690693
123	0xbda54013	-0.08068862
124	0x3dc1fe6c	0.09472355
125	0x3ce054a4	0.02738411
126	0xbdf37c71	-0.1188897
127	0x3dfe20f3	0.12408628
128	0xbd820d0c	-0.06350145
129	0xbdff18d3	-0.12455907
130	0xbd1d61a4	-0.038423195
131	0x3d0f4dbd	0.034986246
132	0xbdd2d60a	-0.10294731
133	0xbe21aed2	-0.15789345
134	0xbd916a8e	-0.07100402
135	0xbda0de4b	-0.07854899
136	0x3d22b1d6	0.03972038
137	0xbe83d488	-0.25748086
138	0xbd845ccf	-0.06463014
139	0x3c6debd5	0.014521559
140	0x3d5cd84c	0.053917214
141	0x3e256f77	0.16155802
142	0x3db54a30	0.08852041
143	0xbd5a1882	-0.05324603
144	0xbe1d4852	-0.1535962
145	0xbdb366a8	-0.087598145
146	0x3da5f2e3	0.081029676
147	0xbe40ea0d	-0.18839283
148	0xbe05f8b0	-0.13083148
149	0xbde37aa2	-0.11107375
150	0xbe11b6fc	-0.14229959
151	0xbe1a5520	-0.15071535
152	0x3c5cf293	0.013485569
153	0xbde57711	-0.11204351
154	0x3c3f2c25	0.01166824
155	0xbd9e94dd	-0.07743237
156	0x3c0602e0	0.008179396
157	0xbdc9ea65	-0.0985916
158	0x3d6133a4	0.05498089
159	0xbd0907a1	-0.03345454
160	0x3da9ea45	0.082966365
161	0x3e9dcf77	0.30822346
162	0xbd82316c	-0.06357083
163	0x3b7817a1	0.003785588
164	0xbd34bc6a	-0.044125
165	0x3e009c0f	0.12559532
166	0xbb022990	-0.00198612
167	0xbd29c77a	-0.04145
168	0x3da6c20f	0.081424825
169	0x3d0ac72b	0.033881348
170	0xbe0dae14	-0.13835937
171	0xbd46602e	-0.048431568
172	0xbe006f0c	-0.12542361
173	0xbe22f871	-0.15915085
174	0xbd93a2a3	-0.07208755
175	0xbe0bc0ef	-0.13647817
176	0xbe67bacb	-0.2262985
177	0xbe03b93b	-0.12863629
178	0x3c692fdf	0.014232605
179	0x3bca2014	0.006168375
180	0x392592c6	0.00015790304
181	0x3e4b421d	0.19849439
182	0x3d8b62b0	0.068059325
183	0xbd83a421	-0.064277895
184	0xbdc84540	-0.097788334
185	0xbdf55b7c	-0.1198034
186	0xbc8b167a	-0.016978491
187	0x3c668494	0.014069695
188	0xbc162266	-0.009163475
189	0x3cb5bfea	0.022186238
190	0xbdfff43a	-0.124977544
191	0xbe484f3f	-0.1956148
192	0xbc8bc6d4	-0.017062582
193	0x3d4aab1c	0.04947959
194	0xbc382ef0	-0.0112416595
195	0xbd3323ff	-0.0437355
196	0x3d7210bf	0.059098
197	0xbda86184	-0.08221725
198	0xbd8470bd	-0.064668156
199	0xbd42387b	-0.047417145
200	0x3ca75ca4	0.020429917
201	0xbd0d1868	-0.034447104
202	0x3d1583fd	0.036502827
203	0x3c7e99c1	0.0155395875
204	0x3cee6541	0.029101016
205	0x3d83a656	0.064282104
206	0x3dcf39f6	0.10118477
207	0x3c8dcd62	0.017309848
208	0xbe087da9	-0.13329186
209	0x3e0326c9	0.12807764
210	0x3e47a87a	0.19497862
211	0x395357d5	0.00020155248
212	0x3e458653	0.19289522
213	0x3e6b4a1a	0.22977486
214	0x3e883baa	0.2660802
215	0x3e32a4db	0.174457
216	0xbcfb47e3	-0.030673927
217	0xbdc4083c	-0.09571883
218	0xbd957ceb	-0.07299217
219	0xbcf3ba79	-0.029752003
220	0xbcb77e7f	-0.022399185
221	0x3dd6c020	0.10485864
222	0x3d961e07	0.07329946
223	0xbe1c9adf	-0.15293454
224	0xbd6eea1a	-0.058328725

conv3.bias f4 [5]
0	0xbd3998e6	-0.04531183
1	0x3e134865	0.14383085
2	0x3e4749d8	0.19461763
3	0xbd5b2333	-0.053500365
4	0xbe17147b	-0.14753906

bn3.weight f4 [5]
0	0x3fb749be	1.4319379
1	0x3fa0c112	1.255892
2	0x3fbcd893	1.4753593
3	0x3fba6787	1.4562844
4	0x3f9ee557	1.2413739

bn3.bias f4 [5]
0	0x3e2f6d9c	0.17131656
1	0x3d2d449a	0.04230175
2	0x3dba8540	0.09107447
3	0x3deccc91	0.115624554
4	0x3e29a861	0.16568138

bn3.running_mean f4 [5]
0	0xbf01ee19	-0.50753933
1	0x3eb71373	0.35757026
2	0x3eda269f	0.4260759
3	0xbf459aef	-0.77189535
4	0xbd1cc9d8	-0.03827843

bn3.running_var f4 [5]
0	0x3e1afb42	0.1513491
1	0x3e5f7ec2	0.21825698
2	0x3e22324b	0.15839498
3	0x3e1b0200	0.15137482
4	0x3eadc4f2	0.3393932

fc1.weight f4 [100, 405]
0	0xbd3d3a6f	-0.046198305
1	0xbd0cf522	-0.034413464
2	0x3e25722a	0.16156831
3	0x3dc461ae	0.095889434
4	0x3e0fe160	0.14050817
5	0x3e4a1335	0.1973389
6	0x3e394e51	0.18096282
7	0x3e83a3b2	0.25710827
8	0x3dfdf30c	0.12399873
9	0x3d8d791b	0.06907865
10	0xbcd8cb2d	-0.02646407
11	0x3c1d241b	0.009591128
12	0x3bd79b87	0.0065798196
13	0xbad03aa9	-0.0015886623
14	0x3cc42045	0.023941169
15	0x3d1ae70a	0.037817992
16	0x3dee6909	0.116411276
17	0xbbb744c1	-0.005592913
18	0x3ce8926a	0.028390128
19	0xbd8e803b	-0.06958052
20	0xbd6888a3	-0.056770932
21	0xbd2dfaea	-0.04247562
22	0x3cd7a2a0	0.026322663
23	0x3d91e681	0.07124043
24	0xbbe35d49	-0.0069386107
25	0xbd2f7f1c	-0.04284583
26	0x3c87ca7a	0.01657604
27	0x3d0efe6e	0.03491061
28	0xba17c711	-0.0005789856
29	0x3b2d05b2	0.00264011
30	0xbcfcdfee	-0.030868497
31	0xbc33e8db	-0.01098081
32	0xbc9fd2f5	-0.019509772
33	0x3cb51a56	0.022107285
34	0xbbf96d51	-0.0076119085
35	0xbd4c0a38	-0.049814433
36	0x3d775485	0.06038334
37	0x3db9ef2d	0.09078822
38	0x3ca30b32	0.0199028
39	0x3ca78453	0.02044884
40	0xbb4dcd25	-0.0031402793
41	0x3d23d3cf	0.03999692
42	0x3d288018	0.041137785
43	0xbd1810ea	-0.037125506
44	0x3d09c36d	0.03363364
45	0x3d46b2fd	0.04851054
46	0x3e07e763	0.13271861
47	0x3d80ffe2	0.06298806
48	0x3dcd90b1	0.10037363
49	0x3bcc601b	0.0062370426
50	0x3d61d206	0.055131935
51	0x3d236465	0.039890666
52	0x3da35a39	0.07976193
53	0x3da6980d	0.0813447
54	0x3d734dab	0.05940024
55	0x3dec5a50	0.11540663
56	0x3cc3c31a	0.023896743
57	0x3e02ae63	0.12761836
58	0xbba9bc84	-0.0051799435
59	0x3d038c93	0.032116484
60	0xbc80e3bd	-0.015733594
61	0x3dac4679	0.08411879
62	0x3e0fa5d8	0.14028108
63	0x3d5e70e7	0.05430689
64	0x3d2311da	0.039811946
65	0x3d7ceba2	0.061748154
66	0x3dc29ba2	0.09502341
67	0x3d8e05b3	0.06934681
68	0xbd29f44c	-0.041492745
69	0x3d81063f	0.063000195
70	0x3e190cb4	0.14946252
71	0x3d31fb87	0.043452766
72	0x3d88a785	0.06672577
73	0x3e07cfbd	0.1326284
74	0x3e0046e6	0.12527046
75	0x3e349bb6	0.17637524
76	0x3dd44cbd	0.10366199
77	0xbacc6d9e	-0.0015596633
78	0x39ba11f4	0.0003549006
79	0xbcc92b4f	-0.024556784
80	0xbe13fd60	-0.14452124
81	0xbd3bcb20	-0.045848012
82	0x3c858243	0.016297465
83	0x3cf745c2	0.03018463
84	0x3d4f87a3	0.050666463
85	0xbc96a8f6	-0.018391114
86	0x3d5cbb35	0.053889472
87	0xbcb35441	-0.021890761
88	0xbc1df462	-0.009640785
89	0x3c36524d	0.0111280205
90	0xbba0be07	-0.0049054655
91	0xbd057788	-0.032584697
92	0xbd9dd1ce	-0.07706033
93	0xbcf00718	-0.029300258
94	0xbcac21c9	-0.021012204
95	0x3cb23a89	0.021756427
96	0x39bcaaee	0.00035985507
97	0x3d0f6411	0.03500754
98	0x3cb6a93a	0.02229749
99	0xbc428a96	-0.011873862
100	0x3bf3b261	0.007437036
101	0x3cd73adf	0.02627319
102	0xbc7a3ee7	-0.015273786
103	0xbbaf148e	-0.0053430265
104	0x3d52aa81	0.051432136
105	0x3db17ad3	0.08666005
106	0x3dd3ff3a	0.10351415
107	0x3d47e457	0.048801746
108	0xbb32790a	-0.002723279
109	0xbc6b8f37	-0.014377407
110	0xbc548dd8	-0.012973271
111	0x3cf13a41	0.029446723
112	0x3d8a9458	0.067665756
113	0x3c8333e0	0.016015947
114	0x3d9ca280	0.07648182
115	0x3e1f70d4	0.15570384
116	0xbc158834	-0.009126712
117	0xbdaea488	-0.085274756
118	0x3d886099	0.066590495
119	0x3d31f017	0.04344186
120	0x3ca6b870	0.020351619
121	0xbd2e8d94	-0.04261549
122	0x3dfe0d05	0.12404827
123	0x3e165682	0.14681438
124	0x3d9a81ec	0.07544312
125	0x3d188f8b	0.03724627
126	0xbd57fea9	-0.052733097
127	0x3d93ca84	0.07216361
128	0x3d32c670	0.043646276
129	0x3dc16ebe	0.094449505
130	0x3e1e8fc5	0.15484531
131	0x3dfbe3af	0.122992866
132	0x3e07a560	0.1324668
133	0x3b0b1285	0.0021220755
134	0x3d211f9a	0.03933678
135	0xbdda4221	-0.10657144
136	0xbc5c11bd	-0.0134319635
137	0x3d84db96	0.06487195
138	0x3da30301	0.07959557
139	0x3da1e572	0.07905091
140	0x3d448e4c	0.047987267
141	0x3d50b7ef	0.050956663
142	0x3d9f0c22	0.07765986
143	0x3c0d2b68	0.008616306
144	0xbd574162	-0.05255259
145	0x3bd98e90	0.006639309
146	0x3c5cf2d8	0.013485633
147	0x3de0e537	0.10981219
148	0x39cd0ffd	0.0003911256
149	0xbdc710bb	-0.09719988
150	0xbc123cdf	-0.008925646
151	0x3bb8919b	0.005632592
152	0xbe155e27	-0.14586698
153	0x3d3e53c5	0.046466608
154	0xbd8e8eed	-0.06960855
155	0xbdabedca	-0.08394964
156	0x3cfae50f	0.030626802
157	0xbce9e519	-0.028551625
158	0xbd80d792	-0.06291117
159	0xbe469311	-0.19392039
160	0xbce5cf8b	-0.028053066
161	0xbe428a9c	-0.18998188
162	0x3d5fe311	0.054659907
163	0x3bf1685e	0.007367178
164	0xbe2b98fa	-0.16757575
165	0xbd2b8169	-0.041871462
166	0xbda2a7b2	-0.079421416
167	0xbb5aed14	-0.003340547
168	0xbe33c09a	-0.1755394
169	0x3ca884ef	0.0205712
170	0x3ceef153	0.029167807
171	0xbdce90bf	-0.10086202
172	0xbdbbe23b	-0.091740094
173	0xbdbaea40	-0.09126711
174	0x3bf07e27	0.0073392573
175	0xbcbd0c3b	-0.023077121
176	0x3de1c871	0.11024559
177	0x3d501789	0.050803695
178	0xbcd677ae	-0.026180115
179	0x3d3edb33	0.046595763
180	0xbdbed253	-0.0931746
181	0xbd9aabe3	-0.07552316
182	0xbd9338c0	-0.071885586
183	0xbcd7b449	-0.026331084
184	0xbdb9a331	-0.090643294
185	0x3b7a9e95	0.0038241495
186	0x3cd19caa	0.025587399
187	0x3d888a2b	0.066669784
188	0x3e316816	0.17324862
189	0xbcd79261	-0.026314916
190	0xbe05f48d	-0.1308157
191	0xbcde60f2	-0.027145837
192	0xbdbe6d06	-0.09298138
193	0xbdd25946	-0.10270934
194	0xbd5cd879	-0.053917382
195	0x3d18a945	0.037270803
196	0x3d8b9d59	0.06817121
197	0x3e6fb35f	0.23408268
198	0x3d2b389f	0.041802045
199	0xbd15913d	-0.036515463
200	0xbe008b55	-0.12553151
201	0xbd24b56f	-0.04021209
202	0xbbd15898	-0.006388735
203	0x3d5a1067	0.0532383
204	0x3d3d8834	0.04627247
205	0x3e37c2cd	0.17945404
206	0x3e1ffcdf	0.15623806
207	0xbd742a2f	-0.059610542
208	0x3d3adc06	0.045619987
209	0xbc316d39	-0.010829263
210	0x3d3ae980	0.04563284
211	0xbba09a7e	-0.0049012294
212	0x3c913fc0	0.017730594
213	0x3e0acfcc	0.1355583
214	0x3e235cce	0.15953371
215	0xbd70d11e	-0.05879318
216	0xbdaaf61c	-0.08347723
217	0x3c8e21e5	0.017350147
218	0xbc5f5084	-0.013630036
219	0x3d072cda	0.03300176
220	0xbc97bc21	-0.018522324
221	0xbd7a16ad	-0.06105678
222	0x3d8ddfdc	0.069274634
223	0x3d83b576	0.06431095
224	0x3d98e195	0.07464901
225	0x3c8bb037	0.0170518
226	0x3bce0700	0.0062874556
227	0x3dd8242f	0.105537765
228	0x3d2eaebc	0.04264711
229	0x3df8eeaa	0.121548966
230	0xbbd65cdf	-0.006541833
231	0xbc57af31	-0.0131643275
232	0x3c9e2e3a	0.019309152
233	0xbca76f09	-0.020438688
234	0xbd556d05	-0.052105922
235	0x3da286d7	0.07935875
236	0x3dd231b5	0.10263387
237	0x3c79ac1e	0.01523879
238	0x3d4c5552	0.049886055
239	0x3e0c51ff	0.13703154
240	0x3dfe8dca	0.12429388
241	0x3e791e2d	0.24327917
242	0x3e86af5b	0.2630566
243	0xbd1e460b	-0.038641017
244	0xbe8717e5	-0.26385418
245	0xbdd2cf18	-0.10293406
246	0xbe7a6028	-0.24450743
247	0xbe1d5f10	-0.15368295
248	0xbe92d745	-0.28679863
249	0xbe47f75b	-0.19527952
250	0xbe2689f7	-0.16263567
251	0xbdc251e6	-0.09488277
252	0xbd449538	-0.04799387
253	0xbc6fd055	-0.014637073
254	0xbd6dfb40	-0.05810094
255	0xbe34b57e	-0.17647359

fc1.bias f4 [100]
0	0xbd175d79	-0.036954377
1	0x3d9b926c	0.07596287
2	0x3d7c4a89	0.06159452
3	0x3d319154	0.043351486
4	0xbd3f5fba	-0.04672215
5	0xbc67fe19	-0.014159703
6	0x3d900830	0.07032812
7	0x3da29ebb	0.07940432
8	0x3c916808	0.017749801
9	0x3bc415db	0.0059840507
10	0x3b22fbb8	0.0024869274
11	0xbd305cec	-0.043057367
12	0xbcf5a259	-0.02998464
13	0x3bac2e51	0.005254545
14	0x3d277b62	0.04088915
15	0xbba94eb3	-0.0051668524
16	0x3cfdec27	0.030996395
17	0x3d8b0857	0.067887
18	0xbc70a88c	-0.014688622
19	0xbbfe255a	-0.0077559175
20	0x3d330a11	0.043710772
21	0x3d1edfb2	0.03878755
22	0x3d9ddbaf	0.07707917
23	0x3d61c914	0.055123404
24	0xbda07665	-0.07835082
25	0xbd9f5145	-0.07779173
26	0xbceb77ce	-0.02874365
27	0x3d1922a0	0.037386537
28	0x3c822643	0.015887385
29	0xbc2d63ad	-0.010582847
30	0xbc0d50c7	-0.008625216
31	0x3cbb1960	0.022839248
32	0x3ac4cb92	0.0015014282
33	0xbc15a5c9	-0.009133765
34	0x3d2f7801	0.042839054
35	0xbbd21dc3	-0.0064122393
36	0x3da9c196	0.08288877
37	0x3997a45d	0.00028923425
38	0x3c7f1c87	0.015570766
39	0x3be516c0	0.0069912374
40	0x3d8cc590	0.068736196
41	0xbcdd564e	-0.027018692
42	0xbccbc659	-0.024874853
43	0x3a43c9e8	0.0007468746
44	0xbcd42540	-0.025896668
45	0x3d24989f	0.040184613
46	0x3d21a6e8	0.039465815
47	0xbc0a5aff	-0.008444547
48	0x3dbd5806	0.09245305
49	0xbc958698	-0.018252656
50	0xbcc33609	-0.023829477
51	0x3ca8e939	0.020619022
52	0xbd5e58c7	-0.054283883
53	0x3d8a0869	0.06739885
54	0x3c038da3	0.008029374
55	0xbb4fb3b1	-0.0031692798
56	0x3cd774d8	0.026300833
57	0x3db1e1b4	0.086856276
58	0xbcb091f8	-0.021553978
59	0xbd50d36b	-0.050982874
60	0x3ccd2599	0.025042342
61	0x3d0accae	0.033886604
62	0x3d0df371	0.034655992
63	0x3d45d5fc	0.048299775
64	0x3d29bf4c	0.0414422
65	0xbd000541	-0.03125501
66	0xbb933fe1	-0.004493699
67	0xbb9e272b	-0.0048264465
68	0xbb75f0d3	-0.0037527576
69	0x3d550752	0.052008934
70	0x3c3dada1	0.011577041
71	0x3d7e012c	0.062012836
72	0x3d437b1b	0.047724824
73	0x3d37f721	0.044913415
74	0x3acfd76c	0.0015857047
75	0x3d02a728	0.031897694
76	0x3dc668f7	0.09687989
77	0xbd0123e5	-0.031528372
78	0xbbd219d0	-0.0064117685
79	0x3d9a53b6	0.07535498
80	0xbd5518a5	-0.052025456
81	0xbd2d78d5	-0.042351563
82	0xbc7d2dfb	-0.015452857
83	0xbd39f737	-0.045401778
84	0x3d85894e	0.065203294
85	0xbd3b4cda	-0.04572759
86	0x3d0829eb	0.0332431
87	0xbd58ff0a	-0.0529776
88	0xbd933d3d	-0.07189415
89	0x3dab1d01	0.083551414
90	0x3d994c21	0.074852236
91	0xbce6fae7	-0.028195811
92	0x3b376028	0.0027980898
93	0x3b23a5b5	0.0024970595
94	0x3af9b586	0.0019051291
95	0x3d1647ae	0.036689453
96	0xbd2bc4cf	-0.04193574
97	0x3cc3d183	0.023903614
98	0x3d0e4cf7	0.03474137
99	0x3daa513d	0.08316276

fc2.weight f4 [10, 100]
0	0x3d8537c7	0.06504779
1	0xbe46e5c7	-0.1942359
2	0x3d239409	0.0399361
3	0x3dbfd769	0.09367258
4	0x3dcd5ea2	0.100278154
5	0xbeab503f	-0.3345966
6	0xbd49cb09	-0.049265895
7	0xbd26b970	-0.04070419
8	0xbe02e470	-0.12782454
9	0x3e259ebb	0.16173832
10	0x3d57dc25	0.05270018
11	0x3d6261a4	0.0552689
12	0x3930d371	0.00016863436
13	0xbeb26cd3	-0.3484865
14	0x3e3e132b	0.18562
15	0x3de5edcb	0.11226996
16	0x3d35f122	0.044419415
17	0x3e28eaa4	0.16495758
18	0x3dc10bf7	0.0942611
19	0xbda30d93	-0.079615735
20	0xbeb8cfd7	-0.3609607
21	0xbcdc5a2e	-0.02689847
22	0x3e288244	0.16455942
23	0x3e285af6	0.16440949
24	0x3d832893	0.06404223
25	0xbe1b04bd	-0.15138526
26	0xbe4d65dd	-0.20058389
27	0xbe6868ca	-0.22696224
28	0xbdff63ec	-0.124702305
29	0x3da702ac	0.081548065
30	0x3c990ce0	0.018682897
31	0xbc07a853	-0.008279878
32	0xbce4d58b	-0.027933856
33	0xbd4a36ad	-0.04936855
34	0x3ddf2ade	0.10896848
35	0xbe829aeb	-0.25508818
36	0x3c823d94	0.015898503
37	0x3d4245cf	0.047429856
38	0xbe7e9bc6	-0.2486411
39	0xbea71213	-0.32630977
40	0xbe12c8db	-0.14334433
41	0x3d5f44f1	0.054509107
42	0x3d880946	0.06642394
43	0xbe61e69d	-0.22060628
44	0xbdac7cd2	-0.08422245
45	0xbdf7f716	-0.12107675
46	0xbec7318e	-0.38904995
47	0xbb8e6c46	-0.0043464033
48	0xba8e5a0b	-0.0010860575
49	0x3d375249	0.044756208
50	0x3daee759	0.0854022
51	0xbe3f1915	-0.18661912
52	0x3de39448	0.11112267
53	0xbe679c28	-0.22618163
54	0x3d12e3af	0.035861667
55	0xbdef041c	-0.11670706
56	0xbd2a92da	-0.041643955
57	0xbe671210	-0.22565484
58	0xbd1757b7	-0.036948886
59	0xbdebd89b	-0.115159236
60	0xbd580aee	-0.0527448
61	0xbe8b7fe0	-0.27245998
62	0xbe9ed40d	-0.31021157
63	0x3dd9a7b7	0.10627692
64	0xbdc888e3	-0.09791734
65	0xbd673b47	-0.056453016
66	0xbe33d404	-0.17561346
67	0x3db610e2	0.08889939
68	0x3ba745df	0.005104765
69	0x3e284d19	0.1643566
70	0xbe722716	-0.23647723
71	0x3d81431b	0.063116275
72	0x3d901cdb	0.07036754
73	0xbe63966c	-0.2222535
74	0xbea32630	-0.31865072
75	0x3d8f0630	0.06983602
76	0xbe47a5ca	-0.19496837
77	0xbe8700db	-0.2636784
78	0x3d0ab8a2	0.033867486
79	0x3dde6e84	0.10860923
80	0x3d857978	0.06517309
81	0x3df52e3e	0.119717106
82	0xbe827ea8	-0.25487256
83	0xbddd650e	-0.1081029
84	0x3dc892c8	0.09793621
85	0x3b1627c9	0.0022911897
86	0x3d7928cf	0.060829934
87	0xbe4fd6bb	-0.20296757
88	0x3df34f2d	0.11880336
89	0x3d8d6074	0.069031626
90	0x3df71266	0.12064056
91	0xbe38aaa3	-0.18033843
92	0xbed47022	-0.414918
93	0xbe7e9ecc	-0.24865264
94	0x3defd741	0.11710978
95	0xbe80d52b	-0.25162634
96	0xbd88774d	-0.0666338
97	0x3d95e0e1	0.07318283
98	0x3e0a89c6	0.13529119
99	0xbea5a5e9	-0.32353142
100	0x3de39835	0.111130156
101	0x3def6928	0.11689979
102	0x3d9516d9	0.072797485
103	0x3d3214e2	0.043476947
104	0x3dda7cab	0.1066831
105	0xbe789d57	-0.2427877
106	0xbe3fe3ea	-0.18739286
107	0xbdc2ded4	-0.09515157
108	0xbee5099f	-0.44733903
109	0x3e010364	0.1259895
110	0x3a3c1e9a	0.0007176191
111	0x3e04e2ac	0.12977093
112	0x3cd1a7ef	0.025592772
113	0x3d37c004	0.044860855
114	0x3dfbf377	0.123022966
115	0xbe4bb581	-0.19893457
116	0xbe007a21	-0.12546588
117	0x3dc46e64	0.09591368
118	0x3de889db	0.11354419
119	0xbe6feffb	-0.23431389
120	0xbe1ec7eb	-0.1550595
121	0xbd51a0d2	-0.05117876
122	0xbe0b9f5c	-0.1363501
123	0xbe0f75e6	-0.14009818
124	0x3e093050	0.13397336
125	0xbcc931e3	-0.02455992
126	0xbe5777f7	-0.21041857
127	0x3e58c3fe	0.21168515
128	0xbebd5ad8	-0.3698337
129	0x3d57b649	0.052664075
130	0x3e078b0d	0.13236637
131	0x3d9007f8	0.0703277
132	0x3e0c38d7	0.13693558
133	0x3e03c651	0.1286862
134	0x3d281cf7	0.041043248
135	0x3de17eb8	0.11010498
136	0xbea00ba8	-0.31258893
137	0xbd6bc5f8	-0.057561845
138	0x3e1287bf	0.14309596
139	0x3d8ffeed	0.07031045
140	0x3d26aff8	0.04069516
141	0xbd8416ed	-0.06449685
142	0x3d078f6d	0.033095766
143	0x3c3e7b8c	0.011626136
144	0x3e850316	0.25978917
145	0xbeaf6675	-0.34257856
146	0xbec19e14	-0.37815917
147	0x3d8a5fcc	0.06756553
148	0xbe0f2f74	-0.13982946
149	0xbe6a4158	-0.22876489
150	0xbcb52f15	-0.022117177
151	0x3dc48ee7	0.09597569
152	0xbe24fbfc	-0.1611175
153	0x3d61b7e5	0.055107016
154	0x3d29002b	0.041259926
155	0xbdb74e20	-0.08950448
156	0xbec09f31	-0.37621453
157	0xbec98c6b	-0.39364943
158	0xbdc35d9d	-0.0953934
159	0x3e341f84	0.17590147
160	0x3da6d392	0.081458226
161	0x3d87135b	0.06595489
162	0xbe4c97e2	-0.19979814
163	0x3dac86a1	0.08424116
164	0x3e1448e8	0.14480937
165	0x3d1b6e30	0.03794688
166	0x3c9333c1	0.017969014
167	0x3c1e5378	0.009663455
168	0xbb34ea65	-0.002760553
169	0xbe4bd12f	-0.19904016
170	0xbcfc129d	-0.030770594
171	0x3dc0aaf7	0.09407609
172	0xbe5444db	-0.20729391
173	0xbe989679	-0.29802302
174	0xbd3d069c	-0.04614888
175	0x3c34cb41	0.011034788
176	0x3d093a46	0.03350284
177	0xbe41a0c9	-0.18908991
178	0xbe0c3f10	-0.13695931
179	0xbe77c89c	-0.2419762
180	0xbd86cf8c	-0.06582555
181	0x3c29811e	0.010345725
182	0xbe150819	-0.1455387
183	0x3e542fe2	0.20721391
184	0xbe0d9895	-0.13827737
185	0x3d704114	0.058655813
186	0xbe30dc31	-0.17271496
187	0x3bf7b373	0.007559234
188	0xbdc698ff	-0.096971504
189	0x3db163d3	0.08661618
190	0x3d8d7cc1	0.069085605
191	0x3e16bc2e	0.14720222
192	0xbe43c75f	-0.19119023
193	0xbeac601d	-0.3366708
194	0xbe36dc35	-0.1785744
195	0x3dd5479c	0.10414049
196	0x3e3fbe74	0.18724996
197	0xbdb795ef	-0.089641444
198	0x3dcacc2e	0.099022254
199	0xbec19e21	-0.37815955
200	0xbdb2298c	-0.08699331
201	0xbda35e0f	-0.07976925
202	0xbe81dede	-0.25365347
203	0xbc0e0266	-0.008667564
204	0xbe8eee7d	-0.27916327
205	0xbe88bb0b	-0.26705202
206	0x3d8a6a64	0.06758574
207	0x3e3756fa	0.17904273
208	0xbe822560	-0.2541914
209	0xbdb96163	-0.09051778
210	0x3d08c59d	0.033391584
211	0xbe470f47	-0.19439422
212	0xbe0fe373	-0.14051609
213	0x3dbb6fba	0.091521695
214	0xbd218f33	-0.039443206
215	0xbe4e6b1e	-0.2015805
216	0xbeb1c3ad	-0.347196
217	0x3d9a67dc	0.07539341
218	0xbe1e4ffb	-0.15460198
219	0x3e2de44c	0.1698162
220	0x3db15b32	0.08659972
221	0x3c924ef5	0.017859915
222	0xbd3db70e	-0.046317153
223	0x3d4c729d	0.04991399
224	0x3e13ff6f	0.14452909
225	0x3dba83d9	0.09107179
226	0x3e00a67e	0.12563512
227	0xbdd84f0a	-0.105619505
228	0x3d478428	0.04871002
229	0x3d985317	0.07437723
230	0x3db211c7	0.08694797
231	0x3e1b88b6	0.1518887
232	0xbc89d257	-0.01682393
233	0xbe5e23e4	-0.21693379
234	0xbe777e70	-0.24169326
235	0x3e0de2f0	0.13856101
236	0x3e908add	0.28230944
237	0x3d2763be	0.040866606
238	0xbe11dcb9	-0.14244355
239	0xbdb4a41b	-0.08820363
240	0x3cff0757	0.03113143
241	0xbdf646c2	-0.12025215
242	0xbccf8afe	-0.025334831
243	0x3dc86300	0.09784508
244	0xbe6e2313	-0.23255567
245	0x3d5a6f45	0.05332877
246	0xbdb77217	-0.08957308
247	0x3dfa0fdb	0.122100554
248	0x3dee1393	0.11624827
249	0xbe4c63a4	-0.19959885
250	0xbe28dae8	-0.16489756
251	0xbb5e6ae3	-0.0033938221
252	0x3e85058a	0.25980788
253	0xbe3a3bdd	-0.18186899
254	0xbceba144	-0.02876342
255	0xbbdc2140	-0.006717831

fc2.bias f4 [10]
0	0xbd5abf0e	-0.05340486
1	0x3d81e26c	0.06342015
2	0xbce96843	-0.028492099
3	0x3dabcccf	0.083886735
4	0x3dc1aa7b	0.09456345
5	0x3d55bd90	0.052182734
6	0xbd871e10	-0.06597531
7	0x3bc31961	0.005953953
8	0x3dc0b22c	0.094089836
9	0xbdaf70d9	-0.08566446
