LiDAR_NET_Pre_trained_model/ckpt_epoch_150_val_loss_1.461150.pth (torch, 176701 bytes, 22 tensors)

conv1.weight f4 [5, 1, 5, 5]
0	0xbe22a11a	-0.15881768
1	0x3ce9626a	0.02848931
2	0xbe5083c8	-0.2036277
3	0x3d75af1f	0.05998146
4	0xbdae0e38	-0.08498806
5	0xbe274e32	-0.16338423
6	0xbe4eac00	-0.201828
7	0xbe726c14	-0.23674041
8	0xbe1453fb	-0.14485161
9	0x3cacfeba	0.021117557
10	0x3b11c084	0.0022239992
11	0xbe4f513b	-0.2024583
12	0xbd786dd1	-0.060651604
13	0x3d7a74fc	0.06114672
14	0xbe273a9d	-0.16330953
15	0x3de30d8e	0.1108657
16	0x3dc865a5	0.09785012
17	0xbe067a15	-0.13132508
18	0xbd1ee352	-0.03879101
19	0x3e6cfac1	0.2314253
20	0x3d73f86f	0.059563097
21	0x3d488012	0.048950262
22	0x3e3091fc	0.17243189
23	0xbe14d475	-0.14534171
24	0x3e5bac3f	0.21452425
25	0x3d83250d	0.06403551
26	0xbe28d996	-0.16489252
27	0xbe551a8e	-0.20810911
28	0x3e0aa13c	0.13538069
29	0xbcd06a20	-0.02544123
30	0x3e2629d5	0.16226895
31	0x3e440b19	0.19144858
32	0x3e931937	0.28730175
33	0x3e8745fd	0.26420584
34	0x3e760cce	0.24028322
35	0x3e3c4ab6	0.18387875
36	0xbd013758	-0.03154692
37	0x3d222e4e	0.03959494
38	0x3ddf1fca	0.10894735
39	0x3ca4b1fc	0.0201044
40	0xbc4e704f	-0.012600019
41	0xbdaf7d6f	-0.085688464
42	0xbd139f6c	-0.03604071
43	0x3d35f39c	0.044421777
44	0xbe5bc27b	-0.21460907
45	0xbde76190	-0.112979054
46	0x3e18efde	0.14935252
47	0xbce1d062	-0.027565185
48	0xbe0fa20f	-0.14026664
49	0xbde40053	-0.11132874
50	0x3e9ea315	0.30983797
51	0x3e218d3f	0.15776537
52	0x3df26f9c	0.11837694
53	0x3e3dca34	0.18534166
54	0xbd46a41e	-0.048496358
55	0x3d4a833e	0.04944157
56	0xbdcb2bec	-0.09920487
57	0x3e3fbfc2	0.18725494
58	0xbdf776aa	-0.1208318
59	0xbdd5b0b1	-0.10434092
60	0xbdc2a3cb	-0.09503897
61	0xbd6d61e9	-0.057954703
62	0xbe2446e9	-0.16042675
63	0xbe130877	-0.14358698
64	0xbd9baa09	-0.07600791
65	0x3d1ec67a	0.0387635
66	0x3d0197f5	0.03163906
67	0x3cec7542	0.028864507
68	0xbce7a1f1	-0.028275462
69	0x3a77f0ab	0.00094581646
70	0x3e13a664	0.14418942
71	0xbd3bf5e2	-0.04588879
72	0xbe3d352a	-0.18477312
73	0x3d841f53	0.06451287
74	0xbe42314a	-0.18964115
75	0x3dbf217a	0.09332557
76	0x3c004a21	0.007830174
77	0xbe7fdbc4	-0.24986178
78	0xbe7d912e	-0.24762413
79	0xbe4b173b	-0.1983308
80	0x3e2ad57f	0.16683005
81	0xbe2d273c	-0.16909498
82	0xbdf389e8	-0.11891538
83	0xbe89b397	-0.2689483
84	0xbddbc124	-0.10730198
85	0xbe2f06b8	-0.17092407
86	0xbc8ed6d5	-0.017436424
87	0x3dfd06ae	0.1235479
88	0xbdff8633	-0.12476768
89	0xbde762fd	-0.112981774
90	0x3db54750	0.088514924
91	0x3e0f715c	0.14008087
92	0xbcc6746d	-0.024225438
93	0x3b2e6e56	0.0026616058
94	0x3d24cf19	0.040236566
95	0xbe15b9bc	-0.14621633
96	0x3dea9730	0.11454618
97	0x3e726b8c	0.23673838
98	0x3dfcf26d	0.123509265
99	0xbd85e6ad	-0.065381385
100	0xbdb06841	-0.08613635
101	0xbc59be6c	-0.013290029
102	0xbc90901f	-0.017646847
103	0xbb0df078	-0.0021658223
104	0x3d4ad253	0.049516987
105	0x3d0b51c4	0.034013525
106	0x3d8e6539	0.069529004
107	0xbd7ad1a0	-0.06123507
108	0x3d0d24cb	0.034458917
109	0x3e6e045a	0.23243847
110	0x3d02d579	0.031941865
111	0xbc374be3	-0.011187526
112	0x3d63c975	0.055612046
113	0x3d39d908	0.045372993
114	0xbe1d3fef	-0.1535642
115	0x3d3ee143	0.046601545
116	0xbdbf09df	-0.09328055
117	0x3d31df90	0.043426096
118	0xbe78e2ba	-0.2430524
119	0x3e05df73	0.1307352
120	0x3e28c5f2	0.1648176
121	0x3d473ed6	0.04864391
122	0xbe1d95f2	-0.15389231
123	0xbe7a4a69	-0.24442448
124	0xbe12b1dc	-0.1432566

conv1.bias f4 [5]
0	0xbdf9bb70	-0.12193954
1	0xbc8023c8	-0.015642062
2	0xb9a7acb8	-0.00031981408
3	0xbe47d5da	-0.19515172
4	0xbdc553a8	-0.09635097

bn1.weight f4 [5]
0	0x3f797bba	0.97454417
1	0x3f834c62	1.0257685
2	0x3f713570	0.94222164
3	0x3f7733f0	0.96563625
4	0x3f8ba857	1.0910748

bn1.bias f4 [5]
0	0xbd7cfc75	-0.0617642
1	0x3d090379	0.033450577
2	0xbd0567cc	-0.03256969
3	0xbd6a7232	-0.05723781
4	0xbcec625b	-0.028855493

bn1.running_mean f4 [5]
0	0xbebb6170	-0.36597776
1	0x3e4f35ab	0.20235316
2	0xbd40ec2c	-0.04710023
3	0xbeeae605	-0.45878616
4	0xbe497335	-0.19672854

bn1.running_var f4 [5]
0	0x3d9020d0	0.070375085
1	0x3d3bf622	0.045889027
2	0x3c9dfe0b	0.019286176
3	0x3dacbd7b	0.08434578
4	0x3c528538	0.012849145

conv2.weight f4 [5, 5, 3, 3]
0	0xbd9368b5	-0.07197706
1	0xbde10868	-0.109879315
2	0x3d42ec91	0.04758889
3	0xbd75ff18	-0.06005773
4	0x3c813af2	0.015775178
5	0x3d926fef	0.07150256
6	0xbddce2ed	-0.1078547
7	0xbe1a4e30	-0.15068889
8	0x3cb44036	0.022003274
9	0x3e207f30	0.15673518
10	0x3d092c1b	0.033489328
11	0xbc9ed259	-0.019387411
12	0x3e0b1548	0.13582337
13	0x3e1030c1	0.14081098
14	0x3e2f687a	0.17129698
15	0xbd9a28b8	-0.07527298
16	0xbdf5c1c2	-0.11999847
17	0xbb95791f	-0.004561558
18	0x3e37974a	0.17928806
19	0x3dc93b6f	0.09825789
20	0xbd28a0d3	-0.041169
21	0x3d9d193b	0.07670828
22	0xbdac4f16	-0.08413522
23	0x3e09e806	0.13467416
24	0x3e08a8db	0.13345663
25	0x3e577f0b	0.21044557
26	0x3da57885	0.08079628
27	0xbe15cd6c	-0.14629143
28	0xbd45b109	-0.048264537
29	0x3dc1ddee	0.09466158
30	0x3d5d4e5b	0.054029804
31	0xbd5e18e3	-0.054222953
32	0xbded0747	-0.11573654
33	0x3e23738a	0.15962043
34	0x3dc8d2b6	0.09805815
35	0x3e052c8d	0.13005276
36	0xbe1237b5	-0.14279063
37	0xbd98717f	-0.07443523
38	0x3dce3fe2	0.100707784
39	0x3def15ca	0.11674078
40	0x3e2afc9a	0.16697922
41	0xbcbb600e	-0.02287295
42	0x3da83b56	0.082144424
43	0x3df13c0d	0.11779032
44	0x3e64c19d	0.22339483
45	0x3e7f5d6e	0.24937984
46	0x3e451964	0.19247967
47	0x3e469ac7	0.1939498
48	0x3e53b650	0.20675015
49	0xbd8b4c4e	-0.06801663
50	0x3e529261	0.20563652
51	0x3e1fd83c	0.1560983
52	0x3dfd2c1c	0.12361929
53	0xbd662693	-0.05618913
54	0xbde7dffb	-0.11322018
55	0xbe3838b1	-0.17990376
56	0xbd80323e	-0.06259583
57	0xbba88e90	-0.005143948
58	0x3b1d2b80	0.0023982227
59	0x3dd298aa	0.102830246
60	0x3d166f8a	0.036727466
61	0x3e1b95ea	0.15193906
62	0x3d85f585	0.0654097
63	0xbe319c30	-0.17344737
64	0xbe0732da	-0.13202992
65	0xbb89a5b0	-0.0042006597
66	0x3d6ba6f0	0.05753225
67	0x3e18666a	0.14882818
68	0xbd61a3e1	-0.055087928
69	0xbe55ef83	-0.20892148
70	0x3d71405a	0.05889926
71	0x3ba58161	0.0050508236
72	0x3d2a41c3	0.04156662
73	0x3ce6991f	0.028149186
74	0x3e08da20	0.13364458
75	0x3c2c6169	0.010521271
76	0xbd88054c	-0.06641635
77	0xbd985436	-0.07437937
78	0x3e41856e	0.18898556
79	0xbd9697bc	-0.0735316
80	0xbb44ccc7	-0.0030029283
81	0x3d5ca240	0.05386567
82	0x3e016f20	0.12640047
83	0xbcbf4078	-0.02334617
84	0x3e39d6a6	0.18148288
85	0x3d4daf59	0.050216053
86	0x3dcc6398	0.099799335
87	0xbc1dac02	-0.009623529
88	0x3e2a17cf	0.16610645
89	0x3e1b23eb	0.1515042
90	0x3e65a4e2	0.22426179
91	0xbdccd1e8	-0.10000974
92	0xbde68669	-0.112561055
93	0x3b63651c	0.0034697717
94	0xbe395ed8	-0.18102586
95	0x3d1806d6	0.037115894
96	0x3d73f79d	0.059562314
97	0xbdc8fb99	-0.098136134
98	0xbdfd099b	-0.12355348
99	0xbd40982e	-0.04702013
100	0xbd4b4148	-0.049622804
101	0xbe166fb7	-0.14691053
102	0x3e297593	0.16548757
103	0x3e40230b	0.18763368
104	0x3e34693e	0.17618272
105	0x3c425139	0.011860185
106	0x3d3b42cf	0.04571801
107	0x3e880361	0.26565078
108	0x3d082839	0.033241484
109	0x3d91175e	0.07084535
110	0xbb0539a1	-0.002032854
111	0x3dfc3691	0.12315095
112	0xbd55da29	-0.052210007
113	0xbbaf2f7b	-0.0053462363
114	0xbd1f94cf	-0.038960274
115	0x3d5e72e4	0.054308787
116	0x3d8201fe	0.06348036
117	0xbcf1cfeb	-0.029518088
118	0xbb8cf11f	-0.004301205
119	0x3c2bf25b	0.010494794
120	0xbd8a00fe	-0.067384705
121	0x3e3fe788	0.18740666
122	0x3e2e04bd	0.16993995
123	0xbcd5b00d	-0.026084924
124	0x3c62226e	0.013802154
125	0x3e74e0a1	0.23913814
126	0xbe0e8788	-0.13918889
127	0x3e3a4d87	0.18193637
128	0xbdc61772	-0.096724406
129	0xbe32c285	-0.17457016
130	0xbe10a333	-0.14124756
131	0xbdfdaab8	-0.12386078
132	0xbd134c5d	-0.035961498
133	0x3d8b3c42	0.06798603
134	0xbd10b849	-0.035331998
135	0x3d8290dd	0.06375287
136	0x3dbb60c8	0.09149319
137	0xbd967bdc	-0.07347843
138	0xbda2d682	-0.0795107
139	0xbdb764de	-0.08954786
140	0x3d804572	0.06263246
141	0x3cf55f5e	0.029952701
142	0x3e20a715	0.15688737
143	0xbb668c79	-0.0035178943
144	0x3d050537	0.032475676
145	0xbe3854ac	-0.1800105
146	0xbd906a8b	-0.070515715
147	0x3da662a5	0.08124284
148	0x3c21c464	0.009873483
149	0x3d904279	0.07043929
150	0xbc957f8a	-0.018249292
151	0xbe55dc24	-0.20884758
152	0xbe78b1c9	-0.2428657
153	0xbd37ab03	-0.044840824
154	0x3de3b604	0.11118701
155	0xbe5fccb2	-0.21855429
156	0xbd19db7a	-0.037562825
157	0xbd08b1a4	-0.033372536
158	0xbe32ee56	-0.1747373
159	0x3de5112c	0.11184916
160	0xbc80d208	-0.01572515
161	0x3df0904c	0.117462724
162	0x3c861e16	0.016371768
163	0xbe0295e0	-0.12752485
164	0xbe422d43	-0.18962578
165	0x3c48196b	0.012213091
166	0xbcf91126	-0.030403685
167	0xbd7d0736	-0.061774455
168	0xbdcb1496	-0.09916036
169	0xbd1ba23e	-0.037996523
170	0xbe3fcaf2	-0.18729761
171	0xbd818951	-0.06325019
172	0xbe257523	-0.16157965
173	0xbd6d8697	-0.057989683
174	0x3e593101	0.212101
175	0x3d7fca98	0.062449068
176	0x3d53cc05	0.05170824
177	0x3e3b87c1	0.18313505
178	0x3e127bf3	0.14305095
179	0xbca9ae67	-0.020713044
180	0x3da780d6	0.081788704
181	0x3d5c689f	0.053810712
182	0xbdc4e5b1	-0.09614123
183	0x3dc7b7cb	0.097518526
184	0x3e3ea9d0	0.18619466
185	0x3e61558f	0.22005294
186	0x3db7065d	0.089367606
187	0xbd85f7d6	-0.065414116
188	0xbd659a33	-0.05605526
189	0xbdc5e63f	-0.096630566
190	0xbe16eb8b	-0.1473829
191	0x3e0e6281	0.13904764
192	0x3d9cb5a4	0.07651833
193	0xbd20ad52	-0.03922779
194	0x3c553565	0.0130132185
195	0x3ba7cc92	0.005120822
196	0xbcfd7a74	-0.03094218
197	0xbdc13ec3	-0.09435799
198	0x3df881ef	0.12134158
199	0x3dca655e	0.098826155
200	0x3c82dc92	0.015974317
201	0xbc2924a9	-0.010323682
202	0x3cb9e7c0	0.022693515
203	0xbc0a80df	-0.008453577
204	0xbe197582	-0.14986232
205	0xbd199b24	-0.03750147
206	0xbe44e379	-0.19227399
207	0xbda614cd	-0.08109436
208	0xbd71add8	-0.05900368
209	0x3ceae1b9	0.028672086
210	0x3dd6312f	0.104586
211	0xbd5ffc86	-0.054684184
212	0xbd8e0150	-0.06933844
213	0x3d97f5d6	0.07419936
214	0x3e29674b	0.1654331
215	0x3df652cc	0.12027511
216	0x3d8ddd54	0.069269806
217	0xbd20c2e9	-0.03924838
218	0x3e0d818c	0.1381895
219	0x3d267089	0.040634666
220	0xbc5606ec	-0.013063174
221	0xbd542bbb	-0.051799517
222	0xbe523852	-0.20529297
223	0xbe272002	-0.16320804
224	0xbe4a28e0	-0.19742155

conv2.bias f4 [5]
0	0xbe753aa1	-0.23948146
1	0x3d657a37	0.056024756
2	0x3e24bceb	0.16087691
3	0xbd6f9c15	-0.05849846
4	0x3d5fafb2	0.054610915

bn2.weight f4 [5]
0	0x3f741249	0.953404
1	0x3f776f7b	0.9665448
2	0x3f731220	0.9494953
3	0x3f8c9e5e	1.098583
4	0x3f82afb0	1.0209866

bn2.bias f4 [5]
0	0xbe6005b5	-0.21877177
1	0xbd47b2c6	-0.048754476
2	0xbc979de1	-0.0185079
3	0xbdcd1b2f	-0.100149505
4	0xbdd721d5	-0.105045

bn2.running_mean f4 [5]
0	0x3eb98d53	0.36240634
1	0x3f569ef2	0.8383628
2	0x3edbd1a2	0.42933375
3	0xbee7b0e1	-0.45252135
4	0x3b876a0c	0.004132515

bn2.running_var f4 [5]
0	0x3f06e8b9	0.52698857
1	0x3f03dfa9	0.51513153
2	0x3ea1a29f	0.31569383
3	0x3e527612	0.20552853
4	0x3e579c02	0.21055606

conv3.weight f4 [5, 5, 3, 3]
0	0x3dfb0306	0.12256436
1	0x3d2087c8	0.03919199
2	0x3e399416	0.18122897
3	0xbd45d55e	-0.048299186
4	0xbdfc438c	-0.12317571
5	0xbd04c5b9	-0.032415126
6	0xbe233ac1	-0.15940382
7	0xbe18a2ad	-0.14905806
8	0x3dbee5b7	0.093211584
9	0x3e9c8961	0.30573562
10	0x3e88fbda	0.26754647
11	0x3c81a99e	0.01582795
12	0x3d133f75	0.03594919
13	0x3d8eb319	0.06967754
14	0x3e04a994	0.12955314
15	0x3a814934	0.0009863735
16	0x3e089bdd	0.13340707
17	0x3bed0cc5	0.0072341883
18	0xbc2f4b95	-0.0106991725
19	0x3e4b5b0e	0.19858953
20	0x3d8485dc	0.06470844
21	0x3c66e8d2	0.014093595
22	0xbd82d3c9	-0.06388051
23	0xbc998807	-0.01874162
24	0xbc6f9a93	-0.014624256
25	0xbcc86acf	-0.024464993
26	0xbcb1c2fa	-0.021699417
27	0x3dce4246	0.100712344
28	0x3e11465d	0.14186998
29	0x3dd71efd	0.105039574
30	0x3cda478f	0.02664545
31	0x3dde2cd9	0.10848398
32	0x3e1582b0	0.14600635
33	0xbda4034a	-0.0800844
34	0x3c94cd2c	0.01816424
35	0x3d6829da	0.056680538
36	0xbd42f40c	-0.047596022
37	0xbdbc9a6c	-0.09209141
38	0x3dfb8b5d	0.12282441
39	0xbddc9542	-0.10770656
40	0xbd10ba8f	-0.035334166
41	0xbde49e46	-0.11163001
42	0xbe219d47	-0.15782653
43	0xbe38fdd6	-0.1806558
44	0x3da9216b	0.08258327
45	0xbb45caab	-0.0030180614
46	0x3de20564	0.110361844
47	0xbcc485e8	-0.023989633
48	0x3e4ed9bb	0.20200245
49	0x3d8b11f5	0.067905344
50	0x3e1f0a24	0.15531212
51	0x3e7b52b4	0.24543267
52	0xbd3b9ea6	-0.045805596
53	0x3e3056be	0.1722059
54	0x3e0244db	0.12721579
55	0xbd9448eb	-0.072404705
56	0x3a9a0371	0.0011750293
57	0xbe3f10e4	-0.18658787
58	0x3d485f95	0.04891928
59	0xbc2cd5e7	-0.010549045
60	0xbd93827f	-0.072026245
61	0x3da17051	0.07882751
62	0xbde6bcaf	-0.11266457
63	0xbd7c05e8	-0.06152907
64	0x3e01cc13	0.12675504
65	0xbd170771	-0.03687233
66	0x3e144d42	0.14482597
67	0x3d72f7ba	0.05931828
68	0xbcb85027	-0.022499157
69	0x3da25681	0.079266556
70	0xbe0032cf	-0.12519382
71	0xbe375504	-0.17903525
72	0x3e46d5b4	0.19417459
73	0xbd3cd894	-0.046104982
74	0x3dd08289	0.101811476
75	0xbd3c2627	-0.045934822
76	0x3c0caf84	0.008586768
77	0xbe330869	-0.17483677
78	0xbd282a61	-0.04105604
79	0xbe1b63d5	-0.15174802
80	0xbe0854e6	-0.13313636
81	0x3c68be54	0.014205534
82	0x3d949742	0.07255413
83	0x3e3a71a7	0.18207417
84	0x3e08195b	0.13290922
85	0x3c369785	0.0111445235
86	0x3e092a8f	0.13395141
87	0x3d95d603	0.0731621
88	0x3e03d91a	0.12875786
89	0x3e6a672d	0.22890921
90	0x3e084f04	0.13311392
91	0x3da3e117	0.08001917
92	0xbe258d69	-0.16167225
93	0x3cd0c3aa	0.025483925
94	0xbd3d2690	-0.046179354
95	0x3d520af7	0.05127999
96	0x3dfdbdd2	0.12389721
97	0xbcec2a18	-0.028828666
98	0x3d28c94a	0.04120759
99	0xbe486627	-0.19570218
100	0x3db0b21f	0.08627724
101	0xbd8f64c9	-0.07001645
102	0xbb857450	-0.0040727034
103	0xbdffd02e	-0.12490879
104	0x3c4bfce2	0.012450429
105	0xbe10fe3b	-0.14159481
106	0x3cb0e57c	0.021593802
107	0xbdcc1b3a	-0.099661306
108	0xbdb52b33	-0.0884613
109	0x3bd68632	0.006546759
110	0x3ca2b327	0.019860817
111	0xbe2d8552	-0.16945389
112	0x3dbc39f4	0.09190741
113	0x3d90975a	0.07060118
114	0xbd77671a	-0.06040106
115	0xbd308899	-0.04309902
116	0xbe0670fa	-0.13129035
117	0xbe5c8c4b	-0.21537893
118	0xbd2826ca	-0.041052617
119	0xbde32ca1	-0.11092497
120	0xbcceb6b6	-0.025233608
121	0x3e3d7380	0.18501091
122	0x3e5e3b57	0.21702324
123	0x3d689865	0.05678596
124	0x3e0245e4	0.12721974
125	0x3ea860f3	0.32886466
126	0x3d7080ab	0.058716457
127	0x3d835067	0.0641182
128	0xbd947223	-0.07248332
129	0xbde4b730	-0.11167753
130	0x3acb0deb	0.0015491819
131	0x3d4ccd91	0.05000073
132	0x3e0e104b	0.13873403
133	0x3b81f57e	0.0039660325
134	0xbdb6e920	-0.08931184
135	0x3dd064cd	0.10175476
136	0xbe1bb30a	-0.15205017
137	0xbdb92ceb	-0.090417705
138	0xbbaafc1d	-0.0052180425
139	0xbd85b222	-0.06528117
140	0x3e51315e	0.20428988
141	0x3dcbdb8d	0.09953985
142	0x3d9686b3	0.073499106
143	0x3e15611c	0.14587826
144	0x3e296f71	0.16546418
145	0x3d9ffb76	0.07811634
146	0x3de4dd85	0.11175064
147	0x3c6c4050	0.01441963
148	0xbe1829f0	-0.14859748
149	0x3d048524	0.032353535
150	0x3cf47221	0.029839577
151	0xbe3b9a18	-0.18320501
152	0xbcf9ce50	-0.030493885
153	0x3e3af6a8	0.18258154
154	0x3e21e21d	0.15808912
155	0x3dd48cfe	0.103784546
156	0x3e35cd67	0.17754136
157	0x3e4889ea	0.1958386
158	0x3e6f887b	0.23391907
159	0xbb977e7e	-0.0046232333
160	0xbdd1ed15	-0.10250298
161	0x3d42b498	0.04753551
162	0x3d5b2aef	0.05350774
163	0x3c8d7fd1	0.017272862
164	0xbcad4f59	-0.021156
165	0x3e3ce1a1	0.18445446
166	0xbc7e35a9	-0.015515723
167	0x3d1786cc	0.036993787
168	0x3daa361b	0.08311101
169	0xbdfdaaee	-0.12386118
170	0x3bc09c96	0.0058780415
171	0x3db1a182	0.08673383
172	0x3d3e89fc	0.04651831
173	0xbd5cf9de	-0.05394923
174	0x3bb40f2a	0.0054949718
175	0x3dcd0034	0.10009804
176	0xbe02b69f	-0.12764977
177	0x3d98aebb	0.07455202
178	0xbca0ae5b	-0.01961439
179	0xbd8cd8e9	-0.0687731
180	0x3cfb2ac8	0.030660048
181	0x3e1508a7	0.14554082
182	0xbdac4cbc	-0.084130734
183	0x3ca5ffa2	0.020263497
184	0xbda86006	-0.0822144
185	0xbc7e80c3	-0.015533629
186	0xbdfbcdaa	-0.12295087
187	0x3d560d79	0.052258942
188	0x3d19a7fe	0.037513725
189	0x3c8cf7e4	0.017208047
190	0xbdc5d689	-0.0966006
191	0x3e00f425	0.12593134
192	0x3e27cfa3	0.16387801
193	0xbc3f9b78	-0.0116947815
194	0xbdb93dcb	-0.09044989
195	0xbd062731	-0.03275222
196	0xbde8e6bb	-0.11372133
197	0xbd6cca9f	-0.057810422
198	0x3cf97354	0.0304505
199	0xbd1e7e5d	-0.03869473
200	0xbc9452dd	-0.018105919
201	0x3d96d3bc	0.07364604
202	0x3c5e28f6	0.013559571
203	0xbd826fa2	-0.063689485
204	0x3c5b0426	0.013367688
205	0x3d320e71	0.043470804
206	0xbe2781f3	-0.16358165
207	0x3ddd4514	0.10804191
208	0x3dcc84c7	0.09986263
209	0x3d3df709	0.04637817
210	0xbcb3937f	-0.021920918
211	0xbddeb9c9	-0.108752795
212	0xbceb71c3	-0.02874077
213	0xbc1d6a5f	-0.00960788
214	0xbc38a922	-0.011270793
215	0x3cd26f8d	0.025687957
216	0x3e06b44f	0.1315472
217	0x3da87ea3	0.08227279
218	0x3d843e3e	0.06457184
219	0x3ea76751	0.32696012
220	0x3f0c904e	0.5490769
221	0x3ebc7b88	0.36812997
222	0x3c2ef170	0.01067768
223	0x3e5625a6	0.20912799
224	0x3e2cd77d	0.16879077

conv3.bias f4 [5]
0	0x3db77365	0.08957557
1	0x3d6fbcc0	0.058529615
2	0x3e411373	0.18855076
3	0xbd97aace	-0.07405625
4	0x3d24e691	0.040258948

bn3.weight f4 [5]
0	0x3fb156f6	1.3854663
1	0x3fb21bc6	1.3914726
2	0x3fbf2343	1.4932636
3	0x3fb74294	1.4317193
4	0x3fb3f00d	1.4057633

bn3.bias f4 [5]
0	0x3e4a9cff	0.19786452
1	0xbcaaf055	-0.020866552
2	0x3e099b06	0.13438043
3	0x3e84752d	0.25870648
4	0x3e4f158a	0.2022306

bn3.running_mean f4 [5]
0	0x3f112577	0.5669779
1	0x3edbe30f	0.4294667
2	0x3dfa0a96	0.1220905
3	0x3f0f468f	0.5596704
4	0x3f21c68b	0.6319358

bn3.running_var f4 [5]
0	0x3edb96a6	0.42888373
1	0x3ed6213b	0.41822228
2	0x3e2a31e5	0.16620596
3	0x3ec61ce9	0.38693932
4	0x3f82636a	1.0186589

fc1.weight f4 [100, 405]
0	0xbd516e30	-0.051130474
1	0x3bf978a1	0.007613257
2	0xbc14a679	-0.009072893
3	0x3d0316ed	0.032004286
4	0x3d487cc3	0.048947107
5	0xbc334510	-0.010941759
6	0x3c98597b	0.018597355
7	0xbd42ccc1	-0.04755855
8	0xbd836819	-0.064163394
9	0xbd1bced9	-0.038039062
10	0x3ccc86da	0.024966646
11	0xbcd009e2	-0.025395337
12	0x3e0b33e4	0.13594013
13	0x3d4db900	0.050225258
14	0x3dac480b	0.084121786
15	0x3c798b63	0.015230986
16	0xbcbdef98	-0.023185536
17	0x3be36cf4	0.0069404785
18	0x3ccc2fa6	0.024925064
19	0x3cb81b66	0.022474002
20	0x3dc9ab08	0.09847075
21	0x3e21ce25	0.15801294
22	0x3d3cf9bd	0.046136606
23	0x3d7d6fbd	0.06187414
24	0x3d908cec	0.07058129
25	0x3c3f3bfa	0.011672014
26	0x3d18f05b	0.037338596
27	0xbdab2194	-0.08356014
28	0xbaa8c089	-0.0012874763
29	0x3cb4a5f6	0.022051793
30	0x3e031ff9	0.12805165
31	0xbd5c6061	-0.05380285
32	0x3cfdf886	0.031002294
33	0x3ddd4c1b	0.108055316
34	0x3cee4d3e	0.029089566
35	0xbd368392	-0.04455907
36	0x3c9d96ba	0.019236911
37	0xbd9c46ae	-0.076306686
38	0xbdc08944	-0.09401181
39	0x3cab15ed	0.020884478
40	0x3ced651c	0.028978877
41	0xbd691d47	-0.056912687
42	0x3cbf84bd	0.023378724
43	0xbcb4239b	-0.021989634
44	0xbb7a068f	-0.0038150882
45	0x3cffdcee	0.031233277
46	0xbdb7f359	-0.08981962
47	0xbdd47479	-0.10373778
48	0xbc0d9d2d	-0.008643431
49	0x3d7652a1	0.060137395
50	0xbcab9b90	-0.020948201
51	0x3d0b6285	0.034029502
52	0xbe03d93a	-0.12875834
53	0xbe0dca9b	-0.13846819
54	0xbd874fae	-0.066069946
55	0xbd35178c	-0.04421191
56	0xbda94d06	-0.08266644
57	0xbe130166	-0.14356002
58	0xbd9a7243	-0.07541325
59	0xbe0828fd	-0.13296886
60	0xbe11b0af	-0.14227556
61	0xbe1c31bf	-0.15253352
62	0xbe313bec	-0.17308015
63	0x3ccab0bd	0.024742479
64	0xbdc7723c	-0.09738585
65	0xbd6a5099	-0.05720577
66	0xbde2988f	-0.110642545
67	0xbde5b049	-0.11215264
68	0xbe33c04e	-0.17553827
69	0xbe41e2ee	-0.18934223
70	0xbe7b95d9	-0.24568881
71	0xbe4dab5c	-0.200849
72	0x3a20a061	0.0006127414
73	0xbd157e59	-0.036497448
74	0xbe0f0b10	-0.13969064
75	0xbdae4178	-0.08508581
76	0xbe162e14	-0.14666015
77	0xbdf82702	-0.12116815
78	0xbe69f02e	-0.22845528
79	0xbec93529	-0.3929837
80	0xbebaa2c4	-0.36452305
81	0x3d4d0d99	0.050061796
82	0x3d6cdc8b	0.057827514
83	0x3d84a55a	0.06476851
84	0xbb1aa16a	-0.0023594745
85	0x3df5f0ff	0.12008857
86	0xbd3fff7d	-0.046874512
87	0xbd5d3deb	-0.054014128
88	0xbd6433f1	-0.055713598
89	0xbd949a83	-0.07256033
90	0x3d265e45	0.040617246
91	0x3dce3952	0.10069527
92	0x3c359839	0.011083656
93	0xbd1c0624	-0.038091794
94	0xbd838a80	-0.06422901
95	0xbdad41e0	-0.0845983
96	0xbd295acf	-0.041346367
97	0xbd91ad5f	-0.07113146
98	0xbcf281b9	-0.029602872
99	0x3d68a497	0.05679759
100	0x3ce6b024	0.028160162
101	0xbd8ddceb	-0.069269024
102	0xbd1ffa9b	-0.039057355
103	0xbd2d0e1a	-0.042249776
104	0xbd5d9c2e	-0.054104023
105	0xbce28293	-0.027650153
106	0xbd7ecb0a	-0.062205352
107	0x3beababa	0.007163373
108	0x3df2578e	0.11833106
109	0x3d96a8df	0.07356428
110	0x3d10f73f	0.035392042
111	0x3df79862	0.120896116
112	0x3cb5c536	0.022188764
113	0x3ce70cde	0.028204378
114	0xbd26a76d	-0.040687013
115	0xbc880f07	-0.016608728
116	0x3d205e24	0.03915228
117	0x3de8832d	0.11353145
118	0x3dc1c896	0.09462087
119	0x3e7013b5	0.23445018
120	0x3e296b4d	0.16544838
121	0xbd160681	-0.036627296
122	0x3c5eabe3	0.013590786
123	0x3d471108	0.048600227
124	0xbd9e4fa5	-0.07730035
125	0x3d8d9b58	0.06914395
126	0xbc705b97	-0.014670274
127	0x3d76bb9a	0.060237505
128	0x3e5d63b8	0.21620071
129	0x3e07666a	0.13222662
130	0x3cde13ad	0.027108992
131	0x3c2daa0a	0.0105996225
132	0xbc417925	-0.011808668
133	0xbd8c57c6	-0.06852679
134	0xbce653f1	-0.028116198
135	0xbd3b6715	-0.045752604
136	0x3d41f23c	0.047350153
137	0x3cb9c759	0.022678064
138	0x3dc5604b	0.09637507
139	0x3dcd1982	0.10014631
140	0x3df70944	0.12062314
141	0x3d1c13e9	0.038104925
142	0x3cffd5cc	0.031229876
143	0xbc040255	-0.008057197
144	0x3c014077	0.007888905
145	0x3dd44431	0.10364569
146	0xbd10f935	-0.035393912
147	0xbc77081b	-0.015077616
148	0xbd0e0eee	-0.034682207
149	0xbd496963	-0.04917277
150	0xbe61c8cf	-0.22049259
151	0xbddddb13	-0.10832801
152	0x3d57a5f5	0.052648503
153	0x3ca9c08c	0.020721696
154	0x3d62321d	0.055223573
155	0xbe1ddbbf	-0.15415858
156	0xbd91f336	-0.07126467
157	0x3dce8e3e	0.10085724
158	0x3e3c7fe8	0.18408167
159	0x3e33e0d5	0.17566235
160	0x3d3f3300	0.046679497
161	0x3e467cfc	0.19383615
162	0xbe359018	-0.17730749
163	0xbe45a18e	-0.1929991
164	0xbe3a88c4	-0.18216234
165	0xbd9b40a9	-0.07580692
166	0xbe154f6b	-0.14581077
167	0xbe16dec9	-0.14733423
168	0xbe01d80f	-0.12680076
169	0x3e1389e4	0.1440807
170	0x3dc3d9d9	0.095630355
171	0xbd2ad0d6	-0.041703068
172	0xbd6d3a22	-0.057916768
173	0xbbf7c6ac	-0.0075615253
174	0xbcc3616a	-0.023850162
175	0x3d581b7b	0.052760582
176	0xbcf3b0f5	-0.029747466
177	0xbcebf079	-0.02880119
178	0x3e023461	0.12715293
179	0x3c9a97ac	0.01887115
180	0xbd81fd4d	-0.063471414
181	0xbdc845e6	-0.09778957
182	0x3d723ca5	0.059139866
183	0x3cadd65d	0.02122038
184	0xbd19b4d5	-0.03752597
185	0xbdb72099	-0.089417644
186	0xbe33e07b	-0.17566101
187	0x3b189d2c	0.002328704
188	0xbd29e4f4	-0.041478112
189	0xbb1cc14a	-0.002391892
190	0xbc81514a	-0.015785832
191	0xbbf7bc55	-0.0075602927
192	0x3adc160c	0.0016791238
193	0xbd2fbc42	-0.042904146
194	0xbcf0c9ba	-0.029393066
195	0x3ce640ac	0.02810701
196	0x3d060750	0.032721817
197	0xbc0f2e17	-0.008739016
198	0x3d0c938e	0.034320407
199	0x3ca1f31f	0.01976925
200	0x3bd1f470	0.006407313
201	0x3dc59e8e	0.096493825
202	0x3da114c0	0.07865286
203	0xbb964b55	-0.004586617
204	0x3d2375fd	0.039907444
205	0xbe00f3a3	-0.1259294
206	0x3a2c75f4	0.00065788557
207	0x3dc5fd62	0.096674696
208	0x3d222e0b	0.03959469
209	0x3dd4c1f1	0.10388554
210	0x3dd1370a	0.10215576
211	0xb9304e0f	-0.00016813747
212	0xbce9e902	-0.02855349
213	0x3d9a5c58	0.075371444
214	0xbceaf156	-0.028679531
215	0xbc775a04	-0.015097145
216	0x3d86850e	0.06568347
217	0x3df28d4b	0.11843356
218	0xbce4db0f	-0.027936487
219	0x3da49138	0.08035511
220	0xbe02cefc	-0.12774271
221	0xbb14fa95	-0.0022732366
222	0x3e11daa7	0.14243565
223	0xbd25f6e4	-0.040518656
224	0x3c2a6ca8	0.010401882
225	0x3e80469e	0.25053877
226	0x3e0d147f	0.1377735
227	0x3d55dd36	0.052212916
228	0x3b025f77	0.0019893327
229	0x3cfd0a07	0.03088857
230	0xbbd94be4	-0.0066313613
231	0x3c3113c8	0.010807939
232	0xbdd7f8cf	-0.10545503
233	0x3c96cb5f	0.018407522
234	0x3e840db7	0.25791714
235	0x3e60f404	0.21968085
236	0x3e538d80	0.20659447
237	0x3e44a7d6	0.1920465
238	0x3da9b54c	0.08286533
239	0xbb80eb00	-0.003934264
240	0x3ddf4e12	0.109035626
241	0x3d842bdd	0.06453679
242	0x3c5c7f8c	0.013458144
243	0xbd764d9e	-0.060132615
244	0x3c8b225b	0.016984155
245	0xbd9b7f44	-0.07592633
246	0x3d7b9e05	0.061429996
247	0x3c434cec	0.011920195
248	0x3c1f1160	0.009708732
249	0x3db34d0b	0.08754929
250	0xbd8b099b	-0.067889415
251	0xbd0e477b	-0.034736138
252	0xbdd32843	-0.10310414
253	0xbd954b02	-0.07289697
254	0xbdc70ce3	-0.09719255
255	0xbbbffcff	-0.005859017

fc1.bias f4 [100]
0	0xbdbd3914	-0.092394024
1	0xbce590df	-0.028023181
2	0xb9cb0eb8	-0.00038730144
3	0xba239f6e	-0.00062417134
4	0x3c1d3247	0.009594507
5	0xbd7d7f2f	-0.06188887
6	0x3d961e3c	0.073299855
7	0x3d51dd8f	0.051236685
8	0x3d38eaba	0.045145728
9	0xbd645178	-0.055741757
10	0x3d708926	0.058724545
11	0x3c5e7305	0.0135772275
12	0x3d9dbdc4	0.077022105
13	0xbd67362a	-0.05644814
14	0x3d1e1b00	0.038599968
15	0x3cd04ecd	0.0254282
16	0xbdaa2d9e	-0.08309482
17	0xbd0c0d67	-0.03419247
18	0x3d551674	0.052023366
19	0x3c63542d	0.01387505
20	0x3df7155f	0.12064623
21	0x3d26b809	0.040702853
22	0xbaa3580f	-0.0012462157
23	0x3d397627	0.045278694
24	0x3e25d56f	0.161947
25	0x3d991eda	0.074765876
26	0x3e0042f8	0.12525547
27	0x3c92c04d	0.017913962
28	0x3e14f976	0.14548287
29	0xbc6d440c	-0.014481556
30	0xbc6f1b51	-0.014593915
31	0x3accded9	0.0015630379
32	0x3d636f08	0.05552581
33	0xbd74d512	-0.059773512
34	0x3cab3d95	0.020903388
35	0x3ca5b46d	0.020227635
36	0x3d37e118	0.0448924
37	0x3de83aab	0.11339315
38	0xbde3d693	-0.11124911
39	0x3cfd9a9a	0.030957509
40	0xbc6efa93	-0.014586109
41	0xbd409144	-0.047013536
42	0xbb2079e3	-0.0024486713
43	0xbbe1f7a0	-0.0068959743
44	0xbcc528e9	-0.024067359
45	0x3dd634ca	0.104592875
46	0xbd5776ce	-0.052603535
47	0xbc1c95ec	-0.009557229
48	0xbd70b974	-0.058770612
49	0x3d768b1f	0.06019127
50	0x3cdadcee	0.026716676
51	0x3da92fa9	0.082610436
52	0xbbf172d2	-0.007368424
53	0xbda237c0	-0.0792079
54	0x3d934f99	0.071929164
55	0x3cf50d5e	0.0299136
56	0x3d339dc0	0.043851614
57	0xbd45bfbf	-0.048278566
58	0x3b8584d7	0.0040746736
59	0x3cd67aa7	0.026181532
60	0x3dc44d49	0.095850535
61	0xbdd89c39	-0.10576672
62	0x3e2bcc01	0.1677704
63	0xbc906307	-0.017625345
64	0xbd31a05c	-0.04336582
65	0x3bf0da97	0.0073502767
66	0x3c4276f0	0.011869177
67	0x3cd4dbb1	0.025983663
68	0x3db6da57	0.08928364
69	0x3d1ad8a7	0.037804272
70	0xbca1dc45	-0.019758353
71	0x3e0e192b	0.13876788
72	0xbd1041ea	-0.03521911
73	0x3c5ed8f2	0.0136015285
74	0x3e1775e9	0.14791073
75	0x3ded3e08	0.11584097
76	0xbd7f2d00	-0.062298775
77	0x3c8a172d	0.016856754
78	0xbd0d5ea1	-0.034514073
79	0xbd6945fe	-0.056951515
80	0x3c9a84ff	0.018862246
81	0x3d85627d	0.06512926
82	0x3c35154a	0.011052439
83	0xbc5f9b5e	-0.013647882
84	0xbcb762f2	-0.022386048
85	0xbd9a12b8	-0.075231016
86	0xbd1316ff	-0.035910603
87	0x3d8aca83	0.06776907
88	0x3d384f3a	0.04499743
89	0xbd11b2e7	-0.035571005
90	0x3de99d29	0.11406929
91	0x3cd90560	0.02649182
92	0xbd7ea74c	-0.062171265
93	0x3c92ba3b	0.017911067
94	0x3d80b81c	0.06285116
95	0xbd3866b4	-0.04501982
96	0x3d20c5f8	0.039251298
97	0x3dce93a4	0.10086754
98	0x3d0c426e	0.03424304
99	0x3cae7631	0.021296592

fc2.weight f4 [10, 100]
0	0xbeb0dceb	-0.34543547
1	0xbdda8fe1	-0.10671974
2	0xbd9ed813	-0.07756057
3	0x3e1c2696	0.15249094
4	0xbd8de42d	-0.06928287
5	0x3c69c1bc	0.014267381
6	0xbda4c0e9	-0.08044607
7	0x3df869f1	0.12129582
8	0x3c8b866f	0.017031876
9	0xbbb247e2	-0.005440698
10	0x3db4b239	0.08823056
11	0xbe242600	-0.16030121
12	0xbebfa887	-0.37433264
13	0xbd59ff8b	-0.05322222
14	0xbcf32151	-0.029678972
15	0x3dd8dc09	0.105888434
16	0xbd4082fd	-0.04699992
17	0x3db63510	0.088968396
18	0x3e16531d	0.14680143
19	0x3d29f904	0.041497245
20	0xbdf26a95	-0.11836735
21	0x3d9bd974	0.07609835
22	0xbdcdaea5	-0.100430764
23	0x3de352f2	0.11099805
24	0xbea1c97f	-0.31599042
25	0x3db76a31	0.08955801
26	0x3e515548	0.20442688
27	0xbe664089	-0.22485556
28	0xbe41cade	-0.18925044
29	0xbebc60f5	-0.36792722
30	0xbe9b89bf	-0.3037853
31	0x3c283aff	0.010267972
32	0x3dd1e369	0.10248453
33	0xbd82c4d2	-0.06385197
34	0x3deb2419	0.114814945
35	0x3dc58f93	0.09646525
36	0x3bf4e4db	0.0074735708
37	0x3dbb3571	0.091410525
38	0x3e40c390	0.18824601
39	0xbe470324	-0.19434792
40	0xbec95dd7	-0.39329407
41	0x3dc7f710	0.0976392
42	0xbd51d491	-0.05122811
43	0xbea08949	-0.3135474
44	0xbbfb7134	-0.007673407
45	0x3d85a755	0.06526057
46	0xbe999b9c	-0.30001533
47	0x3daab56d	0.083353855
48	0x3e0df7b4	0.13864022
49	0x3d7636db	0.060110908
50	0x3d000671	0.031256143
51	0xbcfb65bb	-0.030688157
52	0xbd55f733	-0.0522377
53	0xbd6a9eb4	-0.057280257
54	0x3dd9a66d	0.10627446
55	0xbdd0dbcf	-0.10198175
56	0x3deaf90b	0.114732824
57	0x3d04e599	0.032445524
58	0xbf0cec29	-0.5504785
59	0x3df2c997	0.118548565
60	0x3ce46739	0.027881252
61	0xbe3e7688	-0.18599904
62	0x3c92fcf7	0.017942889
63	0x3dba3439	0.09091992
64	0xbe7d2e5d	-0.24724717
65	0x3e12a3e7	0.14320336
66	0x3d9f12f8	0.0776729
67	0xbe0f188b	-0.13974206
68	0xbd7ed413	-0.06221397
69	0x3b887ae9	0.0041650427
70	0xbef7c235	-0.48390356
71	0xbe31d212	-0.17365292
72	0x3e821640	0.254076
73	0xbca61a57	-0.020276232
74	0x3ded8097	0.11596792
75	0xbcb9291d	-0.022602612
76	0xbdf671e0	-0.12033439
77	0xbe83c500	-0.25736237
78	0xbc1aa1ce	-0.009437991
79	0x3dc09857	0.094040565
80	0xbdcbe988	-0.09956652
81	0xbea196c5	-0.3156034
82	0xbe20d3bf	-0.15705775
83	0xbe018429	-0.12648071
84	0x3de5d794	0.11222759
85	0x3d568917	0.052376833
86	0x3e1757ec	0.14779633
87	0xbdb62ba2	-0.08895041
88	0x3e0cc0d8	0.13745439
89	0xbc0c927c	-0.0085798465
90	0xbce3b7b2	-0.027797554
91	0xbe1851eb	-0.14874999
92	0x3e1dba41	0.15403081
93	0xbe1ad8b9	-0.15121736
94	0xbe3d68a9	-0.18496956
95	0xbe894a31	-0.26814416
96	0xbd948d96	-0.07253568
97	0xbea456c8	-0.3209746
98	0x3e17b4f1	0.14815117
99	0x3e3df1e8	0.18549311
100	0x3d7a61cd	0.061128426
101	0x3dcfb8e8	0.1014269
102	0x3d962f2e	0.073332176
103	0xbdd926d2	-0.106031075
104	0xbd3cad95	-0.04606398
105	0x3da496de	0.08036588
106	0x3e21ca2c	0.15799779
107	0xbe3dc5ea	-0.1853253
108	0xbddb4aa0	-0.10707593
109	0x3dbca11d	0.092104174
110	0xbebe18ad	-0.371282
111	0x3e2e226f	0.17005323
112	0x3c997556	0.018732708
113	0x3dbc5ca4	0.09197357
114	0x3da8ea58	0.082478225
115	0xbde7123d	-0.112827756
116	0x3dce8610	0.10084164
117	0x3da29488	0.07938486
118	0xbd1a3a84	-0.03765346
119	0xbe2aad9c	-0.16667789
120	0xbdbaf0f5	-0.0912799
121	0xbd9c0516	-0.076181576
122	0x3d9f0c0a	0.07765968
123	0xbdba88f7	-0.09108155
124	0xbed4e88f	-0.41583678
125	0xbe5dc676	-0.21657738
126	0xbd22706e	-0.039658003
127	0xbeb09eae	-0.34496063
128	0x3dc10f34	0.09426728
129	0xbee47ba3	-0.44625577
130	0x3e07a072	0.13244799
131	0xbed68719	-0.41899946
132	0x3dd0ac2d	0.1018909
133	0xbd684be3	-0.056712996
134	0xbddcc8f1	-0.10780514
135	0x3d1a8c70	0.037731588
136	0xbe13230b	-0.14368837
137	0x3d01386a	0.03154794
138	0x3e1bbc52	0.15208557
139	0x3e264413	0.16236906
140	0x3dd17cf9	0.10228915
141	0x3d9b3563	0.07578542
142	0x3dd13bb5	0.10216466
143	0x3e5169ba	0.20450488
144	0x3dc09e3e	0.09405182
145	0xbe987515	-0.29776827
146	0x3cd30a91	0.025761874
147	0xbdd3415b	-0.103152
148	0x3e1235f6	0.14278397
149	0xbddb8fb4	-0.107207686
150	0x3e2d5ff3	0.16931133
151	0xbc5594f8	-0.013036005
152	0x3e3ff1fd	0.18744655
153	0xbbca69df	-0.0061771716
154	0xbeadbb48	-0.33931947
155	0x3dc9ebbd	0.09859417
156	0xbe294c5f	-0.1653304
157	0x3e0db9c4	0.13840395
158	0xbe00abbd	-0.12565513
159	0x3da7facf	0.08202135
160	0x3de173c8	0.11008412
161	0x3e083497	0.13301311
162	0x3b258d45	0.0025261205
163	0x3deac70e	0.11463748
164	0x3bcd1c38	0.0062594675
165	0xbe439366	-0.19099197
166	0xbe2d2912	-0.16910198
167	0xbc92f7a6	-0.017940354
168	0xbe62f08a	-0.22162071
169	0xbe54721a	-0.20746651
170	0xbe1e3f6e	-0.15453884
171	0xbe667b7a	-0.2250804
172	0xbe5d3aeb	-0.21604507
173	0x3dae1d59	0.08501691
174	0xbe7c9e77	-0.24669825
175	0xbeeebdc4	-0.46629155
176	0x3e2c81f6	0.16846451
177	0x3e07716d	0.13226862
178	0x3dc0a436	0.09406321
179	0x3dc0fb5f	0.09422945
180	0xbe30d235	-0.17267688
181	0xbe60e1bf	-0.21961115
182	0xbebaf7ba	-0.36517125
183	0xbd872f55	-0.06600825
184	0x3d68f6c9	0.056875978
185	0xbd743153	-0.05961735
186	0x3d9999dd	0.0750005
187	0xbe111c0b	-0.14170854
188	0xbe909f98	-0.2824676
189	0xbd03951a	-0.032124616
190	0xbe0a4941	-0.13504507
191	0x3d6c46a7	0.057684567
192	0x3e05a7ce	0.13052294
193	0xbe841a53	-0.25801334
194	0xbec401c3	-0.38282594
195	0xbe0d556b	-0.13802116
196	0xbe5bcebd	-0.21465583
197	0x3c8909cc	0.016728304
198	0x3d895301	0.06705285
199	0x3e0f73dc	0.1400904
200	0x3e01fecc	0.12694854
201	0x3da04800	0.07826233
202	0xbe33b7c9	-0.17550577
203	0x3b9e5e7b	0.0048330403
204	0xbe4bf89a	-0.19919053
205	0xbea930f0	-0.3304515
206	0xbd9ae862	-0.07563855
207	0xbeb3d006	-0.35119647
208	0x3dedd24d	0.11612377
209	0x3d8f5320	0.06998277
210	0xbec79e75	-0.3898808
211	0xbe99396b	-0.2992662
212	0xbe745733	-0.23861389
213	0x3e139296	0.14411387
214	0x3c269f2a	0.010169784
215	0xbe703289	-0.23456778
216	0x3def1359	0.11673612
217	0xbd4eef24	-0.05052103
218	0xbcc8de99	-0.024520205
219	0xbdfe45a9	-0.1241563
220	0x3e38fac5	0.18064411
221	0x3d85a779	0.065260835
222	0x3e2ee179	0.17078198
223	0xbea45dc7	-0.32102796
224	0x3d3bb4ec	0.045826837
225	0xbe8c4eae	-0.27403778
226	0x3a358389	0.00069242023
227	0x3db574c6	0.088601634
228	0xbeda21cf	-0.4260392
229	0xbe5b2f6e	-0.21404812
230	0x3dedc611	0.11610044
231	0xbdbed3e6	-0.0931776
232	0xbd1e9310	-0.03871447
233	0x3d889f32	0.06670989
234	0x3da3154f	0.07963049
235	0xbe54e9a9	-0.2079226
236	0xbe410188	-0.1884824
237	0xbe04f2e0	-0.12983274
238	0x3e11a94e	0.14224741
239	0xbe996076	-0.29956406
240	0x3e041484	0.12898451
241	0x3de49d83	0.111628555
242	0xbe1f54ef	-0.15559743
243	0xbe644938	-0.22293556
244	0xbd14f337	-0.03636476
245	0xbe742ad3	-0.23844461
246	0x3d45da88	0.04830411
247	0x3dde673a	0.10859533
248	0x3cfe7109	0.031059759
249	0x3cc391d4	0.023873247
250	0xbcf9f352	-0.030511532
251	0x3e4816c6	0.19539937
252	0x3e0f681e	0.14004561
253	0x3dc60c49	0.09670312
254	0xbe3bd287	-0.18342029
255	0x3dcb8458	0.09937352

fc2.bias f4 [10]
0	0xbbcc787d	-0.0062399493
1	0x3b030597	0.0019992345
2	0xbc95e4c2	-0.018297557
3	0x3e1619d4	0.1465829
4	0xbd3baabb	-0.04581712
5	0x3cc06184	0.023484
6	0xbe286a6f	-0.16446851
7	0xbe11c26a	-0.1423432
8	0xbd83100f	-0.06399547
9	0x3d8f8d4f	0.07009374
